…
stepsize: 50000
snapshot: 0
snapshot_prefix: "fpn"
average_loss: 100
iter_size: 2
I0102 15:13:06.426352 23855 solver.cpp:81] Creating training net from train_net file: models/kitti/VGG16/roi_roi345/train.prototxt
I0102 15:13:06.561348 23855 net.cpp:49] Initializing net from parameters: 
name: "VGG_ILSVRC_16_layers"
state {
  phase: TRAIN
}
layer {
  name: "input-data"
  type: "Python"
  top: "data"
  top: "im_info"
  top: "gt_boxes"
  python_param {
    module: "roi_data_layer.layer"
    layer: "RoIDataLayer"
    param_str: "\'num_classes\': 4"
  }
}
layer {
  name: "conv1_1"
  type: "Convolution"
  bottom: "data"
  top: "conv1_1"
  param {
    lr_mult: 0
    decay_mult: 0
  }
  param {
    lr_mult: 0
    decay_mult: 0
  }
  convolution_param {
    num_output: 64
    pad: 1
    kernel_size: 3
  }
}
layer {
  name: "relu1_1"
  type: "ReLU"
  bottom: "conv1_1"
  top: "conv1_1"
}
layer {
  name: "conv1_2"
  type: "Convolution"
  bottom: "conv1_1"
  top: "conv1_2"
  param {
    lr_mult: 0
    decay_mult: 0
  }
  param {
    lr_mult: 0
    decay_mult: 0
  }
  convolution_param {
    num_output: 64
    pad: 1
    kernel_size: 3
  }
}
layer {
  name: "relu1_2"
  type: "ReLU"
  bottom: "conv1_2"
  top: "conv1_2"
}
layer {
  name: "pool1"
  type: "Pooling"
  bottom: "conv1_2"
  top: "pool1"
  pooling_param {
    pool: MAX
    kernel_size: 2
    stride: 2
  }
}
layer {
  name: "conv2_1"
  type: "Convolution"
  bottom: "pool1"
  top: "conv2_1"
  param {
    lr_mult: 0
    decay_mult: 0
  }
  param {
    lr_mult: 0
    decay_mult: 0
  }
  convolution_param {
    num_output: 128
    pad: 1
    kernel_size: 3
  }
}
layer {
  name: "relu2_1"
  type: "ReLU"
  bottom: "conv2_1"
  top: "conv2_1"
}
layer {
  name: "conv2_2"
  type: "Convolution"
  bottom: "conv2_1"
  top: "conv2_2"
  param {
    lr_mult: 0
    decay_mult: 0
  }
  param {
    lr_mult: 0
    decay_mult: 0
  }
  convolution_param {
    num_output: 128
    pad: 1
    kernel_size: 3
  }
}
layer {
  name: "relu2_2"
  type: "ReLU"
  bottom: "conv2_2"
  top: "conv2_2"
}
layer {
  name: "pool2"
  type: "Pooling"
  bottom: "conv2_2"
  top: "pool2"
  pooling_param {
    pool: MAX
    kernel_size: 2
    stride: 2
  }
}
layer {
  name: "conv3_1"
  type: "Convolution"
  bottom: "pool2"
  top: "conv3_1"
  param {
    lr_mult: 1
  }
  param {
    lr_mult: 2
  }
  convolution_param {
    num_output: 256
    pad: 1
    kernel_size: 3
  }
}
layer {
  name: "relu3_1"
  type: "ReLU"
  bottom: "conv3_1"
  top: "conv3_1"
}
layer {
  name: "conv3_2"
  type: "Convolution"
  bottom: "conv3_1"
  top: "conv3_2"
  param {
    lr_mult: 1
  }
  param {
    lr_mult: 2
  }
  convolution_param {
    num_output: 256
    pad: 1
    kernel_size: 3
  }
}
layer {
  name: "relu3_2"
  type: "ReLU"
  bottom: "conv3_2"
  top: "conv3_2"
}
layer {
  name: "conv3_3"
  type: "Convolution"
  bottom: "conv3_2"
  top: "conv3_3"
  param {
    lr_mult: 1
  }
  param {
    lr_mult: 2
  }
  convolution_param {
    num_output: 256
    pad: 1
    kernel_size: 3
  }
}
layer {
  name: "relu3_3"
  type: "ReLU"
  bottom: "conv3_3"
  top: "conv3_3"
}
layer {
  name: "pool3"
  type: "Pooling"
  bottom: "conv3_3"
  top: "pool3"
  pooling_param {
    pool: MAX
    kernel_size: 2
    stride: 2
  }
}
layer {
  name: "conv4_1"
  type: "Convolution"
  bottom: "pool3"
  top: "conv4_1"
  param {
    lr_mult: 1
  }
  param {
    lr_mult: 2
  }
  convolution_param {
    num_output: 512
    pad: 1
    kernel_size: 3
  }
}
layer {
  name: "relu4_1"
  type: "ReLU"
  bottom: "conv4_1"
  top: "conv4_1"
}
layer {
  name: "conv4_2"
  type: "Convolution"
  bottom: "conv4_1"
  top: "conv4_2"
  param {
    lr_mult: 1
  }
  param {
    lr_mult: 2
  }
  convolution_param {
    num_output: 512
    pad: 1
    kernel_size: 3
  }
}
layer {
  name: "relu4_2"
  type: "ReLU"
  bottom: "conv4_2"
  top: "conv4_2"
}
layer {
  name: "conv4_3"
  type: "Convolution"
  bottom: "conv4_2"
  top: "conv4_3"
  param {
    lr_mult: 1
  }
  param {
    lr_mult: 2
  }
  convolution_param {
    num_output: 512
    pad: 1
    kernel_size: 3
  }
}
layer {
  name: "relu4_3"
  type: "ReLU"
  bottom: "conv4_3"
  top: "conv4_3"
}
layer {
  name: "pool4"
  type: "Pooling"
  bottom: "conv4_3"
  top: "pool4"
  pooling_param {
    pool: MAX
    kernel_size: 2
    stride: 2
  }
}
layer {
  name: "conv5_1"
  type: "Convolution"
  bottom: "pool4"
  top: "conv5_1"
  param {
    lr_mult: 1
  }
  param {
    lr_mult: 2
  }
  convolution_param {
    num_output: 512
    pad: 1
    kernel_size: 3
  }
}
layer {
  name: "relu5_1"
  type: "ReLU"
  bottom: "conv5_1"
  top: "conv5_1"
}
layer {
  name: "conv5_2"
  type: "Convolution"
  bottom: "conv5_1"
  top: "conv5_2"
  param {
    lr_mult: 1
  }
  param {
    lr_mult: 2
  }
  convolution_param {
    num_output: 512
    pad: 1
    kernel_size: 3
  }
}
layer {
  name: "relu5_2"
  type: "ReLU"
  bottom: "conv5_2"
  top: "conv5_2"
}
layer {
  name: "conv5_3"
  type: "Convolution"
  bottom: "conv5_2"
  top: "conv5_3"
  param {
    lr_mult: 1
  }
  param {
    lr_mult: 2
  }
  convolution_param {
    num_output: 512
    pad: 1
    kernel_size: 3
  }
}
layer {
  name: "relu5_3"
  type: "ReLU"
  bottom: "conv5_3"
  top: "conv5_3"
}
layer {
  name: "conv5_256"
  type: "Convolution"
  bottom: "conv5_3"
  top: "conv5_256"
  param {
    lr_mult: 1
  }
  param {
    lr_mult: 2
  }
  convolution_param {
    num_output: 256
    pad: 0
    kernel_size: 1
    weight_filler {
      type: "gaussian"
      std: 0.01
    }
    bias_filler {
      type: "constant"
      value: 0
    }
  }
}
layer {
  name: "conv5_256_relu"
  type: "ReLU"
  bottom: "conv5_256"
  top: "conv5_256"
}
layer {
  name: "conv5_256_up"
  type: "Deconvolution"
  bottom: "conv5_256"
  top: "conv5_256_up"
  param {
    lr_mult: 0
    decay_mult: 0
  }
  convolution_param {
    num_output: 256
    bias_term: false
    pad: 1
    kernel_size: 4
    group: 256
    stride: 2
    weight_filler {
      type: "bilinear"
    }
  }
}
layer {
  name: "conv4_256"
  type: "Convolution"
  bottom: "conv4_3"
  top: "conv4_256"
  param {
    lr_mult: 1
  }
  param {
    lr_mult: 2
  }
  convolution_param {
    num_output: 256
    pad: 0
    kernel_size: 1
    weight_filler {
      type: "gaussian"
      std: 0.01
    }
    bias_filler {
      type: "constant"
      value: 0
    }
  }
}
layer {
  name: "conv4_256_relu"
  type: "ReLU"
  bottom: "conv4_256"
  top: "conv4_256"
}
layer {
  name: "conv5_256_crop"
  type: "Crop"
  bottom: "conv5_256_up"
  bottom: "conv4_256"
  top: "conv5_256_crop"
  crop_param {
    axis: 2
    offset: 0
  }
}
layer {
  name: "conv4_fuse"
  type: "Eltwise"
  bottom: "conv5_256_crop"
  bottom: "conv4_256"
  top: "conv4_fuse"
  eltwise_param {
    operation: SUM
  }
}
layer {
  name: "conv4_fuse_final"
  type: "Convolution"
  bottom: "conv4_fuse"
  top: "conv4_fuse_final"
  param {
    lr_mult: 1
  }
  param {
    lr_mult: 2
  }
  convolution_param {
    num_output: 256
    pad: 1
    kernel_size: 3
    weight_filler {
      type: "gaussian"
      std: 0.01
    }
    bias_filler {
      type: "constant"
      value: 0
    }
  }
}
layer {
  name: "conv4_fuse_final_relu"
  type: "ReLU"
  bottom: "conv4_fuse_final"
  top: "conv4_fuse_final"
}
layer {
  name: "conv4_256_up"
  type: "Deconvolution"
  bottom: "conv4_fuse"
  top: "conv4_256_up"
  param {
    lr_mult: 0
    decay_mult: 0
  }
  convolution_param {
    num_output: 256
    bias_term: false
    pad: 1
    kernel_size: 4
    group: 256
    stride: 2
    weight_filler {
      type: "bilinear"
    }
  }
}
layer {
  name: "conv3_256"
  type: "Convolution"
  bottom: "conv3_3"
  top: "conv3_256"
  param {
    lr_mult: 1
  }
  param {
    lr_mult: 2
  }
  convolution_param {
    num_output: 256
    pad: 0
    kernel_size: 1
    weight_filler {
      type: "gaussian"
      std: 0.01
    }
    bias_filler {
      type: "constant"
      value: 0
    }
  }
}
layer {
  name: "conv3_256_relu"
  type: "ReLU"
  bottom: "conv3_256"
  top: "conv3_256"
}
layer {
  name: "conv4_256_crop"
  type: "Crop"
  bottom: "conv4_256_up"
  bottom: "conv3_256"
  top: "conv4_256_crop"
  crop_param {
    axis: 2
    offset: 0
  }
}
layer {
  name: "conv3_fuse"
  type: "Eltwise"
  bottom: "conv4_256_crop"
  bottom: "conv3_256"
  top: "conv3_fuse"
  eltwise_param {
    operation: SUM
  }
}
layer {
  name: "conv3_fuse_final"
  type: "Convolution"
  bottom: "conv3_fuse"
  top: "conv3_fuse_final"
  param {
    lr_mult: 1
  }
  param {
    lr_mult: 2
  }
  convolution_param {
    num_output: 256
    pad: 1
    kernel_size: 3
    weight_filler {
      type: "gaussian"
      std: 0.01
    }
    bias_filler {
      type: "constant"
      value: 0
    }
  }
}
layer {
  name: "conv3_fuse_final_relu"
  type: "ReLU"
  bottom: "conv3_fuse_final"
  top: "conv3_fuse_final"
}
layer {
  name: "rpn_conv/3x3/p3"
  type: "Convolution"
  bottom: "conv3_fuse_final"
  top: "rpn_conv/3x3_output/p3"
  param {
    lr_mult: 1
  }
  param {
    lr_mult: 2
  }
  convolution_param {
    num_output: 256
    pad: 1
    kernel_size: 3
    stride: 1
    weight_filler {
      type: "gaussian"
      std: 0.01
    }
    bias_filler {
      type: "constant"
      value: 0
    }
  }
}
layer {
  name: "rpn_dimred/3x3/p3"
  type: "Convolution"
  bottom: "conv3_fuse_final"
  top: "rpn_dimred_output/p3"
  param {
    lr_mult: 1
  }
  param {
    lr_mult: 2
  }
  convolution_param {
    num_output: 128
    pad: 1
    kernel_size: 3
    stride: 1
    weight_filler {
      type: "gaussian"
      std: 0.01
    }
    bias_filler {
      type: "constant"
      value: 0
    }
  }
}
layer {
  name: "rpn_dimred_relu/p3"
  type: "ReLU"
  bottom: "rpn_dimred_output/p3"
  top: "rpn_dimred_output/p3"
}
layer {
  name: "rpn_conv/5x5/p3"
  type: "Convolution"
  bottom: "rpn_dimred_output/p3"
  top: "rpn_conv/5x5_output/p3"
  param {
    lr_mult: 1
  }
  param {
    lr_mult: 2
  }
  convolution_param {
    num_output: 128
    pad: 1
    kernel_size: 3
    stride: 1
    weight_filler {
      type: "gaussian"
      std: 0.01
    }
    bias_filler {
      type: "constant"
      value: 0
    }
  }
}
layer {
  name: "rpn_conv/7x7-1/p3"
  type: "Convolution"
  bottom: "rpn_dimred_output/p3"
  top: "rpn_conv/7x7-1_out/p3"
  param {
    lr_mult: 1
  }
  param {
    lr_mult: 2
  }
  convolution_param {
    num_output: 128
    pad: 1
    kernel_size: 3
    stride: 1
    weight_filler {
      type: "gaussian"
      std: 0.01
    }
    bias_filler {
      type: "constant"
      value: 0
    }
  }
}
layer {
  name: "rpn_relu/7x7-1/p3"
  type: "ReLU"
  bottom: "rpn_conv/7x7-1_out/p3"
  top: "rpn_conv/7x7-1_out/p3"
}
layer {
  name: "rpn_conv/7x7/p3"
  type: "Convolution"
  bottom: "rpn_conv/7x7-1_out/p3"
  top: "rpn_conv/7x7_output/p3"
  param {
    lr_mult: 1
  }
  param {
    lr_mult: 2
  }
  convolution_param {
    num_output: 128
    pad: 1
    kernel_size: 3
    stride: 1
    weight_filler {
      type: "gaussian"
      std: 0.01
    }
    bias_filler {
      type: "constant"
      value: 0
    }
  }
}
layer {
  name: "rpn_conv/357/p3"
  type: "Concat"
  bottom: "rpn_conv/3x3_output/p3"
  bottom: "rpn_conv/5x5_output/p3"
  bottom: "rpn_conv/7x7_output/p3"
  top: "rpn_conv/357_output/p3"
  concat_param {
    axis: 1
  }
}
layer {
  name: "rpn_relu/357/p3"
  type: "ReLU"
  bottom: "rpn_conv/357_output/p3"
  top: "rpn_conv/357_output/p3"
}
layer {
  name: "rpn_cls_score/p3"
  type: "Convolution"
  bottom: "rpn_conv/357_output/p3"
  top: "rpn_cls_score/p3"
  param {
    lr_mult: 1
  }
  param {
    lr_mult: 2
  }
  convolution_param {
    num_output: 12
    pad: 0
    kernel_size: 1
    stride: 1
    weight_filler {
      type: "gaussian"
      std: 0.01
    }
    bias_filler {
      type: "constant"
      value: 0
    }
  }
}
layer {
  name: "rpn_bbox_pred/p3"
  type: "Convolution"
  bottom: "rpn_conv/357_output/p3"
  top: "rpn_bbox_pred/p3"
  param {
    lr_mult: 1
  }
  param {
    lr_mult: 2
  }
  convolution_param {
    num_output: 24
    pad: 0
    kernel_size: 1
    stride: 1
    weight_filler {
      type: "gaussian"
      std: 0.01
    }
    bias_filler {
      type: "constant"
      value: 0
    }
  }
}
layer {
  name: "rpn_cls_score_reshape/p3"
  type: "Reshape"
  bottom: "rpn_cls_score/p3"
  top: "rpn_cls_score_reshape/p3"
  reshape_param {
    shape {
      dim: 0
      dim: 2
      dim: -1
      dim: 0
    }
  }
}
layer {
  name: "rpn-data/p3"
  type: "Python"
  bottom: "rpn_cls_score/p3"
  bottom: "gt_boxes"
  bottom: "im_info"
  bottom: "data"
  top: "rpn_labels/p3"
  top: "rpn_bbox_targets/p3"
  top: "rpn_bbox_inside_weights/p3"
  top: "rpn_bbox_outside_weights/p3"
  python_param {
    module: "rpn.anchor_target_layer"
    layer: "AnchorTargetLayer"
    param_str: "{\'feat_stride\': 4, \'scales\':[1,2], \'ratios\': [0.5,1,2]}"
  }
}
layer {
  name: "rpn_loss_cls/p3"
  type: "SoftmaxWithLoss"
  bottom: "rpn_cls_score_reshape/p3"
  bottom: "rpn_labels/p3"
  top: "rpn_cls_loss/p3"
  loss_weight: 1
  propagate_down: true
  propagate_down: false
  loss_param {
    ignore_label: -1
    normalize: true
  }
}
layer {
  name: "rpn_loss_bbox/p3"
  type: "SmoothL1Loss"
  bottom: "rpn_bbox_pred/p3"
  bottom: "rpn_bbox_targets/p3"
  bottom: "rpn_bbox_inside_weights/p3"
  bottom: "rpn_bbox_outside_weights/p3"
  top: "rpn_loss_bbox/p3"
  loss_weight: 1
  smooth_l1_loss_param {
    sigma: 3
  }
}
layer {
  name: "rpn_cls_prob/p3"
  type: "Softmax"
  bottom: "rpn_cls_score_reshape/p3"
  top: "rpn_cls_prob/p3"
}
layer {
  name: "rpn_cls_prob_reshape/p3"
  type: "Reshape"
  bottom: "rpn_cls_prob/p3"
  top: "rpn_cls_prob_reshape/p3"
  reshape_param {
    shape {
      dim: 0
      dim: 12
      dim: -1
      dim: 0
    }
  }
}
layer {
  name: "proposal/p3"
  type: "Python"
  bottom: "rpn_cls_prob_reshape/p3"
  bottom: "rpn_bbox_pred/p3"
  bottom: "im_info"
  top: "rpn_rois/p3"
  python_param {
    module: "rpn.proposal_layer"
    layer: "ProposalLayer"
    param_str: "{\'feat_stride\': 4, \'scales\':[1,2], \'ratios\': [0.5,1,2]}"
  }
}
layer {
  name: "rpn_conv/3x3/p4"
  type: "Convolution"
  bottom: "conv4_fuse_final"
  top: "rpn_conv/3x3_output/p4"
  param {
    lr_mult: 1
  }
  param {
    lr_mult: 2
  }
  convolution_param {
    num_output: 256
    pad: 1
    kernel_size: 3
    stride: 1
    weight_filler {
      type: "gaussian"
      std: 0.01
    }
    bias_filler {
      type: "constant"
      value: 0
    }
  }
}
layer {
  name: "rpn_dimred/3x3/p4"
  type: "Convolution"
  bottom: "conv4_fuse_final"
  top: "rpn_dimred_output/p4"
  param {
    lr_mult: 1
  }
  param {
    lr_mult: 2
  }
  convolution_param {
    num_output: 128
    pad: 1
    kernel_size: 3
    stride: 1
    weight_filler {
      type: "gaussian"
      std: 0.01
    }
    bias_filler {
      type: "constant"
      value: 0
    }
  }
}
layer {
  name: "rpn_dimred_relu/p4"
  type: "ReLU"
  bottom: "rpn_dimred_output/p4"
  top: "rpn_dimred_output/p4"
}
layer {
  name: "rpn_conv/5x5/p4"
  type: "Convolution"
  bottom: "rpn_dimred_output/p4"
  top: "rpn_conv/5x5_output/p4"
  param {
    lr_mult: 1
  }
  param {
    lr_mult: 2
  }
  convolution_param {
    num_output: 128
    pad: 1
    kernel_size: 3
    stride: 1
    weight_filler {
      type: "gaussian"
      std: 0.01
    }
    bias_filler {
      type: "constant"
      value: 0
    }
  }
}
layer {
  name: "rpn_conv/7x7-1/p4"
  type: "Convolution"
  bottom: "rpn_dimred_output/p4"
  top: "rpn_conv/7x7-1_out/p4"
  param {
    lr_mult: 1
  }
  param {
    lr_mult: 2
  }
  convolution_param {
    num_output: 128
    pad: 1
    kernel_size: 3
    stride: 1
    weight_filler {
      type: "gaussian"
      std: 0.01
    }
    bias_filler {
      type: "constant"
      value: 0
    }
  }
}
layer {
  name: "rpn_relu/7x7-1/p4"
  type: "ReLU"
  bottom: "rpn_conv/7x7-1_out/p4"
  top: "rpn_conv/7x7-1_out/p4"
}
layer {
  name: "rpn_conv/7x7/p4"
  type: "Convolution"
  bottom: "rpn_conv/7x7-1_out/p4"
  top: "rpn_conv/7x7_output/p4"
  param {
    lr_mult: 1
  }
  param {
    lr_mult: 2
  }
  convolution_param {
    num_output: 128
    pad: 1
    kernel_size: 3
    stride: 1
    weight_filler {
      type: "gaussian"
      std: 0.01
    }
    bias_filler {
      type: "constant"
      value: 0
    }
  }
}
layer {
  name: "rpn_conv/357/p4"
  type: "Concat"
  bottom: "rpn_conv/3x3_output/p4"
  bottom: "rpn_conv/5x5_output/p4"
  bottom: "rpn_conv/7x7_output/p4"
  top: "rpn_conv/357_output/p4"
  concat_param {
    axis: 1
  }
}
layer {
  name: "rpn_relu/357/p4"
  type: "ReLU"
  bottom: "rpn_conv/357_output/p4"
  top: "rpn_conv/357_output/p4"
}
layer {
  name: "rpn_cls_score/p4"
  type: "Convolution"
  bottom: "rpn_conv/357_output/p4"
  top: "rpn_cls_score/p4"
  param {
    lr_mult: 1
  }
  param {
    lr_mult: 2
  }
  convolution_param {
    num_output: 12
    pad: 0
    kernel_size: 1
    stride: 1
    weight_filler {
      type: "gaussian"
      std: 0.01
    }
    bias_filler {
      type: "constant"
      value: 0
    }
  }
}
layer {
  name: "rpn_bbox_pred/p4"
  type: "Convolution"
  bottom: "rpn_conv/357_output/p4"
  top: "rpn_bbox_pred/p4"
  param {
    lr_mult: 1
  }
  param {
    lr_mult: 2
  }
  convolution_param {
    num_output: 24
    pad: 0
    kernel_size: 1
    stride: 1
    weight_filler {
      type: "gaussian"
      std: 0.01
    }
    bias_filler {
      type: "constant"
      value: 0
    }
  }
}
layer {
  name: "rpn_cls_score_reshape/p4"
  type: "Reshape"
  bottom: "rpn_cls_score/p4"
  top: "rpn_cls_score_reshape/p4"
  reshape_param {
    shape {
      dim: 0
      dim: 2
      dim: -1
      dim: 0
    }
  }
}
layer {
  name: "rpn-data/p4"
  type: "Python"
  bottom: "rpn_cls_score/p4"
  bottom: "gt_boxes"
  bottom: "im_info"
  bottom: "data"
  top: "rpn_labels/p4"
  top: "rpn_bbox_targets/p4"
  top: "rpn_bbox_inside_weights/p4"
  top: "rpn_bbox_outside_weights/p4"
  python_param {
    module: "rpn.anchor_target_layer"
    layer: "AnchorTargetLayer"
    param_str: "{\'feat_stride\': 8, \'scales\':[4,8], \'ratios\': [0.5,1,2]}"
  }
}
layer {
  name: "rpn_loss_cls/p4"
  type: "SoftmaxWithLoss"
  bottom: "rpn_cls_score_reshape/p4"
  bottom: "rpn_labels/p4"
  top: "rpn_cls_loss/p4"
  loss_weight: 1
  propagate_down: true
  propagate_down: false
  loss_param {
    ignore_label: -1
    normalize: true
  }
}
layer {
  name: "rpn_loss_bbox/p4"
  type: "SmoothL1Loss"
  bottom: "rpn_bbox_pred/p4"
  bottom: "rpn_bbox_targets/p4"
  bottom: "rpn_bbox_inside_weights/p4"
  bottom: "rpn_bbox_outside_weights/p4"
  top: "rpn_loss_bbox/p4"
  loss_weight: 1
  smooth_l1_loss_param {
    sigma: 3
  }
}
layer {
  name: "rpn_cls_prob/p4"
  type: "Softmax"
  bottom: "rpn_cls_score_reshape/p4"
  top: "rpn_cls_prob/p4"
}
layer {
  name: "rpn_cls_prob_reshape/p4"
  type: "Reshape"
  bottom: "rpn_cls_prob/p4"
  top: "rpn_cls_prob_reshape/p4"
  reshape_param {
    shape {
      dim: 0
      dim: 12
      dim: -1
      dim: 0
    }
  }
}
layer {
  name: "proposal/p4"
  type: "Python"
  bottom: "rpn_cls_prob_reshape/p4"
  bottom: "rpn_bbox_pred/p4"
  bottom: "im_info"
  top: "rpn_rois/p4"
  python_param {
    module: "rpn.proposal_layer"
    layer: "ProposalLayer"
    param_str: "{\'feat_stride\': 8, \'scales\':[4,8], \'ratios\': [0.5,1,2]}"
  }
}
layer {
  name: "rpn_conv/3x3/p5"
  type: "Convolution"
  bottom: "conv5_256"
  top: "rpn_conv/3x3_output/p5"
  param {
    lr_mult: 1
  }
  param {
    lr_mult: 2
  }
  convolution_param {
    num_output: 256
    pad: 1
    kernel_size: 3
    stride: 1
    weight_filler {
      type: "gaussian"
      std: 0.01
    }
    bias_filler {
      type: "constant"
      value: 0
    }
  }
}
layer {
  name: "rpn_dimred/3x3/p5"
  type: "Convolution"
  bottom: "conv5_256"
  top: "rpn_dimred_output/p5"
  param {
    lr_mult: 1
  }
  param {
    lr_mult: 2
  }
  convolution_param {
    num_output: 128
    pad: 1
    kernel_size: 3
    stride: 1
    weight_filler {
      type: "gaussian"
      std: 0.01
    }
    bias_filler {
      type: "constant"
      value: 0
    }
  }
}
layer {
  name: "rpn_dimred_relu/p5"
  type: "ReLU"
  bottom: "rpn_dimred_output/p5"
  top: "rpn_dimred_output/p5"
}
layer {
  name: "rpn_conv/5x5/p5"
  type: "Convolution"
  bottom: "rpn_dimred_output/p5"
  top: "rpn_conv/5x5_output/p5"
  param {
    lr_mult: 1
  }
  param {
    lr_mult: 2
  }
  convolution_param {
    num_output: 128
    pad: 1
    kernel_size: 3
    stride: 1
    weight_filler {
      type: "gaussian"
      std: 0.01
    }
    bias_filler {
      type: "constant"
      value: 0
    }
  }
}
layer {
  name: "rpn_conv/7x7-1/p5"
  type: "Convolution"
  bottom: "rpn_dimred_output/p5"
  top: "rpn_conv/7x7-1_out/p5"
  param {
    lr_mult: 1
  }
  param {
    lr_mult: 2
  }
  convolution_param {
    num_output: 128
    pad: 1
    kernel_size: 3
    stride: 1
    weight_filler {
      type: "gaussian"
      std: 0.01
    }
    bias_filler {
      type: "constant"
      value: 0
    }
  }
}
layer {
  name: "rpn_relu/7x7-1/p5"
  type: "ReLU"
  bottom: "rpn_conv/7x7-1_out/p5"
  top: "rpn_conv/7x7-1_out/p5"
}
layer {
  name: "rpn_conv/7x7/p5"
  type: "Convolution"
  bottom: "rpn_conv/7x7-1_out/p5"
  top: "rpn_conv/7x7_output/p5"
  param {
    lr_mult: 1
  }
  param {
    lr_mult: 2
  }
  convolution_param {
    num_output: 128
    pad: 1
    kernel_size: 3
    stride: 1
    weight_filler {
      type: "gaussian"
      std: 0.01
    }
    bias_filler {
      type: "constant"
      value: 0
    }
  }
}
layer {
  name: "rpn_conv/357/p5"
  type: "Concat"
  bottom: "rpn_conv/3x3_output/p5"
  bottom: "rpn_conv/5x5_output/p5"
  bottom: "rpn_conv/7x7_output/p5"
  top: "rpn_conv/357_output/p5"
  concat_param {
    axis: 1
  }
}
layer {
  name: "rpn_relu/357/p5"
  type: "ReLU"
  bottom: "rpn_conv/357_output/p5"
  top: "rpn_conv/357_output/p5"
}
layer {
  name: "rpn_cls_score/p5"
  type: "Convolution"
  bottom: "rpn_conv/357_output/p5"
  top: "rpn_cls_score/p5"
  param {
    lr_mult: 1
  }
  param {
    lr_mult: 2
  }
  convolution_param {
    num_output: 12
    pad: 0
    kernel_size: 1
    stride: 1
    weight_filler {
      type: "gaussian"
      std: 0.01
    }
    bias_filler {
      type: "constant"
      value: 0
    }
  }
}
layer {
  name: "rpn_bbox_pred/p5"
  type: "Convolution"
  bottom: "rpn_conv/357_output/p5"
  top: "rpn_bbox_pred/p5"
  param {
    lr_mult: 1
  }
  param {
    lr_mult: 2
  }
  convolution_param {
    num_output: 24
    pad: 0
    kernel_size: 1
    stride: 1
    weight_filler {
      type: "gaussian"
      std: 0.01
    }
    bias_filler {
      type: "constant"
      value: 0
    }
  }
}
layer {
  name: "rpn_cls_score_reshape/p5"
  type: "Reshape"
  bottom: "rpn_cls_score/p5"
  top: "rpn_cls_score_reshape/p5"
  reshape_param {
    shape {
      dim: 0
      dim: 2
      dim: -1
      dim: 0
    }
  }
}
layer {
  name: "rpn-data/p5"
  type: "Python"
  bottom: "rpn_cls_score/p5"
  bottom: "gt_boxes"
  bottom: "im_info"
  bottom: "data"
  top: "rpn_labels/p5"
  top: "rpn_bbox_targets/p5"
  top: "rpn_bbox_inside_weights/p5"
  top: "rpn_bbox_outside_weights/p5"
  python_param {
    module: "rpn.anchor_target_layer"
    layer: "AnchorTargetLayer"
    param_str: "{\'feat_stride\': 16,\'scales\': [16,32], \'ratios\':[0.5,1,2]}"
  }
}
layer {
  name: "rpn_loss_cls/p5"
  type: "SoftmaxWithLoss"
  bottom: "rpn_cls_score_reshape/p5"
  bottom: "rpn_labels/p5"
  top: "rpn_cls_loss/p5"
  loss_weight: 1
  propagate_down: true
  propagate_down: false
  loss_param {
    ignore_label: -1
    normalize: true
  }
}
layer {
  name: "rpn_loss_bbox/p5"
  type: "SmoothL1Loss"
  bottom: "rpn_bbox_pred/p5"
  bottom: "rpn_bbox_targets/p5"
  bottom: "rpn_bbox_inside_weights/p5"
  bottom: "rpn_bbox_outside_weights/p5"
  top: "rpn_loss_bbox/p5"
  loss_weight: 1
  smooth_l1_loss_param {
    sigma: 3
  }
}
layer {
  name: "rpn_cls_prob/p5"
  type: "Softmax"
  bottom: "rpn_cls_score_reshape/p5"
  top: "rpn_cls_prob/p5"
}
layer {
  name: "rpn_cls_prob_reshape/p5"
  type: "Reshape"
  bottom: "rpn_cls_prob/p5"
  top: "rpn_cls_prob_reshape/p5"
  reshape_param {
    shape {
      dim: 0
      dim: 12
      dim: -1
      dim: 0
    }
  }
}
layer {
  name: "proposal/p5"
  type: "Python"
  bottom: "rpn_cls_prob_reshape/p5"
  bottom: "rpn_bbox_pred/p5"
  bottom: "im_info"
  top: "rpn_rois/p5"
  python_param {
    module: "rpn.proposal_layer"
    layer: "ProposalLayer"
    param_str: "{\'feat_stride\': 16,\'scales\': [16,32], \'ratios\':[0.5,1,2]}"
  }
}
layer {
  name: "roi-data"
  type: "Python"
  bottom: "rpn_rois/p3"
  bottom: "rpn_rois/p4"
  bottom: "rpn_rois/p5"
  bottom: "gt_boxes"
  top: "rois/p3"
  top: "rois/p4"
  top: "rois/p5"
  top: "labels"
  top: "bbox_targets"
  top: "bbox_inside_weights"
  top: "bbox_outside_weights"
  python_param {
    module: "rpn.proposal_target_layer"
    layer: "ProposalTargetLayer"
    param_str: "\'num_classes\': 4"
  }
}
layer {
  name: "roi_pool_org/p5"
  type: "ROIPooling"
  bottom: "conv5_256"
  bottom: "rois/p5"
  top: "roi_pool_org/p5"
  roi_pooling_param {
    pooled_h: 7
    pooled_w: 7
    spatial_scale: 0.0625
    pad_ratio: 0
  }
}
layer {
  name: "roi_pool_ctx/p5"
  type: "ROIPooling"
  bottom: "conv5_256"
  bottom: "rois/p5"
  top: "roi_pool_ctx/p5"
  roi_pooling_param {
    pooled_h: 7
    pooled_w: 7
    spatial_scale: 0.0625
    pad_ratio: 0.25
  }
}
layer {
  name: "roi_pool/p5"
  type: "Concat"
  bottom: "roi_pool_org/p5"
  bottom: "roi_pool_ctx/p5"
  top: "roi_pool/p5"
  concat_param {
    axis: 1
  }
}
layer {
  name: "roi_conv/p5"
  type: "Convolution"
  bottom: "roi_pool/p5"
  top: "roi_conv/p5"
  param {
    lr_mult: 1
    decay_mult: 1
  }
  param {
    lr_mult: 2
    decay_mult: 0
  }
  convolution_param {
    num_output: 512
    pad: 0
    kernel_size: 1
    weight_filler {
      type: "gaussian"
      std: 0.01
    }
    bias_filler {
      type: "constant"
      value: 0
    }
  }
}
layer {
  name: "roi_conv_relu/p5"
  type: "ReLU"
  bottom: "roi_conv/p5"
  top: "roi_conv/p5"
}
layer {
  name: "roi_pool_org/p4"
  type: "ROIPooling"
  bottom: "conv4_fuse_final"
  bottom: "rois/p4"
  top: "roi_pool_org/p4"
  roi_pooling_param {
    pooled_h: 7
    pooled_w: 7
    spatial_scale: 0.125
    pad_ratio: 0
  }
}
layer {
  name: "roi_pool_ctx/p4"
  type: "ROIPooling"
  bottom: "conv4_fuse_final"
  bottom: "rois/p4"
  top: "roi_pool_ctx/p4"
  roi_pooling_param {
    pooled_h: 7
    pooled_w: 7
    spatial_scale: 0.125
    pad_ratio: 0.25
  }
}
layer {
  name: "roi_pool/p4"
  type: "Concat"
  bottom: "roi_pool_org/p4"
  bottom: "roi_pool_ctx/p4"
  top: "roi_pool/p4"
  concat_param {
    axis: 1
  }
}
layer {
  name: "roi_conv/p4"
  type: "Convolution"
  bottom: "roi_pool/p4"
  top: "roi_conv/p4"
  param {
    lr_mult: 1
    decay_mult: 1
  }
  param {
    lr_mult: 2
    decay_mult: 0
  }
  convolution_param {
    num_output: 512
    pad: 0
    kernel_size: 1
    weight_filler {
      type: "gaussian"
      std: 0.01
    }
    bias_filler {
      type: "constant"
      value: 0
    }
  }
}
layer {
  name: "roi_conv_relu/p4"
  type: "ReLU"
  bottom: "roi_conv/p4"
  top: "roi_conv/p4"
}
layer {
  name: "roi_pool_org/p3"
  type: "ROIPooling"
  bottom: "conv3_fuse_final"
  bottom: "rois/p3"
  top: "roi_pool_org/p3"
  roi_pooling_param {
    pooled_h: 7
    pooled_w: 7
    spatial_scale: 0.25
    pad_ratio: 0
  }
}
layer {
  name: "roi_pool_ctx/p3"
  type: "ROIPooling"
  bottom: "conv4_fuse_final"
  bottom: "rois/p3"
  top: "roi_pool_ctx/p3"
  roi_pooling_param {
    pooled_h: 7
    pooled_w: 7
    spatial_scale: 0.25
    pad_ratio: 0.25
  }
}
layer {
  name: "roi_pool/p3"
  type: "Concat"
  bottom: "roi_pool_org/p3"
  bottom: "roi_pool_ctx/p3"
  top: "roi_pool/p3"
  concat_param {
    axis: 1
  }
}
layer {
  name: "roi_conv/p3"
  type: "Convolution"
  bottom: "roi_pool/p3"
  top: "roi_conv/p3"
  param {
    lr_mult: 1
    decay_mult: 1
  }
  param {
    lr_mult: 2
    decay_mult: 0
  }
  convolution_param {
    num_output: 512
    pad: 0
    kernel_size: 1
    weight_filler {
      type: "gaussian"
      std: 0.01
    }
    bias_filler {
      type: "constant"
      value: 0
    }
  }
}
layer {
  name: "roi_conv_relu/p3"
  type: "ReLU"
  bottom: "roi_conv/p3"
  top: "roi_conv/p3"
}
layer {
  name: "all_pool"
  type: "Concat"
  bottom: "roi_conv/p3"
  bottom: "roi_conv/p4"
  bottom: "roi_conv/p5"
  top: "rcnn_pool"
  concat_param {
    axis: 0
  }
}
layer {
  name: "rcnn_fc6"
  type: "InnerProduct"
  bottom: "rcnn_pool"
  top: "rcnn_fc6"
  param {
    lr_mult: 1
  }
  param {
    lr_mult: 2
  }
  inner_product_param {
    num_output: 4096
    weight_filler {
      type: "xavier"
    }
    bias_filler {
      type: "constant"
    }
  }
}
layer {
  name: "relu6"
  type: "ReLU"
  bottom: "rcnn_fc6"
  top: "rcnn_fc6"
}
layer {
  name: "drop6"
  type: "Dropout"
  bottom: "rcnn_fc6"
  top: "rcnn_fc6"
  dropout_param {
    dropout_ratio: 0.5
  }
}
layer {
  name: "fc7"
  type: "InnerProduct"
  bottom: "rcnn_fc6"
  top: "fc7"
  param {
    lr_mult: 1
  }
  param {
    lr_mult: 2
  }
  inner_product_param {
    num_output: 4096
    weight_filler {
      type: "xavier"
    }
    bias_filler {
      type: "constant"
    }
  }
}
layer {
  name: "relu7"
  type: "ReLU"
  bottom: "fc7"
  top: "fc7"
}
layer {
  name: "drop7"
  type: "Dropout"
  bottom: "fc7"
  top: "fc7"
  dropout_param {
    dropout_ratio: 0.5
  }
}
layer {
  name: "cls_score"
  type: "InnerProduct"
  bottom: "fc7"
  top: "cls_score"
  param {
    lr_mult: 1
  }
  param {
    lr_mult: 2
  }
  inner_product_param {
    num_output: 4
    weight_filler {
      type: "gaussian"
      std: 0.01
    }
    bias_filler {
      type: "constant"
      value: 0
    }
  }
}
layer {
  name: "bbox_pred"
  type: "InnerProduct"
  bottom: "fc7"
  top: "bbox_pred"
  param {
    lr_mult: 1
  }
  param {
    lr_mult: 2
  }
  inner_product_param {
    num_output: 16
    weight_filler {
      type: "gaussian"
      std: 0.001
    }
    bias_filler {
      type: "constant"
      value: 0
    }
  }
}
layer {
  name: "loss_cls"
  type: "SoftmaxWithLoss"
  bottom: "cls_score"
  bottom: "labels"
  top: "loss_cls"
  loss_weight: 1
  propagate_down: true
  propagate_down: false
}
layer {
  name: "loss_bbox"
  type: "SmoothL1Loss"
  bottom: "bbox_pred"
  bottom: "bbox_targets"
  bottom: "bbox_i
I0102 15:13:06.562814 23855 layer_factory.hpp:77] Creating layer input-data
I0102 15:13:09.102134 23855 net.cpp:106] Creating Layer input-data
I0102 15:13:09.102677 23855 net.cpp:411] input-data -> data
I0102 15:13:09.102740 23855 net.cpp:411] input-data -> im_info
I0102 15:13:09.102761 23855 net.cpp:411] input-data -> gt_boxes
RoiDataLayer: name_to_top: {'gt_boxes': 2, 'data': 0, 'im_info': 1}
I0102 15:13:16.931257 23855 net.cpp:150] Setting up input-data
I0102 15:13:16.931303 23855 net.cpp:157] Top shape: 1 3 270 1000 (810000)
I0102 15:13:16.931314 23855 net.cpp:157] Top shape: 1 3 (3)
I0102 15:13:16.931324 23855 net.cpp:157] Top shape: 1 4 (4)
I0102 15:13:16.931329 23855 net.cpp:165] Memory required for data: 3240028
I0102 15:13:16.931342 23855 layer_factory.hpp:77] Creating layer data_input-data_0_split
I0102 15:13:16.931365 23855 net.cpp:106] Creating Layer data_input-data_0_split
I0102 15:13:16.931377 23855 net.cpp:454] data_input-data_0_split <- data
I0102 15:13:16.931392 23855 net.cpp:411] data_input-data_0_split -> data_input-data_0_split_0
I0102 15:13:16.931418 23855 net.cpp:411] data_input-data_0_split -> data_input-data_0_split_1
I0102 15:13:16.931440 23855 net.cpp:411] data_input-data_0_split -> data_input-data_0_split_2
I0102 15:13:16.931453 23855 net.cpp:411] data_input-data_0_split -> data_input-data_0_split_3
I0102 15:13:16.931571 23855 net.cpp:150] Setting up data_input-data_0_split
I0102 15:13:16.931586 23855 net.cpp:157] Top shape: 1 3 270 1000 (810000)
I0102 15:13:16.931596 23855 net.cpp:157] Top shape: 1 3 270 1000 (810000)
I0102 15:13:16.931604 23855 net.cpp:157] Top shape: 1 3 270 1000 (810000)
I0102 15:13:16.931612 23855 net.cpp:157] Top shape: 1 3 270 1000 (810000)
I0102 15:13:16.931618 23855 net.cpp:165] Memory required for data: 16200028
I0102 15:13:16.931625 23855 layer_factory.hpp:77] Creating layer im_info_input-data_1_split
I0102 15:13:16.931638 23855 net.cpp:106] Creating Layer im_info_input-data_1_split
I0102 15:13:16.931644 23855 net.cpp:454] im_info_input-data_1_split <- im_info
I0102 15:13:16.931659 23855 net.cpp:411] im_info_input-data_1_split -> im_info_input-data_1_split_0
I0102 15:13:16.931674 23855 net.cpp:411] im_info_input-data_1_split -> im_info_input-data_1_split_1
I0102 15:13:16.931695 23855 net.cpp:411] im_info_input-data_1_split -> im_info_input-data_1_split_2
I0102 15:13:16.931710 23855 net.cpp:411] im_info_input-data_1_split -> im_info_input-data_1_split_3
I0102 15:13:16.931722 23855 net.cpp:411] im_info_input-data_1_split -> im_info_input-data_1_split_4
I0102 15:13:16.931735 23855 net.cpp:411] im_info_input-data_1_split -> im_info_input-data_1_split_5
I0102 15:13:16.931881 23855 net.cpp:150] Setting up im_info_input-data_1_split
I0102 15:13:16.931896 23855 net.cpp:157] Top shape: 1 3 (3)
I0102 15:13:16.931905 23855 net.cpp:157] Top shape: 1 3 (3)
I0102 15:13:16.931913 23855 net.cpp:157] Top shape: 1 3 (3)
I0102 15:13:16.931921 23855 net.cpp:157] Top shape: 1 3 (3)
I0102 15:13:16.931929 23855 net.cpp:157] Top shape: 1 3 (3)
I0102 15:13:16.931937 23855 net.cpp:157] Top shape: 1 3 (3)
I0102 15:13:16.931942 23855 net.cpp:165] Memory required for data: 16200100
I0102 15:13:16.931949 23855 layer_factory.hpp:77] Creating layer gt_boxes_input-data_2_split
I0102 15:13:16.931958 23855 net.cpp:106] Creating Layer gt_boxes_input-data_2_split
I0102 15:13:16.931965 23855 net.cpp:454] gt_boxes_input-data_2_split <- gt_boxes
I0102 15:13:16.931978 23855 net.cpp:411] gt_boxes_input-data_2_split -> gt_boxes_input-data_2_split_0
I0102 15:13:16.931991 23855 net.cpp:411] gt_boxes_input-data_2_split -> gt_boxes_input-data_2_split_1
I0102 15:13:16.932006 23855 net.cpp:411] gt_boxes_input-data_2_split -> gt_boxes_input-data_2_split_2
I0102 15:13:16.932020 23855 net.cpp:411] gt_boxes_input-data_2_split -> gt_boxes_input-data_2_split_3
I0102 15:13:16.932123 23855 net.cpp:150] Setting up gt_boxes_input-data_2_split
I0102 15:13:16.932135 23855 net.cpp:157] Top shape: 1 4 (4)
I0102 15:13:16.932143 23855 net.cpp:157] Top shape: 1 4 (4)
I0102 15:13:16.932152 23855 net.cpp:157] Top shape: 1 4 (4)
I0102 15:13:16.932159 23855 net.cpp:157] Top shape: 1 4 (4)
I0102 15:13:16.932165 23855 net.cpp:165] Memory required for data: 16200164
I0102 15:13:16.932171 23855 layer_factory.hpp:77] Creating layer conv1_1
I0102 15:13:16.932189 23855 net.cpp:106] Creating Layer conv1_1
I0102 15:13:16.932196 23855 net.cpp:454] conv1_1 <- data_input-data_0_split_0
I0102 15:13:16.932212 23855 net.cpp:411] conv1_1 -> conv1_1
I0102 15:13:20.197968 23855 net.cpp:150] Setting up conv1_1
I0102 15:13:20.198030 23855 net.cpp:157] Top shape: 1 64 270 1000 (17280000)
I0102 15:13:20.198040 23855 net.cpp:165] Memory required for data: 85320164
I0102 15:13:20.198104 23855 layer_factory.hpp:77] Creating layer relu1_1
I0102 15:13:20.198130 23855 net.cpp:106] Creating Layer relu1_1
I0102 15:13:20.198141 23855 net.cpp:454] relu1_1 <- conv1_1
I0102 15:13:20.198156 23855 net.cpp:397] relu1_1 -> conv1_1 (in-place)
I0102 15:13:20.199486 23855 net.cpp:150] Setting up relu1_1
I0102 15:13:20.199518 23855 net.cpp:157] Top shape: 1 64 270 1000 (17280000)
I0102 15:13:20.199527 23855 net.cpp:165] Memory required for data: 154440164
I0102 15:13:20.199537 23855 layer_factory.hpp:77] Creating layer conv1_2
I0102 15:13:20.199564 23855 net.cpp:106] Creating Layer conv1_2
I0102 15:13:20.199573 23855 net.cpp:454] conv1_2 <- conv1_1
I0102 15:13:20.199589 23855 net.cpp:411] conv1_2 -> conv1_2
I0102 15:13:20.251950 23855 net.cpp:150] Setting up conv1_2
I0102 15:13:20.252007 23855 net.cpp:157] Top shape: 1 64 270 1000 (17280000)
I0102 15:13:20.252019 23855 net.cpp:165] Memory required for data: 223560164
I0102 15:13:20.252055 23855 layer_factory.hpp:77] Creating layer relu1_2
I0102 15:13:20.252076 23855 net.cpp:106] Creating Layer relu1_2
I0102 15:13:20.252087 23855 net.cpp:454] relu1_2 <- conv1_2
I0102 15:13:20.252101 23855 net.cpp:397] relu1_2 -> conv1_2 (in-place)
I0102 15:13:20.253612 23855 net.cpp:150] Setting up relu1_2
I0102 15:13:20.253648 23855 net.cpp:157] Top shape: 1 64 270 1000 (17280000)
I0102 15:13:20.253656 23855 net.cpp:165] Memory required for data: 292680164
I0102 15:13:20.253666 23855 layer_factory.hpp:77] Creating layer pool1
I0102 15:13:20.253690 23855 net.cpp:106] Creating Layer pool1
I0102 15:13:20.253701 23855 net.cpp:454] pool1 <- conv1_2
I0102 15:13:20.253715 23855 net.cpp:411] pool1 -> pool1
I0102 15:13:20.266826 23855 net.cpp:150] Setting up pool1
I0102 15:13:20.266875 23855 net.cpp:157] Top shape: 1 64 135 500 (4320000)
I0102 15:13:20.266885 23855 net.cpp:165] Memory required for data: 309960164
I0102 15:13:20.266896 23855 layer_factory.hpp:77] Creating layer conv2_1
I0102 15:13:20.266921 23855 net.cpp:106] Creating Layer conv2_1
I0102 15:13:20.266932 23855 net.cpp:454] conv2_1 <- pool1
I0102 15:13:20.266954 23855 net.cpp:411] conv2_1 -> conv2_1
I0102 15:13:20.270898 23855 net.cpp:150] Setting up conv2_1
I0102 15:13:20.270936 23855 net.cpp:157] Top shape: 1 128 135 500 (8640000)
I0102 15:13:20.270946 23855 net.cpp:165] Memory required for data: 344520164
I0102 15:13:20.270974 23855 layer_factory.hpp:77] Creating layer relu2_1
I0102 15:13:20.270992 23855 net.cpp:106] Creating Layer relu2_1
I0102 15:13:20.271001 23855 net.cpp:454] relu2_1 <- conv2_1
I0102 15:13:20.271013 23855 net.cpp:397] relu2_1 -> conv2_1 (in-place)
I0102 15:13:20.271431 23855 net.cpp:150] Setting up relu2_1
I0102 15:13:20.271456 23855 net.cpp:157] Top shape: 1 128 135 500 (8640000)
I0102 15:13:20.271463 23855 net.cpp:165] Memory required for data: 379080164
I0102 15:13:20.271471 23855 layer_factory.hpp:77] Creating layer conv2_2
I0102 15:13:20.271488 23855 net.cpp:106] Creating Layer conv2_2
I0102 15:13:20.271498 23855 net.cpp:454] conv2_2 <- conv2_1
I0102 15:13:20.271510 23855 net.cpp:411] conv2_2 -> conv2_2
I0102 15:13:20.275099 23855 net.cpp:150] Setting up conv2_2
I0102 15:13:20.275132 23855 net.cpp:157] Top shape: 1 128 135 500 (8640000)
I0102 15:13:20.275141 23855 net.cpp:165] Memory required for data: 413640164
I0102 15:13:20.275159 23855 layer_factory.hpp:77] Creating layer relu2_2
I0102 15:13:20.275174 23855 net.cpp:106] Creating Layer relu2_2
I0102 15:13:20.275182 23855 net.cpp:454] relu2_2 <- conv2_2
I0102 15:13:20.275194 23855 net.cpp:397] relu2_2 -> conv2_2 (in-place)
I0102 15:13:20.275590 23855 net.cpp:150] Setting up relu2_2
I0102 15:13:20.275611 23855 net.cpp:157] Top shape: 1 128 135 500 (8640000)
I0102 15:13:20.275619 23855 net.cpp:165] Memory required for data: 448200164
I0102 15:13:20.275627 23855 layer_factory.hpp:77] Creating layer pool2
I0102 15:13:20.275640 23855 net.cpp:106] Creating Layer pool2
I0102 15:13:20.275648 23855 net.cpp:454] pool2 <- conv2_2
I0102 15:13:20.275660 23855 net.cpp:411] pool2 -> pool2
I0102 15:13:20.275751 23855 net.cpp:150] Setting up pool2
I0102 15:13:20.275768 23855 net.cpp:157] Top shape: 1 128 68 250 (2176000)
I0102 15:13:20.275774 23855 net.cpp:165] Memory required for data: 456904164
I0102 15:13:20.275781 23855 layer_factory.hpp:77] Creating layer conv3_1
I0102 15:13:20.275796 23855 net.cpp:106] Creating Layer conv3_1
I0102 15:13:20.275804 23855 net.cpp:454] conv3_1 <- pool2
I0102 15:13:20.275816 23855 net.cpp:411] conv3_1 -> conv3_1
I0102 15:13:20.281147 23855 net.cpp:150] Setting up conv3_1
I0102 15:13:20.281183 23855 net.cpp:157] Top shape: 1 256 68 250 (4352000)
I0102 15:13:20.281193 23855 net.cpp:165] Memory required for data: 474312164
I0102 15:13:20.281219 23855 layer_factory.hpp:77] Creating layer relu3_1
I0102 15:13:20.281234 23855 net.cpp:106] Creating Layer relu3_1
I0102 15:13:20.281244 23855 net.cpp:454] relu3_1 <- conv3_1
I0102 15:13:20.281255 23855 net.cpp:397] relu3_1 -> conv3_1 (in-place)
I0102 15:13:20.281664 23855 net.cpp:150] Setting up relu3_1
I0102 15:13:20.281685 23855 net.cpp:157] Top shape: 1 256 68 250 (4352000)
I0102 15:13:20.281693 23855 net.cpp:165] Memory required for data: 491720164
I0102 15:13:20.281702 23855 layer_factory.hpp:77] Creating layer conv3_2
I0102 15:13:20.281724 23855 net.cpp:106] Creating Layer conv3_2
I0102 15:13:20.281733 23855 net.cpp:454] conv3_2 <- conv3_1
I0102 15:13:20.281745 23855 net.cpp:411] conv3_2 -> conv3_2
I0102 15:13:20.288666 23855 net.cpp:150] Setting up conv3_2
I0102 15:13:20.288717 23855 net.cpp:157] Top shape: 1 256 68 250 (4352000)
I0102 15:13:20.288727 23855 net.cpp:165] Memory required for data: 509128164
I0102 15:13:20.288751 23855 layer_factory.hpp:77] Creating layer relu3_2
I0102 15:13:20.288771 23855 net.cpp:106] Creating Layer relu3_2
I0102 15:13:20.288782 23855 net.cpp:454] relu3_2 <- conv3_2
I0102 15:13:20.288796 23855 net.cpp:397] relu3_2 -> conv3_2 (in-place)
I0102 15:13:20.289322 23855 net.cpp:150] Setting up relu3_2
I0102 15:13:20.289346 23855 net.cpp:157] Top shape: 1 256 68 250 (4352000)
I0102 15:13:20.289355 23855 net.cpp:165] Memory required for data: 526536164
I0102 15:13:20.289362 23855 layer_factory.hpp:77] Creating layer conv3_3
I0102 15:13:20.289381 23855 net.cpp:106] Creating Layer conv3_3
I0102 15:13:20.289391 23855 net.cpp:454] conv3_3 <- conv3_2
I0102 15:13:20.289402 23855 net.cpp:411] conv3_3 -> conv3_3
I0102 15:13:20.295508 23855 net.cpp:150] Setting up conv3_3
I0102 15:13:20.295548 23855 net.cpp:157] Top shape: 1 256 68 250 (4352000)
I0102 15:13:20.295557 23855 net.cpp:165] Memory required for data: 543944164
I0102 15:13:20.295577 23855 layer_factory.hpp:77] Creating layer relu3_3
I0102 15:13:20.295593 23855 net.cpp:106] Creating Layer relu3_3
I0102 15:13:20.295601 23855 net.cpp:454] relu3_3 <- conv3_3
I0102 15:13:20.295614 23855 net.cpp:397] relu3_3 -> conv3_3 (in-place)
I0102 15:13:20.296808 23855 net.cpp:150] Setting up relu3_3
I0102 15:13:20.296839 23855 net.cpp:157] Top shape: 1 256 68 250 (4352000)
I0102 15:13:20.296847 23855 net.cpp:165] Memory required for data: 561352164
I0102 15:13:20.296856 23855 layer_factory.hpp:77] Creating layer conv3_3_relu3_3_0_split
I0102 15:13:20.296872 23855 net.cpp:106] Creating Layer conv3_3_relu3_3_0_split
I0102 15:13:20.296881 23855 net.cpp:454] conv3_3_relu3_3_0_split <- conv3_3
I0102 15:13:20.296895 23855 net.cpp:411] conv3_3_relu3_3_0_split -> conv3_3_relu3_3_0_split_0
I0102 15:13:20.296911 23855 net.cpp:411] conv3_3_relu3_3_0_split -> conv3_3_relu3_3_0_split_1
I0102 15:13:20.297053 23855 net.cpp:150] Setting up conv3_3_relu3_3_0_split
I0102 15:13:20.297070 23855 net.cpp:157] Top shape: 1 256 68 250 (4352000)
I0102 15:13:20.297080 23855 net.cpp:157] Top shape: 1 256 68 250 (4352000)
I0102 15:13:20.297086 23855 net.cpp:165] Memory required for data: 596168164
I0102 15:13:20.297092 23855 layer_factory.hpp:77] Creating layer pool3
I0102 15:13:20.297106 23855 net.cpp:106] Creating Layer pool3
I0102 15:13:20.297112 23855 net.cpp:454] pool3 <- conv3_3_relu3_3_0_split_0
I0102 15:13:20.297123 23855 net.cpp:411] pool3 -> pool3
I0102 15:13:20.297197 23855 net.cpp:150] Setting up pool3
I0102 15:13:20.297210 23855 net.cpp:157] Top shape: 1 256 34 125 (1088000)
I0102 15:13:20.297217 23855 net.cpp:165] Memory required for data: 600520164
I0102 15:13:20.297224 23855 layer_factory.hpp:77] Creating layer conv4_1
I0102 15:13:20.297250 23855 net.cpp:106] Creating Layer conv4_1
I0102 15:13:20.297258 23855 net.cpp:454] conv4_1 <- pool3
I0102 15:13:20.297271 23855 net.cpp:411] conv4_1 -> conv4_1
I0102 15:13:20.306643 23855 net.cpp:150] Setting up conv4_1
I0102 15:13:20.306684 23855 net.cpp:157] Top shape: 1 512 34 125 (2176000)
I0102 15:13:20.306689 23855 net.cpp:165] Memory required for data: 609224164
I0102 15:13:20.306702 23855 layer_factory.hpp:77] Creating layer relu4_1
I0102 15:13:20.306715 23855 net.cpp:106] Creating Layer relu4_1
I0102 15:13:20.306720 23855 net.cpp:454] relu4_1 <- conv4_1
I0102 15:13:20.306730 23855 net.cpp:397] relu4_1 -> conv4_1 (in-place)
I0102 15:13:20.307415 23855 net.cpp:150] Setting up relu4_1
I0102 15:13:20.307430 23855 net.cpp:157] Top shape: 1 512 34 125 (2176000)
I0102 15:13:20.307435 23855 net.cpp:165] Memory required for data: 617928164
I0102 15:13:20.307440 23855 layer_factory.hpp:77] Creating layer conv4_2
I0102 15:13:20.307451 23855 net.cpp:106] Creating Layer conv4_2
I0102 15:13:20.307456 23855 net.cpp:454] conv4_2 <- conv4_1
I0102 15:13:20.307463 23855 net.cpp:411] conv4_2 -> conv4_2
I0102 15:13:20.313943 23855 net.cpp:150] Setting up conv4_2
I0102 15:13:20.313966 23855 net.cpp:157] Top shape: 1 512 34 125 (2176000)
I0102 15:13:20.313971 23855 net.cpp:165] Memory required for data: 626632164
I0102 15:13:20.313987 23855 layer_factory.hpp:77] Creating layer relu4_2
I0102 15:13:20.314007 23855 net.cpp:106] Creating Layer relu4_2
I0102 15:13:20.314013 23855 net.cpp:454] relu4_2 <- conv4_2
I0102 15:13:20.314018 23855 net.cpp:397] relu4_2 -> conv4_2 (in-place)
I0102 15:13:20.314189 23855 net.cpp:150] Setting up relu4_2
I0102 15:13:20.314198 23855 net.cpp:157] Top shape: 1 512 34 125 (2176000)
I0102 15:13:20.314200 23855 net.cpp:165] Memory required for data: 635336164
I0102 15:13:20.314204 23855 layer_factory.hpp:77] Creating layer conv4_3
I0102 15:13:20.314213 23855 net.cpp:106] Creating Layer conv4_3
I0102 15:13:20.314215 23855 net.cpp:454] conv4_3 <- conv4_2
I0102 15:13:20.314220 23855 net.cpp:411] conv4_3 -> conv4_3
I0102 15:13:20.319687 23855 net.cpp:150] Setting up conv4_3
I0102 15:13:20.319712 23855 net.cpp:157] Top shape: 1 512 34 125 (2176000)
I0102 15:13:20.319716 23855 net.cpp:165] Memory required for data: 644040164
I0102 15:13:20.319725 23855 layer_factory.hpp:77] Creating layer relu4_3
I0102 15:13:20.319735 23855 net.cpp:106] Creating Layer relu4_3
I0102 15:13:20.319739 23855 net.cpp:454] relu4_3 <- conv4_3
I0102 15:13:20.319746 23855 net.cpp:397] relu4_3 -> conv4_3 (in-place)
I0102 15:13:20.319908 23855 net.cpp:150] Setting up relu4_3
I0102 15:13:20.319916 23855 net.cpp:157] Top shape: 1 512 34 125 (2176000)
I0102 15:13:20.319919 23855 net.cpp:165] Memory required for data: 652744164
I0102 15:13:20.319922 23855 layer_factory.hpp:77] Creating layer conv4_3_relu4_3_0_split
I0102 15:13:20.319927 23855 net.cpp:106] Creating Layer conv4_3_relu4_3_0_split
I0102 15:13:20.319931 23855 net.cpp:454] conv4_3_relu4_3_0_split <- conv4_3
I0102 15:13:20.319936 23855 net.cpp:411] conv4_3_relu4_3_0_split -> conv4_3_relu4_3_0_split_0
I0102 15:13:20.319947 23855 net.cpp:411] conv4_3_relu4_3_0_split -> conv4_3_relu4_3_0_split_1
I0102 15:13:20.319986 23855 net.cpp:150] Setting up conv4_3_relu4_3_0_split
I0102 15:13:20.319993 23855 net.cpp:157] Top shape: 1 512 34 125 (2176000)
I0102 15:13:20.319998 23855 net.cpp:157] Top shape: 1 512 34 125 (2176000)
I0102 15:13:20.319999 23855 net.cpp:165] Memory required for data: 670152164
I0102 15:13:20.320003 23855 layer_factory.hpp:77] Creating layer pool4
I0102 15:13:20.320008 23855 net.cpp:106] Creating Layer pool4
I0102 15:13:20.320011 23855 net.cpp:454] pool4 <- conv4_3_relu4_3_0_split_0
I0102 15:13:20.320015 23855 net.cpp:411] pool4 -> pool4
I0102 15:13:20.320050 23855 net.cpp:150] Setting up pool4
I0102 15:13:20.320056 23855 net.cpp:157] Top shape: 1 512 17 63 (548352)
I0102 15:13:20.320058 23855 net.cpp:165] Memory required for data: 672345572
I0102 15:13:20.320061 23855 layer_factory.hpp:77] Creating layer conv5_1
I0102 15:13:20.320070 23855 net.cpp:106] Creating Layer conv5_1
I0102 15:13:20.320072 23855 net.cpp:454] conv5_1 <- pool4
I0102 15:13:20.320077 23855 net.cpp:411] conv5_1 -> conv5_1
I0102 15:13:20.326396 23855 net.cpp:150] Setting up conv5_1
I0102 15:13:20.326423 23855 net.cpp:157] Top shape: 1 512 17 63 (548352)
I0102 15:13:20.326427 23855 net.cpp:165] Memory required for data: 674538980
I0102 15:13:20.326438 23855 layer_factory.hpp:77] Creating layer relu5_1
I0102 15:13:20.326448 23855 net.cpp:106] Creating Layer relu5_1
I0102 15:13:20.326454 23855 net.cpp:454] relu5_1 <- conv5_1
I0102 15:13:20.326460 23855 net.cpp:397] relu5_1 -> conv5_1 (in-place)
I0102 15:13:20.326648 23855 net.cpp:150] Setting up relu5_1
I0102 15:13:20.326656 23855 net.cpp:157] Top shape: 1 512 17 63 (548352)
I0102 15:13:20.326659 23855 net.cpp:165] Memory required for data: 676732388
I0102 15:13:20.326663 23855 layer_factory.hpp:77] Creating layer conv5_2
I0102 15:13:20.326678 23855 net.cpp:106] Creating Layer conv5_2
I0102 15:13:20.326681 23855 net.cpp:454] conv5_2 <- conv5_1
I0102 15:13:20.326686 23855 net.cpp:411] conv5_2 -> conv5_2
I0102 15:13:20.336793 23855 net.cpp:150] Setting up conv5_2
I0102 15:13:20.336820 23855 net.cpp:157] Top shape: 1 512 17 63 (548352)
I0102 15:13:20.336824 23855 net.cpp:165] Memory required for data: 678925796
I0102 15:13:20.336833 23855 layer_factory.hpp:77] Creating layer relu5_2
I0102 15:13:20.336841 23855 net.cpp:106] Creating Layer relu5_2
I0102 15:13:20.336846 23855 net.cpp:454] relu5_2 <- conv5_2
I0102 15:13:20.336853 23855 net.cpp:397] relu5_2 -> conv5_2 (in-place)
I0102 15:13:20.337026 23855 net.cpp:150] Setting up relu5_2
I0102 15:13:20.337035 23855 net.cpp:157] Top shape: 1 512 17 63 (548352)
I0102 15:13:20.337038 23855 net.cpp:165] Memory required for data: 681119204
I0102 15:13:20.337041 23855 layer_factory.hpp:77] Creating layer conv5_3
I0102 15:13:20.337050 23855 net.cpp:106] Creating Layer conv5_3
I0102 15:13:20.337054 23855 net.cpp:454] conv5_3 <- conv5_2
I0102 15:13:20.337059 23855 net.cpp:411] conv5_3 -> conv5_3
I0102 15:13:20.343063 23855 net.cpp:150] Setting up conv5_3
I0102 15:13:20.343088 23855 net.cpp:157] Top shape: 1 512 17 63 (548352)
I0102 15:13:20.343091 23855 net.cpp:165] Memory required for data: 683312612
I0102 15:13:20.343102 23855 layer_factory.hpp:77] Creating layer relu5_3
I0102 15:13:20.343111 23855 net.cpp:106] Creating Layer relu5_3
I0102 15:13:20.343116 23855 net.cpp:454] relu5_3 <- conv5_3
I0102 15:13:20.343134 23855 net.cpp:397] relu5_3 -> conv5_3 (in-place)
I0102 15:13:20.343714 23855 net.cpp:150] Setting up relu5_3
I0102 15:13:20.343725 23855 net.cpp:157] Top shape: 1 512 17 63 (548352)
I0102 15:13:20.343729 23855 net.cpp:165] Memory required for data: 685506020
I0102 15:13:20.343732 23855 layer_factory.hpp:77] Creating layer conv5_256
I0102 15:13:20.343742 23855 net.cpp:106] Creating Layer conv5_256
I0102 15:13:20.343746 23855 net.cpp:454] conv5_256 <- conv5_3
I0102 15:13:20.343752 23855 net.cpp:411] conv5_256 -> conv5_256
I0102 15:13:20.345825 23855 net.cpp:150] Setting up conv5_256
I0102 15:13:20.345844 23855 net.cpp:157] Top shape: 1 256 17 63 (274176)
I0102 15:13:20.345846 23855 net.cpp:165] Memory required for data: 686602724
I0102 15:13:20.345852 23855 layer_factory.hpp:77] Creating layer conv5_256_relu
I0102 15:13:20.345858 23855 net.cpp:106] Creating Layer conv5_256_relu
I0102 15:13:20.345862 23855 net.cpp:454] conv5_256_relu <- conv5_256
I0102 15:13:20.345866 23855 net.cpp:397] conv5_256_relu -> conv5_256 (in-place)
I0102 15:13:20.346395 23855 net.cpp:150] Setting up conv5_256_relu
I0102 15:13:20.346407 23855 net.cpp:157] Top shape: 1 256 17 63 (274176)
I0102 15:13:20.346410 23855 net.cpp:165] Memory required for data: 687699428
I0102 15:13:20.346415 23855 layer_factory.hpp:77] Creating layer conv5_256_conv5_256_relu_0_split
I0102 15:13:20.346421 23855 net.cpp:106] Creating Layer conv5_256_conv5_256_relu_0_split
I0102 15:13:20.346423 23855 net.cpp:454] conv5_256_conv5_256_relu_0_split <- conv5_256
I0102 15:13:20.346429 23855 net.cpp:411] conv5_256_conv5_256_relu_0_split -> conv5_256_conv5_256_relu_0_split_0
I0102 15:13:20.346436 23855 net.cpp:411] conv5_256_conv5_256_relu_0_split -> conv5_256_conv5_256_relu_0_split_1
I0102 15:13:20.346443 23855 net.cpp:411] conv5_256_conv5_256_relu_0_split -> conv5_256_conv5_256_relu_0_split_2
I0102 15:13:20.346448 23855 net.cpp:411] conv5_256_conv5_256_relu_0_split -> conv5_256_conv5_256_relu_0_split_3
I0102 15:13:20.346453 23855 net.cpp:411] conv5_256_conv5_256_relu_0_split -> conv5_256_conv5_256_relu_0_split_4
I0102 15:13:20.346531 23855 net.cpp:150] Setting up conv5_256_conv5_256_relu_0_split
I0102 15:13:20.346537 23855 net.cpp:157] Top shape: 1 256 17 63 (274176)
I0102 15:13:20.346541 23855 net.cpp:157] Top shape: 1 256 17 63 (274176)
I0102 15:13:20.346545 23855 net.cpp:157] Top shape: 1 256 17 63 (274176)
I0102 15:13:20.346549 23855 net.cpp:157] Top shape: 1 256 17 63 (274176)
I0102 15:13:20.346552 23855 net.cpp:157] Top shape: 1 256 17 63 (274176)
I0102 15:13:20.346555 23855 net.cpp:165] Memory required for data: 693182948
I0102 15:13:20.346557 23855 layer_factory.hpp:77] Creating layer conv5_256_up
I0102 15:13:20.346565 23855 net.cpp:106] Creating Layer conv5_256_up
I0102 15:13:20.346568 23855 net.cpp:454] conv5_256_up <- conv5_256_conv5_256_relu_0_split_0
I0102 15:13:20.346575 23855 net.cpp:411] conv5_256_up -> conv5_256_up
I0102 15:13:20.346886 23855 net.cpp:150] Setting up conv5_256_up
I0102 15:13:20.346894 23855 net.cpp:157] Top shape: 1 256 34 126 (1096704)
I0102 15:13:20.346896 23855 net.cpp:165] Memory required for data: 697569764
I0102 15:13:20.346901 23855 layer_factory.hpp:77] Creating layer conv4_256
I0102 15:13:20.346909 23855 net.cpp:106] Creating Layer conv4_256
I0102 15:13:20.346912 23855 net.cpp:454] conv4_256 <- conv4_3_relu4_3_0_split_1
I0102 15:13:20.346917 23855 net.cpp:411] conv4_256 -> conv4_256
I0102 15:13:20.350047 23855 net.cpp:150] Setting up conv4_256
I0102 15:13:20.350064 23855 net.cpp:157] Top shape: 1 256 34 125 (1088000)
I0102 15:13:20.350067 23855 net.cpp:165] Memory required for data: 701921764
I0102 15:13:20.350075 23855 layer_factory.hpp:77] Creating layer conv4_256_relu
I0102 15:13:20.350082 23855 net.cpp:106] Creating Layer conv4_256_relu
I0102 15:13:20.350086 23855 net.cpp:454] conv4_256_relu <- conv4_256
I0102 15:13:20.350093 23855 net.cpp:397] conv4_256_relu -> conv4_256 (in-place)
I0102 15:13:20.350258 23855 net.cpp:150] Setting up conv4_256_relu
I0102 15:13:20.350266 23855 net.cpp:157] Top shape: 1 256 34 125 (1088000)
I0102 15:13:20.350270 23855 net.cpp:165] Memory required for data: 706273764
I0102 15:13:20.350272 23855 layer_factory.hpp:77] Creating layer conv4_256_conv4_256_relu_0_split
I0102 15:13:20.350277 23855 net.cpp:106] Creating Layer conv4_256_conv4_256_relu_0_split
I0102 15:13:20.350281 23855 net.cpp:454] conv4_256_conv4_256_relu_0_split <- conv4_256
I0102 15:13:20.350286 23855 net.cpp:411] conv4_256_conv4_256_relu_0_split -> conv4_256_conv4_256_relu_0_split_0
I0102 15:13:20.350292 23855 net.cpp:411] conv4_256_conv4_256_relu_0_split -> conv4_256_conv4_256_relu_0_split_1
I0102 15:13:20.350332 23855 net.cpp:150] Setting up conv4_256_conv4_256_relu_0_split
I0102 15:13:20.350337 23855 net.cpp:157] Top shape: 1 256 34 125 (1088000)
I0102 15:13:20.350342 23855 net.cpp:157] Top shape: 1 256 34 125 (1088000)
I0102 15:13:20.350344 23855 net.cpp:165] Memory required for data: 714977764
I0102 15:13:20.350347 23855 layer_factory.hpp:77] Creating layer conv5_256_crop
I0102 15:13:20.350353 23855 net.cpp:106] Creating Layer conv5_256_crop
I0102 15:13:20.350358 23855 net.cpp:454] conv5_256_crop <- conv5_256_up
I0102 15:13:20.350360 23855 net.cpp:454] conv5_256_crop <- conv4_256_conv4_256_relu_0_split_0
I0102 15:13:20.350366 23855 net.cpp:411] conv5_256_crop -> conv5_256_crop
I0102 15:13:20.350461 23855 net.cpp:150] Setting up conv5_256_crop
I0102 15:13:20.350467 23855 net.cpp:157] Top shape: 1 256 34 125 (1088000)
I0102 15:13:20.350469 23855 net.cpp:165] Memory required for data: 719329764
I0102 15:13:20.350472 23855 layer_factory.hpp:77] Creating layer conv4_fuse
I0102 15:13:20.423660 23855 net.cpp:106] Creating Layer conv4_fuse
I0102 15:13:20.423704 23855 net.cpp:454] conv4_fuse <- conv5_256_crop
I0102 15:13:20.423720 23855 net.cpp:454] conv4_fuse <- conv4_256_conv4_256_relu_0_split_1
I0102 15:13:20.423738 23855 net.cpp:411] conv4_fuse -> conv4_fuse
I0102 15:13:20.423871 23855 net.cpp:150] Setting up conv4_fuse
I0102 15:13:20.423892 23855 net.cpp:157] Top shape: 1 256 34 125 (1088000)
I0102 15:13:20.423897 23855 net.cpp:165] Memory required for data: 723681764
I0102 15:13:20.423905 23855 layer_factory.hpp:77] Creating layer conv4_fuse_conv4_fuse_0_split
I0102 15:13:20.423920 23855 net.cpp:106] Creating Layer conv4_fuse_conv4_fuse_0_split
I0102 15:13:20.423928 23855 net.cpp:454] conv4_fuse_conv4_fuse_0_split <- conv4_fuse
I0102 15:13:20.423939 23855 net.cpp:411] conv4_fuse_conv4_fuse_0_split -> conv4_fuse_conv4_fuse_0_split_0
I0102 15:13:20.423952 23855 net.cpp:411] conv4_fuse_conv4_fuse_0_split -> conv4_fuse_conv4_fuse_0_split_1
I0102 15:13:20.424041 23855 net.cpp:150] Setting up conv4_fuse_conv4_fuse_0_split
I0102 15:13:20.424054 23855 net.cpp:157] Top shape: 1 256 34 125 (1088000)
I0102 15:13:20.424063 23855 net.cpp:157] Top shape: 1 256 34 125 (1088000)
I0102 15:13:20.424069 23855 net.cpp:165] Memory required for data: 732385764
I0102 15:13:20.424075 23855 layer_factory.hpp:77] Creating layer conv4_fuse_final
I0102 15:13:20.424094 23855 net.cpp:106] Creating Layer conv4_fuse_final
I0102 15:13:20.424103 23855 net.cpp:454] conv4_fuse_final <- conv4_fuse_conv4_fuse_0_split_0
I0102 15:13:20.424118 23855 net.cpp:411] conv4_fuse_final -> conv4_fuse_final
I0102 15:13:20.448251 23855 net.cpp:150] Setting up conv4_fuse_final
I0102 15:13:20.448300 23855 net.cpp:157] Top shape: 1 256 34 125 (1088000)
I0102 15:13:20.448308 23855 net.cpp:165] Memory required for data: 736737764
I0102 15:13:20.448346 23855 layer_factory.hpp:77] Creating layer conv4_fuse_final_relu
I0102 15:13:20.448379 23855 net.cpp:106] Creating Layer conv4_fuse_final_relu
I0102 15:13:20.448390 23855 net.cpp:454] conv4_fuse_final_relu <- conv4_fuse_final
I0102 15:13:20.448406 23855 net.cpp:397] conv4_fuse_final_relu -> conv4_fuse_final (in-place)
I0102 15:13:20.448918 23855 net.cpp:150] Setting up conv4_fuse_final_relu
I0102 15:13:20.448947 23855 net.cpp:157] Top shape: 1 256 34 125 (1088000)
I0102 15:13:20.448959 23855 net.cpp:165] Memory required for data: 741089764
I0102 15:13:20.448984 23855 layer_factory.hpp:77] Creating layer conv4_fuse_final_conv4_fuse_final_relu_0_split
I0102 15:13:20.449017 23855 net.cpp:106] Creating Layer conv4_fuse_final_conv4_fuse_final_relu_0_split
I0102 15:13:20.449030 23855 net.cpp:454] conv4_fuse_final_conv4_fuse_final_relu_0_split <- conv4_fuse_final
I0102 15:13:20.449054 23855 net.cpp:411] conv4_fuse_final_conv4_fuse_final_relu_0_split -> conv4_fuse_final_conv4_fuse_final_relu_0_split_0
I0102 15:13:20.449086 23855 net.cpp:411] conv4_fuse_final_conv4_fuse_final_relu_0_split -> conv4_fuse_final_conv4_fuse_final_relu_0_split_1
I0102 15:13:20.449111 23855 net.cpp:411] conv4_fuse_final_conv4_fuse_final_relu_0_split -> conv4_fuse_final_conv4_fuse_final_relu_0_split_2
I0102 15:13:20.449132 23855 net.cpp:411] conv4_fuse_final_conv4_fuse_final_relu_0_split -> conv4_fuse_final_conv4_fuse_final_relu_0_split_3
I0102 15:13:20.449148 23855 net.cpp:411] conv4_fuse_final_conv4_fuse_final_relu_0_split -> conv4_fuse_final_conv4_fuse_final_relu_0_split_4
I0102 15:13:20.449368 23855 net.cpp:150] Setting up conv4_fuse_final_conv4_fuse_final_relu_0_split
I0102 15:13:20.449383 23855 net.cpp:157] Top shape: 1 256 34 125 (1088000)
I0102 15:13:20.449393 23855 net.cpp:157] Top shape: 1 256 34 125 (1088000)
I0102 15:13:20.449403 23855 net.cpp:157] Top shape: 1 256 34 125 (1088000)
I0102 15:13:20.449412 23855 net.cpp:157] Top shape: 1 256 34 125 (1088000)
I0102 15:13:20.449421 23855 net.cpp:157] Top shape: 1 256 34 125 (1088000)
I0102 15:13:20.449427 23855 net.cpp:165] Memory required for data: 762849764
I0102 15:13:20.449436 23855 layer_factory.hpp:77] Creating layer conv4_256_up
I0102 15:13:20.449455 23855 net.cpp:106] Creating Layer conv4_256_up
I0102 15:13:20.449465 23855 net.cpp:454] conv4_256_up <- conv4_fuse_conv4_fuse_0_split_1
I0102 15:13:20.449481 23855 net.cpp:411] conv4_256_up -> conv4_256_up
I0102 15:13:20.450287 23855 net.cpp:150] Setting up conv4_256_up
I0102 15:13:20.450306 23855 net.cpp:157] Top shape: 1 256 68 250 (4352000)
I0102 15:13:20.450314 23855 net.cpp:165] Memory required for data: 780257764
I0102 15:13:20.450326 23855 layer_factory.hpp:77] Creating layer conv3_256
I0102 15:13:20.450346 23855 net.cpp:106] Creating Layer conv3_256
I0102 15:13:20.450356 23855 net.cpp:454] conv3_256 <- conv3_3_relu3_3_0_split_1
I0102 15:13:20.450371 23855 net.cpp:411] conv3_256 -> conv3_256
I0102 15:13:20.454648 23855 net.cpp:150] Setting up conv3_256
I0102 15:13:20.454686 23855 net.cpp:157] Top shape: 1 256 68 250 (4352000)
I0102 15:13:20.454691 23855 net.cpp:165] Memory required for data: 797665764
I0102 15:13:20.454708 23855 layer_factory.hpp:77] Creating layer conv3_256_relu
I0102 15:13:20.454720 23855 net.cpp:106] Creating Layer conv3_256_relu
I0102 15:13:20.454730 23855 net.cpp:454] conv3_256_relu <- conv3_256
I0102 15:13:20.454742 23855 net.cpp:397] conv3_256_relu -> conv3_256 (in-place)
I0102 15:13:20.455152 23855 net.cpp:150] Setting up conv3_256_relu
I0102 15:13:20.455173 23855 net.cpp:157] Top shape: 1 256 68 250 (4352000)
I0102 15:13:20.455178 23855 net.cpp:165] Memory required for data: 815073764
I0102 15:13:20.455184 23855 layer_factory.hpp:77] Creating layer conv3_256_conv3_256_relu_0_split
I0102 15:13:20.455194 23855 net.cpp:106] Creating Layer conv3_256_conv3_256_relu_0_split
I0102 15:13:20.455201 23855 net.cpp:454] conv3_256_conv3_256_relu_0_split <- conv3_256
I0102 15:13:20.455212 23855 net.cpp:411] conv3_256_conv3_256_relu_0_split -> conv3_256_conv3_256_relu_0_split_0
I0102 15:13:20.455226 23855 net.cpp:411] conv3_256_conv3_256_relu_0_split -> conv3_256_conv3_256_relu_0_split_1
I0102 15:13:20.455303 23855 net.cpp:150] Setting up conv3_256_conv3_256_relu_0_split
I0102 15:13:20.455314 23855 net.cpp:157] Top shape: 1 256 68 250 (4352000)
I0102 15:13:20.455322 23855 net.cpp:157] Top shape: 1 256 68 250 (4352000)
I0102 15:13:20.455327 23855 net.cpp:165] Memory required for data: 849889764
I0102 15:13:20.455332 23855 layer_factory.hpp:77] Creating layer conv4_256_crop
I0102 15:13:20.455343 23855 net.cpp:106] Creating Layer conv4_256_crop
I0102 15:13:20.455351 23855 net.cpp:454] conv4_256_crop <- conv4_256_up
I0102 15:13:20.455359 23855 net.cpp:454] conv4_256_crop <- conv3_256_conv3_256_relu_0_split_0
I0102 15:13:20.455369 23855 net.cpp:411] conv4_256_crop -> conv4_256_crop
I0102 15:13:20.455536 23855 net.cpp:150] Setting up conv4_256_crop
I0102 15:13:20.455548 23855 net.cpp:157] Top shape: 1 256 68 250 (4352000)
I0102 15:13:20.455552 23855 net.cpp:165] Memory required for data: 867297764
I0102 15:13:20.455557 23855 layer_factory.hpp:77] Creating layer conv3_fuse
I0102 15:13:20.455567 23855 net.cpp:106] Creating Layer conv3_fuse
I0102 15:13:20.455574 23855 net.cpp:454] conv3_fuse <- conv4_256_crop
I0102 15:13:20.455581 23855 net.cpp:454] conv3_fuse <- conv3_256_conv3_256_relu_0_split_1
I0102 15:13:20.455590 23855 net.cpp:411] conv3_fuse -> conv3_fuse
I0102 15:13:20.455627 23855 net.cpp:150] Setting up conv3_fuse
I0102 15:13:20.455637 23855 net.cpp:157] Top shape: 1 256 68 250 (4352000)
I0102 15:13:20.455642 23855 net.cpp:165] Memory required for data: 884705764
I0102 15:13:20.455647 23855 layer_factory.hpp:77] Creating layer conv3_fuse_final
I0102 15:13:20.455662 23855 net.cpp:106] Creating Layer conv3_fuse_final
I0102 15:13:20.455669 23855 net.cpp:454] conv3_fuse_final <- conv3_fuse
I0102 15:13:20.455680 23855 net.cpp:411] conv3_fuse_final -> conv3_fuse_final
I0102 15:13:20.468489 23855 net.cpp:150] Setting up conv3_fuse_final
I0102 15:13:20.468514 23855 net.cpp:157] Top shape: 1 256 68 250 (4352000)
I0102 15:13:20.468518 23855 net.cpp:165] Memory required for data: 902113764
I0102 15:13:20.468528 23855 layer_factory.hpp:77] Creating layer conv3_fuse_final_relu
I0102 15:13:20.468549 23855 net.cpp:106] Creating Layer conv3_fuse_final_relu
I0102 15:13:20.468554 23855 net.cpp:454] conv3_fuse_final_relu <- conv3_fuse_final
I0102 15:13:20.468560 23855 net.cpp:397] conv3_fuse_final_relu -> conv3_fuse_final (in-place)
I0102 15:13:20.468749 23855 net.cpp:150] Setting up conv3_fuse_final_relu
I0102 15:13:20.468760 23855 net.cpp:157] Top shape: 1 256 68 250 (4352000)
I0102 15:13:20.468762 23855 net.cpp:165] Memory required for data: 919521764
I0102 15:13:20.468765 23855 layer_factory.hpp:77] Creating layer conv3_fuse_final_conv3_fuse_final_relu_0_split
I0102 15:13:20.468771 23855 net.cpp:106] Creating Layer conv3_fuse_final_conv3_fuse_final_relu_0_split
I0102 15:13:20.468775 23855 net.cpp:454] conv3_fuse_final_conv3_fuse_final_relu_0_split <- conv3_fuse_final
I0102 15:13:20.468780 23855 net.cpp:411] conv3_fuse_final_conv3_fuse_final_relu_0_split -> conv3_fuse_final_conv3_fuse_final_relu_0_split_0
I0102 15:13:20.468787 23855 net.cpp:411] conv3_fuse_final_conv3_fuse_final_relu_0_split -> conv3_fuse_final_conv3_fuse_final_relu_0_split_1
I0102 15:13:20.468793 23855 net.cpp:411] conv3_fuse_final_conv3_fuse_final_relu_0_split -> conv3_fuse_final_conv3_fuse_final_relu_0_split_2
I0102 15:13:20.468848 23855 net.cpp:150] Setting up conv3_fuse_final_conv3_fuse_final_relu_0_split
I0102 15:13:20.468855 23855 net.cpp:157] Top shape: 1 256 68 250 (4352000)
I0102 15:13:20.468859 23855 net.cpp:157] Top shape: 1 256 68 250 (4352000)
I0102 15:13:20.468863 23855 net.cpp:157] Top shape: 1 256 68 250 (4352000)
I0102 15:13:20.468866 23855 net.cpp:165] Memory required for data: 971745764
I0102 15:13:20.468869 23855 layer_factory.hpp:77] Creating layer rpn_conv/3x3/p3
I0102 15:13:20.468880 23855 net.cpp:106] Creating Layer rpn_conv/3x3/p3
I0102 15:13:20.468884 23855 net.cpp:454] rpn_conv/3x3/p3 <- conv3_fuse_final_conv3_fuse_final_relu_0_split_0
I0102 15:13:20.468891 23855 net.cpp:411] rpn_conv/3x3/p3 -> rpn_conv/3x3_output/p3
I0102 15:13:20.476821 23855 net.cpp:150] Setting up rpn_conv/3x3/p3
I0102 15:13:20.476840 23855 net.cpp:157] Top shape: 1 256 68 250 (4352000)
I0102 15:13:20.476845 23855 net.cpp:165] Memory required for data: 989153764
I0102 15:13:20.476861 23855 layer_factory.hpp:77] Creating layer rpn_dimred/3x3/p3
I0102 15:13:20.476872 23855 net.cpp:106] Creating Layer rpn_dimred/3x3/p3
I0102 15:13:20.476876 23855 net.cpp:454] rpn_dimred/3x3/p3 <- conv3_fuse_final_conv3_fuse_final_relu_0_split_1
I0102 15:13:20.476886 23855 net.cpp:411] rpn_dimred/3x3/p3 -> rpn_dimred_output/p3
I0102 15:13:20.480957 23855 net.cpp:150] Setting up rpn_dimred/3x3/p3
I0102 15:13:20.480978 23855 net.cpp:157] Top shape: 1 128 68 250 (2176000)
I0102 15:13:20.480980 23855 net.cpp:165] Memory required for data: 997857764
I0102 15:13:20.480988 23855 layer_factory.hpp:77] Creating layer rpn_dimred_relu/p3
I0102 15:13:20.480994 23855 net.cpp:106] Creating Layer rpn_dimred_relu/p3
I0102 15:13:20.480998 23855 net.cpp:454] rpn_dimred_relu/p3 <- rpn_dimred_output/p3
I0102 15:13:20.481005 23855 net.cpp:397] rpn_dimred_relu/p3 -> rpn_dimred_output/p3 (in-place)
I0102 15:13:20.481173 23855 net.cpp:150] Setting up rpn_dimred_relu/p3
I0102 15:13:20.481180 23855 net.cpp:157] Top shape: 1 128 68 250 (2176000)
I0102 15:13:20.481184 23855 net.cpp:165] Memory required for data: 1006561764
I0102 15:13:20.481186 23855 layer_factory.hpp:77] Creating layer rpn_dimred_output/p3_rpn_dimred_relu/p3_0_split
I0102 15:13:20.481192 23855 net.cpp:106] Creating Layer rpn_dimred_output/p3_rpn_dimred_relu/p3_0_split
I0102 15:13:20.481196 23855 net.cpp:454] rpn_dimred_output/p3_rpn_dimred_relu/p3_0_split <- rpn_dimred_output/p3
I0102 15:13:20.481201 23855 net.cpp:411] rpn_dimred_output/p3_rpn_dimred_relu/p3_0_split -> rpn_dimred_output/p3_rpn_dimred_relu/p3_0_split_0
I0102 15:13:20.481209 23855 net.cpp:411] rpn_dimred_output/p3_rpn_dimred_relu/p3_0_split -> rpn_dimred_output/p3_rpn_dimred_relu/p3_0_split_1
I0102 15:13:20.481248 23855 net.cpp:150] Setting up rpn_dimred_output/p3_rpn_dimred_relu/p3_0_split
I0102 15:13:20.481253 23855 net.cpp:157] Top shape: 1 128 68 250 (2176000)
I0102 15:13:20.481257 23855 net.cpp:157] Top shape: 1 128 68 250 (2176000)
I0102 15:13:20.481261 23855 net.cpp:165] Memory required for data: 1023969764
I0102 15:13:20.481263 23855 layer_factory.hpp:77] Creating layer rpn_conv/5x5/p3
I0102 15:13:20.481274 23855 net.cpp:106] Creating Layer rpn_conv/5x5/p3
I0102 15:13:20.481278 23855 net.cpp:454] rpn_conv/5x5/p3 <- rpn_dimred_output/p3_rpn_dimred_relu/p3_0_split_0
I0102 15:13:20.481284 23855 net.cpp:411] rpn_conv/5x5/p3 -> rpn_conv/5x5_output/p3
I0102 15:13:20.484555 23855 net.cpp:150] Setting up rpn_conv/5x5/p3
I0102 15:13:20.484570 23855 net.cpp:157] Top shape: 1 128 68 250 (2176000)
I0102 15:13:20.484573 23855 net.cpp:165] Memory required for data: 1032673764
I0102 15:13:20.484580 23855 layer_factory.hpp:77] Creating layer rpn_conv/7x7-1/p3
I0102 15:13:20.484593 23855 net.cpp:106] Creating Layer rpn_conv/7x7-1/p3
I0102 15:13:20.484598 23855 net.cpp:454] rpn_conv/7x7-1/p3 <- rpn_dimred_output/p3_rpn_dimred_relu/p3_0_split_1
I0102 15:13:20.484603 23855 net.cpp:411] rpn_conv/7x7-1/p3 -> rpn_conv/7x7-1_out/p3
I0102 15:13:20.487345 23855 net.cpp:150] Setting up rpn_conv/7x7-1/p3
I0102 15:13:20.487365 23855 net.cpp:157] Top shape: 1 128 68 250 (2176000)
I0102 15:13:20.487367 23855 net.cpp:165] Memory required for data: 1041377764
I0102 15:13:20.487375 23855 layer_factory.hpp:77] Creating layer rpn_relu/7x7-1/p3
I0102 15:13:20.487392 23855 net.cpp:106] Creating Layer rpn_relu/7x7-1/p3
I0102 15:13:20.487402 23855 net.cpp:454] rpn_relu/7x7-1/p3 <- rpn_conv/7x7-1_out/p3
I0102 15:13:20.487409 23855 net.cpp:397] rpn_relu/7x7-1/p3 -> rpn_conv/7x7-1_out/p3 (in-place)
I0102 15:13:20.487663 23855 net.cpp:150] Setting up rpn_relu/7x7-1/p3
I0102 15:13:20.487671 23855 net.cpp:157] Top shape: 1 128 68 250 (2176000)
I0102 15:13:20.487674 23855 net.cpp:165] Memory required for data: 1050081764
I0102 15:13:20.487679 23855 layer_factory.hpp:77] Creating layer rpn_conv/7x7/p3
I0102 15:13:20.487689 23855 net.cpp:106] Creating Layer rpn_conv/7x7/p3
I0102 15:13:20.487692 23855 net.cpp:454] rpn_conv/7x7/p3 <- rpn_conv/7x7-1_out/p3
I0102 15:13:20.487699 23855 net.cpp:411] rpn_conv/7x7/p3 -> rpn_conv/7x7_output/p3
I0102 15:13:20.493085 23855 net.cpp:150] Setting up rpn_conv/7x7/p3
I0102 15:13:20.493120 23855 net.cpp:157] Top shape: 1 128 68 250 (2176000)
I0102 15:13:20.493124 23855 net.cpp:165] Memory required for data: 1058785764
I0102 15:13:20.493134 23855 layer_factory.hpp:77] Creating layer rpn_conv/357/p3
I0102 15:13:20.493146 23855 net.cpp:106] Creating Layer rpn_conv/357/p3
I0102 15:13:20.493151 23855 net.cpp:454] rpn_conv/357/p3 <- rpn_conv/3x3_output/p3
I0102 15:13:20.493156 23855 net.cpp:454] rpn_conv/357/p3 <- rpn_conv/5x5_output/p3
I0102 15:13:20.493160 23855 net.cpp:454] rpn_conv/357/p3 <- rpn_conv/7x7_output/p3
I0102 15:13:20.493165 23855 net.cpp:411] rpn_conv/357/p3 -> rpn_conv/357_output/p3
I0102 15:13:20.493206 23855 net.cpp:150] Setting up rpn_conv/357/p3
I0102 15:13:20.493212 23855 net.cpp:157] Top shape: 1 512 68 250 (8704000)
I0102 15:13:20.493214 23855 net.cpp:165] Memory required for data: 1093601764
I0102 15:13:20.493217 23855 layer_factory.hpp:77] Creating layer rpn_relu/357/p3
I0102 15:13:20.493222 23855 net.cpp:106] Creating Layer rpn_relu/357/p3
I0102 15:13:20.493225 23855 net.cpp:454] rpn_relu/357/p3 <- rpn_conv/357_output/p3
I0102 15:13:20.493232 23855 net.cpp:397] rpn_relu/357/p3 -> rpn_conv/357_output/p3 (in-place)
I0102 15:13:20.493773 23855 net.cpp:150] Setting up rpn_relu/357/p3
I0102 15:13:20.493784 23855 net.cpp:157] Top shape: 1 512 68 250 (8704000)
I0102 15:13:20.493788 23855 net.cpp:165] Memory required for data: 1128417764
I0102 15:13:20.493790 23855 layer_factory.hpp:77] Creating layer rpn_conv/357_output/p3_rpn_relu/357/p3_0_split
I0102 15:13:20.493798 23855 net.cpp:106] Creating Layer rpn_conv/357_output/p3_rpn_relu/357/p3_0_split
I0102 15:13:20.493800 23855 net.cpp:454] rpn_conv/357_output/p3_rpn_relu/357/p3_0_split <- rpn_conv/357_output/p3
I0102 15:13:20.493805 23855 net.cpp:411] rpn_conv/357_output/p3_rpn_relu/357/p3_0_split -> rpn_conv/357_output/p3_rpn_relu/357/p3_0_split_0
I0102 15:13:20.493813 23855 net.cpp:411] rpn_conv/357_output/p3_rpn_relu/357/p3_0_split -> rpn_conv/357_output/p3_rpn_relu/357/p3_0_split_1
I0102 15:13:20.493855 23855 net.cpp:150] Setting up rpn_conv/357_output/p3_rpn_relu/357/p3_0_split
I0102 15:13:20.493861 23855 net.cpp:157] Top shape: 1 512 68 250 (8704000)
I0102 15:13:20.493865 23855 net.cpp:157] Top shape: 1 512 68 250 (8704000)
I0102 15:13:20.493868 23855 net.cpp:165] Memory required for data: 1198049764
I0102 15:13:20.493870 23855 layer_factory.hpp:77] Creating layer rpn_cls_score/p3
I0102 15:13:20.493888 23855 net.cpp:106] Creating Layer rpn_cls_score/p3
I0102 15:13:20.493891 23855 net.cpp:454] rpn_cls_score/p3 <- rpn_conv/357_output/p3_rpn_relu/357/p3_0_split_0
I0102 15:13:20.493896 23855 net.cpp:411] rpn_cls_score/p3 -> rpn_cls_score/p3
I0102 15:13:20.495097 23855 net.cpp:150] Setting up rpn_cls_score/p3
I0102 15:13:20.495108 23855 net.cpp:157] Top shape: 1 12 68 250 (204000)
I0102 15:13:20.495111 23855 net.cpp:165] Memory required for data: 1198865764
I0102 15:13:20.495117 23855 layer_factory.hpp:77] Creating layer rpn_cls_score/p3_rpn_cls_score/p3_0_split
I0102 15:13:20.495122 23855 net.cpp:106] Creating Layer rpn_cls_score/p3_rpn_cls_score/p3_0_split
I0102 15:13:20.495126 23855 net.cpp:454] rpn_cls_score/p3_rpn_cls_score/p3_0_split <- rpn_cls_score/p3
I0102 15:13:20.495131 23855 net.cpp:411] rpn_cls_score/p3_rpn_cls_score/p3_0_split -> rpn_cls_score/p3_rpn_cls_score/p3_0_split_0
I0102 15:13:20.495137 23855 net.cpp:411] rpn_cls_score/p3_rpn_cls_score/p3_0_split -> rpn_cls_score/p3_rpn_cls_score/p3_0_split_1
I0102 15:13:20.495177 23855 net.cpp:150] Setting up rpn_cls_score/p3_rpn_cls_score/p3_0_split
I0102 15:13:20.495183 23855 net.cpp:157] Top shape: 1 12 68 250 (204000)
I0102 15:13:20.495187 23855 net.cpp:157] Top shape: 1 12 68 250 (204000)
I0102 15:13:20.495189 23855 net.cpp:165] Memory required for data: 1200497764
I0102 15:13:20.495193 23855 layer_factory.hpp:77] Creating layer rpn_bbox_pred/p3
I0102 15:13:20.495204 23855 net.cpp:106] Creating Layer rpn_bbox_pred/p3
I0102 15:13:20.495208 23855 net.cpp:454] rpn_bbox_pred/p3 <- rpn_conv/357_output/p3_rpn_relu/357/p3_0_split_1
I0102 15:13:20.495214 23855 net.cpp:411] rpn_bbox_pred/p3 -> rpn_bbox_pred/p3
I0102 15:13:20.496153 23855 net.cpp:150] Setting up rpn_bbox_pred/p3
I0102 15:13:20.496163 23855 net.cpp:157] Top shape: 1 24 68 250 (408000)
I0102 15:13:20.496166 23855 net.cpp:165] Memory required for data: 1202129764
I0102 15:13:20.496172 23855 layer_factory.hpp:77] Creating layer rpn_bbox_pred/p3_rpn_bbox_pred/p3_0_split
I0102 15:13:20.496178 23855 net.cpp:106] Creating Layer rpn_bbox_pred/p3_rpn_bbox_pred/p3_0_split
I0102 15:13:20.496181 23855 net.cpp:454] rpn_bbox_pred/p3_rpn_bbox_pred/p3_0_split <- rpn_bbox_pred/p3
I0102 15:13:20.496186 23855 net.cpp:411] rpn_bbox_pred/p3_rpn_bbox_pred/p3_0_split -> rpn_bbox_pred/p3_rpn_bbox_pred/p3_0_split_0
I0102 15:13:20.496192 23855 net.cpp:411] rpn_bbox_pred/p3_rpn_bbox_pred/p3_0_split -> rpn_bbox_pred/p3_rpn_bbox_pred/p3_0_split_1
I0102 15:13:20.496230 23855 net.cpp:150] Setting up rpn_bbox_pred/p3_rpn_bbox_pred/p3_0_split
I0102 15:13:20.496235 23855 net.cpp:157] Top shape: 1 24 68 250 (408000)
I0102 15:13:20.496239 23855 net.cpp:157] Top shape: 1 24 68 250 (408000)
I0102 15:13:20.496243 23855 net.cpp:165] Memory required for data: 1205393764
I0102 15:13:20.496244 23855 layer_factory.hpp:77] Creating layer rpn_cls_score_reshape/p3
I0102 15:13:20.496258 23855 net.cpp:106] Creating Layer rpn_cls_score_reshape/p3
I0102 15:13:20.496261 23855 net.cpp:454] rpn_cls_score_reshape/p3 <- rpn_cls_score/p3_rpn_cls_score/p3_0_split_0
I0102 15:13:20.496266 23855 net.cpp:411] rpn_cls_score_reshape/p3 -> rpn_cls_score_reshape/p3
I0102 15:13:20.773996 23855 net.cpp:150] Setting up rpn_cls_score_reshape/p3
I0102 15:13:20.774054 23855 net.cpp:157] Top shape: 1 2 408 250 (204000)
I0102 15:13:20.774062 23855 net.cpp:165] Memory required for data: 1206209764
I0102 15:13:20.774075 23855 layer_factory.hpp:77] Creating layer rpn_cls_score_reshape/p3_rpn_cls_score_reshape/p3_0_split
I0102 15:13:20.774096 23855 net.cpp:106] Creating Layer rpn_cls_score_reshape/p3_rpn_cls_score_reshape/p3_0_split
I0102 15:13:20.774108 23855 net.cpp:454] rpn_cls_score_reshape/p3_rpn_cls_score_reshape/p3_0_split <- rpn_cls_score_reshape/p3
I0102 15:13:20.774139 23855 net.cpp:411] rpn_cls_score_reshape/p3_rpn_cls_score_reshape/p3_0_split -> rpn_cls_score_reshape/p3_rpn_cls_score_reshape/p3_0_split_0
I0102 15:13:20.774163 23855 net.cpp:411] rpn_cls_score_reshape/p3_rpn_cls_score_reshape/p3_0_split -> rpn_cls_score_reshape/p3_rpn_cls_score_reshape/p3_0_split_1
I0102 15:13:20.774390 23855 net.cpp:150] Setting up rpn_cls_score_reshape/p3_rpn_cls_score_reshape/p3_0_split
I0102 15:13:20.774413 23855 net.cpp:157] Top shape: 1 2 408 250 (204000)
I0102 15:13:20.774425 23855 net.cpp:157] Top shape: 1 2 408 250 (204000)
I0102 15:13:20.774432 23855 net.cpp:165] Memory required for data: 1207841764
I0102 15:13:20.774441 23855 layer_factory.hpp:77] Creating layer rpn-data/p3
I0102 15:13:21.264498 23855 net.cpp:106] Creating Layer rpn-data/p3
I0102 15:13:21.264554 23855 net.cpp:454] rpn-data/p3 <- rpn_cls_score/p3_rpn_cls_score/p3_0_split_1
I0102 15:13:21.264575 23855 net.cpp:454] rpn-data/p3 <- gt_boxes_input-data_2_split_0
I0102 15:13:21.264590 23855 net.cpp:454] rpn-data/p3 <- im_info_input-data_1_split_0
I0102 15:13:21.264605 23855 net.cpp:454] rpn-data/p3 <- data_input-data_0_split_1
I0102 15:13:21.264624 23855 net.cpp:411] rpn-data/p3 -> rpn_labels/p3
I0102 15:13:21.264652 23855 net.cpp:411] rpn-data/p3 -> rpn_bbox_targets/p3
I0102 15:13:21.264680 23855 net.cpp:411] rpn-data/p3 -> rpn_bbox_inside_weights/p3
I0102 15:13:21.264708 23855 net.cpp:411] rpn-data/p3 -> rpn_bbox_outside_weights/p3
I0102 15:13:21.270320 23855 net.cpp:150] Setting up rpn-data/p3
I0102 15:13:21.270366 23855 net.cpp:157] Top shape: 1 1 408 250 (102000)
I0102 15:13:21.270380 23855 net.cpp:157] Top shape: 1 24 68 250 (408000)
I0102 15:13:21.270390 23855 net.cpp:157] Top shape: 1 24 68 250 (408000)
I0102 15:13:21.270401 23855 net.cpp:157] Top shape: 1 24 68 250 (408000)
I0102 15:13:21.270409 23855 net.cpp:165] Memory required for data: 1213145764
I0102 15:13:21.270421 23855 layer_factory.hpp:77] Creating layer rpn_loss_cls/p3
I0102 15:13:21.270442 23855 net.cpp:106] Creating Layer rpn_loss_cls/p3
I0102 15:13:21.270455 23855 net.cpp:454] rpn_loss_cls/p3 <- rpn_cls_score_reshape/p3_rpn_cls_score_reshape/p3_0_split_0
I0102 15:13:21.270474 23855 net.cpp:454] rpn_loss_cls/p3 <- rpn_labels/p3
…
I0102 15:13:21.281383 23855 net.cpp:160]     with loss weight 1
I0102 15:13:21.281430 23855 net.cpp:165] Memory required for data: 1213145772
I0102 15:13:21.281448 23855 layer_factory.hpp:77] Creating layer rpn_cls_prob/p3
I0102 15:13:21.281484 23855 net.cpp:106] Creating Layer rpn_cls_prob/p3
I0102 15:13:21.281503 23855 net.cpp:454] rpn_cls_prob/p3 <- rpn_cls_score_reshape/p3_rpn_cls_score_reshape/p3_0_split_1
I0102 15:13:21.281527 23855 net.cpp:411] rpn_cls_prob/p3 -> rpn_cls_prob/p3
I0102 15:13:21.282786 23855 net.cpp:150] Setting up rpn_cls_prob/p3
I0102 15:13:21.282866 23855 net.cpp:157] Top shape: 1 2 408 250 (204000)
I0102 15:13:21.282874 23855 net.cpp:165] Memory required for data: 1213961772
I0102 15:13:21.282891 23855 layer_factory.hpp:77] Creating layer rpn_cls_prob_reshape/p3
I0102 15:13:21.282943 23855 net.cpp:106] Creating Layer rpn_cls_prob_reshape/p3
I0102 15:13:21.282960 23855 net.cpp:454] rpn_cls_prob_reshape/p3 <- rpn_cls_prob/p3
I0102 15:13:21.282984 23855 net.cpp:411] rpn_cls_prob_reshape/p3 -> rpn_cls_prob_reshape/p3
I0102 15:13:21.283238 23855 net.cpp:150] Setting up rpn_cls_prob_reshape/p3
I0102 15:13:21.283269 23855 net.cpp:157] Top shape: 1 12 68 250 (204000)
I0102 15:13:21.283280 23855 net.cpp:165] Memory required for data: 1214777772
I0102 15:13:21.283291 23855 layer_factory.hpp:77] Creating layer proposal/p3
I0102 15:13:21.320731 23855 net.cpp:106] Creating Layer proposal/p3
I0102 15:13:21.320785 23855 net.cpp:454] proposal/p3 <- rpn_cls_prob_reshape/p3
I0102 15:13:21.320806 23855 net.cpp:454] proposal/p3 <- rpn_bbox_pred/p3_rpn_bbox_pred/p3_0_split_1
I0102 15:13:21.320818 23855 net.cpp:454] proposal/p3 <- im_info_input-data_1_split_1
I0102 15:13:21.320837 23855 net.cpp:411] proposal/p3 -> rpn_rois/p3
I0102 15:13:21.350461 23855 net.cpp:150] Setting up proposal/p3
I0102 15:13:21.350519 23855 net.cpp:157] Top shape: 1 5 (5)
I0102 15:13:21.350529 23855 net.cpp:165] Memory required for data: 1214777792
I0102 15:13:21.350543 23855 layer_factory.hpp:77] Creating layer rpn_conv/3x3/p4
I0102 15:13:21.350579 23855 net.cpp:106] Creating Layer rpn_conv/3x3/p4
I0102 15:13:21.350594 23855 net.cpp:454] rpn_conv/3x3/p4 <- conv4_fuse_final_conv4_fuse_final_relu_0_split_0
I0102 15:13:21.350617 23855 net.cpp:411] rpn_conv/3x3/p4 -> rpn_conv/3x3_output/p4
I0102 15:13:21.372901 23855 net.cpp:150] Setting up rpn_conv/3x3/p4
I0102 15:13:21.372948 23855 net.cpp:157] Top shape: 1 256 34 125 (1088000)
I0102 15:13:21.372958 23855 net.cpp:165] Memory required for data: 1219129792
I0102 15:13:21.373001 23855 layer_factory.hpp:77] Creating layer rpn_dimred/3x3/p4
I0102 15:13:21.373039 23855 net.cpp:106] Creating Layer rpn_dimred/3x3/p4
I0102 15:13:21.373050 23855 net.cpp:454] rpn_dimred/3x3/p4 <- conv4_fuse_final_conv4_fuse_final_relu_0_split_1
I0102 15:13:21.373069 23855 net.cpp:411] rpn_dimred/3x3/p4 -> rpn_dimred_output/p4
I0102 15:13:21.383492 23855 net.cpp:150] Setting up rpn_dimred/3x3/p4
I0102 15:13:21.383524 23855 net.cpp:157] Top shape: 1 128 34 125 (544000)
I0102 15:13:21.383529 23855 net.cpp:165] Memory required for data: 1221305792
I0102 15:13:21.383541 23855 layer_factory.hpp:77] Creating layer rpn_dimred_relu/p4
I0102 15:13:21.383553 23855 net.cpp:106] Creating Layer rpn_dimred_relu/p4
I0102 15:13:21.383560 23855 net.cpp:454] rpn_dimred_relu/p4 <- rpn_dimred_output/p4
I0102 15:13:21.383568 23855 net.cpp:397] rpn_dimred_relu/p4 -> rpn_dimred_output/p4 (in-place)
I0102 15:13:21.383839 23855 net.cpp:150] Setting up rpn_dimred_relu/p4
I0102 15:13:21.383852 23855 net.cpp:157] Top shape: 1 128 34 125 (544000)
I0102 15:13:21.383857 23855 net.cpp:165] Memory required for data: 1223481792
I0102 15:13:21.383862 23855 layer_factory.hpp:77] Creating layer rpn_dimred_output/p4_rpn_dimred_relu/p4_0_split
I0102 15:13:21.383868 23855 net.cpp:106] Creating Layer rpn_dimred_output/p4_rpn_dimred_relu/p4_0_split
I0102 15:13:21.383873 23855 net.cpp:454] rpn_dimred_output/p4_rpn_dimred_relu/p4_0_split <- rpn_dimred_output/p4
I0102 15:13:21.383882 23855 net.cpp:411] rpn_dimred_output/p4_rpn_dimred_relu/p4_0_split -> rpn_dimred_output/p4_rpn_dimred_relu/p4_0_split_0
I0102 15:13:21.383891 23855 net.cpp:411] rpn_dimred_output/p4_rpn_dimred_relu/p4_0_split -> rpn_dimred_output/p4_rpn_dimred_relu/p4_0_split_1
I0102 15:13:21.383958 23855 net.cpp:150] Setting up rpn_dimred_output/p4_rpn_dimred_relu/p4_0_split
I0102 15:13:21.383967 23855 net.cpp:157] Top shape: 1 128 34 125 (544000)
I0102 15:13:21.383973 23855 net.cpp:157] Top shape: 1 128 34 125 (544000)
I0102 15:13:21.383976 23855 net.cpp:165] Memory required for data: 1227833792
I0102 15:13:21.383980 23855 layer_factory.hpp:77] Creating layer rpn_conv/5x5/p4
I0102 15:13:21.383994 23855 net.cpp:106] Creating Layer rpn_conv/5x5/p4
I0102 15:13:21.383999 23855 net.cpp:454] rpn_conv/5x5/p4 <- rpn_dimred_output/p4_rpn_dimred_relu/p4_0_split_0
I0102 15:13:21.384008 23855 net.cpp:411] rpn_conv/5x5/p4 -> rpn_conv/5x5_output/p4
I0102 15:13:21.388164 23855 net.cpp:150] Setting up rpn_conv/5x5/p4
I0102 15:13:21.388180 23855 net.cpp:157] Top shape: 1 128 34 125 (544000)
I0102 15:13:21.388183 23855 net.cpp:165] Memory required for data: 1230009792
I0102 15:13:21.388193 23855 layer_factory.hpp:77] Creating layer rpn_conv/7x7-1/p4
I0102 15:13:21.388206 23855 net.cpp:106] Creating Layer rpn_conv/7x7-1/p4
I0102 15:13:21.388211 23855 net.cpp:454] rpn_conv/7x7-1/p4 <- rpn_dimred_output/p4_rpn_dimred_relu/p4_0_split_1
I0102 15:13:21.388218 23855 net.cpp:411] rpn_conv/7x7-1/p4 -> rpn_conv/7x7-1_out/p4
I0102 15:13:21.392580 23855 net.cpp:150] Setting up rpn_conv/7x7-1/p4
I0102 15:13:21.392602 23855 net.cpp:157] Top shape: 1 128 34 125 (544000)
I0102 15:13:21.392607 23855 net.cpp:165] Memory required for data: 1232185792
I0102 15:13:21.392627 23855 layer_factory.hpp:77] Creating layer rpn_relu/7x7-1/p4
I0102 15:13:21.392637 23855 net.cpp:106] Creating Layer rpn_relu/7x7-1/p4
I0102 15:13:21.392642 23855 net.cpp:454] rpn_relu/7x7-1/p4 <- rpn_conv/7x7-1_out/p4
I0102 15:13:21.392648 23855 net.cpp:397] rpn_relu/7x7-1/p4 -> rpn_conv/7x7-1_out/p4 (in-place)
I0102 15:13:21.392889 23855 net.cpp:150] Setting up rpn_relu/7x7-1/p4
I0102 15:13:21.392901 23855 net.cpp:157] Top shape: 1 128 34 125 (544000)
I0102 15:13:21.392904 23855 net.cpp:165] Memory required for data: 1234361792
I0102 15:13:21.392909 23855 layer_factory.hpp:77] Creating layer rpn_conv/7x7/p4
I0102 15:13:21.392920 23855 net.cpp:106] Creating Layer rpn_conv/7x7/p4
I0102 15:13:21.392925 23855 net.cpp:454] rpn_conv/7x7/p4 <- rpn_conv/7x7-1_out/p4
I0102 15:13:21.392931 23855 net.cpp:411] rpn_conv/7x7/p4 -> rpn_conv/7x7_output/p4
I0102 15:13:21.398066 23855 net.cpp:150] Setting up rpn_conv/7x7/p4
I0102 15:13:21.398157 23855 net.cpp:157] Top shape: 1 128 34 125 (544000)
I0102 15:13:21.398164 23855 net.cpp:165] Memory required for data: 1236537792
I0102 15:13:21.398196 23855 layer_factory.hpp:77] Creating layer rpn_conv/357/p4
I0102 15:13:21.398226 23855 net.cpp:106] Creating Layer rpn_conv/357/p4
I0102 15:13:21.398257 23855 net.cpp:454] rpn_conv/357/p4 <- rpn_conv/3x3_output/p4
I0102 15:13:21.398272 23855 net.cpp:454] rpn_conv/357/p4 <- rpn_conv/5x5_output/p4
I0102 15:13:21.398280 23855 net.cpp:454] rpn_conv/357/p4 <- rpn_conv/7x7_output/p4
I0102 15:13:21.398296 23855 net.cpp:411] rpn_conv/357/p4 -> rpn_conv/357_output/p4
I0102 15:13:21.398530 23855 net.cpp:150] Setting up rpn_conv/357/p4
I0102 15:13:21.398546 23855 net.cpp:157] Top shape: 1 512 34 125 (2176000)
I0102 15:13:21.398550 23855 net.cpp:165] Memory required for data: 1245241792
I0102 15:13:21.398553 23855 layer_factory.hpp:77] Creating layer rpn_relu/357/p4
I0102 15:13:21.398571 23855 net.cpp:106] Creating Layer rpn_relu/357/p4
I0102 15:13:21.398578 23855 net.cpp:454] rpn_relu/357/p4 <- rpn_conv/357_output/p4
I0102 15:13:21.398586 23855 net.cpp:397] rpn_relu/357/p4 -> rpn_conv/357_output/p4 (in-place)
I0102 15:13:21.398916 23855 net.cpp:150] Setting up rpn_relu/357/p4
I0102 15:13:21.398926 23855 net.cpp:157] Top shape: 1 512 34 125 (2176000)
I0102 15:13:21.398928 23855 net.cpp:165] Memory required for data: 1253945792
I0102 15:13:21.398931 23855 layer_factory.hpp:77] Creating layer rpn_conv/357_output/p4_rpn_relu/357/p4_0_split
I0102 15:13:21.398938 23855 net.cpp:106] Creating Layer rpn_conv/357_output/p4_rpn_relu/357/p4_0_split
I0102 15:13:21.398941 23855 net.cpp:454] rpn_conv/357_output/p4_rpn_relu/357/p4_0_split <- rpn_conv/357_output/p4
I0102 15:13:21.398948 23855 net.cpp:411] rpn_conv/357_output/p4_rpn_relu/357/p4_0_split -> rpn_conv/357_output/p4_rpn_relu/357/p4_0_split_0
I0102 15:13:21.398954 23855 net.cpp:411] rpn_conv/357_output/p4_rpn_relu/357/p4_0_split -> rpn_conv/357_output/p4_rpn_relu/357/p4_0_split_1
I0102 15:13:21.399008 23855 net.cpp:150] Setting up rpn_conv/357_output/p4_rpn_relu/357/p4_0_split
I0102 15:13:21.399014 23855 net.cpp:157] Top shape: 1 512 34 125 (2176000)
I0102 15:13:21.399019 23855 net.cpp:157] Top shape: 1 512 34 125 (2176000)
I0102 15:13:21.399021 23855 net.cpp:165] Memory required for data: 1271353792
I0102 15:13:21.399024 23855 layer_factory.hpp:77] Creating layer rpn_cls_score/p4
I0102 15:13:21.399035 23855 net.cpp:106] Creating Layer rpn_cls_score/p4
I0102 15:13:21.399039 23855 net.cpp:454] rpn_cls_score/p4 <- rpn_conv/357_output/p4_rpn_relu/357/p4_0_split_0
I0102 15:13:21.399045 23855 net.cpp:411] rpn_cls_score/p4 -> rpn_cls_score/p4
I0102 15:13:21.400496 23855 net.cpp:150] Setting up rpn_cls_score/p4
I0102 15:13:21.400511 23855 net.cpp:157] Top shape: 1 12 34 125 (51000)
I0102 15:13:21.400513 23855 net.cpp:165] Memory required for data: 1271557792
I0102 15:13:21.400521 23855 layer_factory.hpp:77] Creating layer rpn_cls_score/p4_rpn_cls_score/p4_0_split
I0102 15:13:21.400527 23855 net.cpp:106] Creating Layer rpn_cls_score/p4_rpn_cls_score/p4_0_split
I0102 15:13:21.400530 23855 net.cpp:454] rpn_cls_score/p4_rpn_cls_score/p4_0_split <- rpn_cls_score/p4
I0102 15:13:21.400537 23855 net.cpp:411] rpn_cls_score/p4_rpn_cls_score/p4_0_split -> rpn_cls_score/p4_rpn_cls_score/p4_0_split_0
I0102 15:13:21.400544 23855 net.cpp:411] rpn_cls_score/p4_rpn_cls_score/p4_0_split -> rpn_cls_score/p4_rpn_cls_score/p4_0_split_1
I0102 15:13:21.400588 23855 net.cpp:150] Setting up rpn_cls_score/p4_rpn_cls_score/p4_0_split
I0102 15:13:21.400594 23855 net.cpp:157] Top shape: 1 12 34 125 (51000)
I0102 15:13:21.400599 23855 net.cpp:157] Top shape: 1 12 34 125 (51000)
I0102 15:13:21.400601 23855 net.cpp:165] Memory required for data: 1271965792
I0102 15:13:21.400604 23855 layer_factory.hpp:77] Creating layer rpn_bbox_pred/p4
I0102 15:13:21.400615 23855 net.cpp:106] Creating Layer rpn_bbox_pred/p4
I0102 15:13:21.400619 23855 net.cpp:454] rpn_bbox_pred/p4 <- rpn_conv/357_output/p4_rpn_relu/357/p4_0_split_1
I0102 15:13:21.400629 23855 net.cpp:411] rpn_bbox_pred/p4 -> rpn_bbox_pred/p4
I0102 15:13:21.401948 23855 net.cpp:150] Setting up rpn_bbox_pred/p4
I0102 15:13:21.401962 23855 net.cpp:157] Top shape: 1 24 34 125 (102000)
I0102 15:13:21.401965 23855 net.cpp:165] Memory required for data: 1272373792
I0102 15:13:21.401988 23855 layer_factory.hpp:77] Creating layer rpn_bbox_pred/p4_rpn_bbox_pred/p4_0_split
I0102 15:13:21.401995 23855 net.cpp:106] Creating Layer rpn_bbox_pred/p4_rpn_bbox_pred/p4_0_split
I0102 15:13:21.401999 23855 net.cpp:454] rpn_bbox_pred/p4_rpn_bbox_pred/p4_0_split <- rpn_bbox_pred/p4
I0102 15:13:21.402005 23855 net.cpp:411] rpn_bbox_pred/p4_rpn_bbox_pred/p4_0_split -> rpn_bbox_pred/p4_rpn_bbox_pred/p4_0_split_0
I0102 15:13:21.402012 23855 net.cpp:411] rpn_bbox_pred/p4_rpn_bbox_pred/p4_0_split -> rpn_bbox_pred/p4_rpn_bbox_pred/p4_0_split_1
I0102 15:13:21.402056 23855 net.cpp:150] Setting up rpn_bbox_pred/p4_rpn_bbox_pred/p4_0_split
I0102 15:13:21.402062 23855 net.cpp:157] Top shape: 1 24 34 125 (102000)
I0102 15:13:21.402066 23855 net.cpp:157] Top shape: 1 24 34 125 (102000)
I0102 15:13:21.402070 23855 net.cpp:165] Memory required for data: 1273189792
I0102 15:13:21.402072 23855 layer_factory.hpp:77] Creating layer rpn_cls_score_reshape/p4
I0102 15:13:21.402079 23855 net.cpp:106] Creating Layer rpn_cls_score_reshape/p4
I0102 15:13:21.402083 23855 net.cpp:454] rpn_cls_score_reshape/p4 <- rpn_cls_score/p4_rpn_cls_score/p4_0_split_0
I0102 15:13:21.402088 23855 net.cpp:411] rpn_cls_score_reshape/p4 -> rpn_cls_score_reshape/p4
I0102 15:13:21.402114 23855 net.cpp:150] Setting up rpn_cls_score_reshape/p4
I0102 15:13:21.402120 23855 net.cpp:157] Top shape: 1 2 204 125 (51000)
I0102 15:13:21.402123 23855 net.cpp:165] Memory required for data: 1273393792
I0102 15:13:21.402127 23855 layer_factory.hpp:77] Creating layer rpn_cls_score_reshape/p4_rpn_cls_score_reshape/p4_0_split
I0102 15:13:21.402132 23855 net.cpp:106] Creating Layer rpn_cls_score_reshape/p4_rpn_cls_score_reshape/p4_0_split
I0102 15:13:21.402135 23855 net.cpp:454] rpn_cls_score_reshape/p4_rpn_cls_score_reshape/p4_0_split <- rpn_cls_score_reshape/p4
I0102 15:13:21.402143 23855 net.cpp:411] rpn_cls_score_reshape/p4_rpn_cls_score_reshape/p4_0_split -> rpn_cls_score_reshape/p4_rpn_cls_score_reshape/p4_0_split_0
I0102 15:13:21.402149 23855 net.cpp:411] rpn_cls_score_reshape/p4_rpn_cls_score_reshape/p4_0_split -> rpn_cls_score_reshape/p4_rpn_cls_score_reshape/p4_0_split_1
I0102 15:13:21.402186 23855 net.cpp:150] Setting up rpn_cls_score_reshape/p4_rpn_cls_score_reshape/p4_0_split
I0102 15:13:21.402192 23855 net.cpp:157] Top shape: 1 2 204 125 (51000)
I0102 15:13:21.402195 23855 net.cpp:157] Top shape: 1 2 204 125 (51000)
I0102 15:13:21.402199 23855 net.cpp:165] Memory required for data: 1273801792
I0102 15:13:21.402201 23855 layer_factory.hpp:77] Creating layer rpn-data/p4
I0102 15:13:21.402267 23855 net.cpp:106] Creating Layer rpn-data/p4
I0102 15:13:21.402276 23855 net.cpp:454] rpn-data/p4 <- rpn_cls_score/p4_rpn_cls_score/p4_0_split_1
I0102 15:13:21.402282 23855 net.cpp:454] rpn-data/p4 <- gt_boxes_input-data_2_split_1
I0102 15:13:21.402287 23855 net.cpp:454] rpn-data/p4 <- im_info_input-data_1_split_2
I0102 15:13:21.402293 23855 net.cpp:454] rpn-data/p4 <- data_input-data_0_split_2
I0102 15:13:21.402302 23855 net.cpp:411] rpn-data/p4 -> rpn_labels/p4
I0102 15:13:21.402312 23855 net.cpp:411] rpn-data/p4 -> rpn_bbox_targets/p4
I0102 15:13:21.402321 23855 net.cpp:411] rpn-data/p4 -> rpn_bbox_inside_weights/p4
I0102 15:13:21.402330 23855 net.cpp:411] rpn-data/p4 -> rpn_bbox_outside_weights/p4
I0102 15:13:21.404089 23855 net.cpp:150] Setting up rpn-data/p4
I0102 15:13:21.404109 23855 net.cpp:157] Top shape: 1 1 204 125 (25500)
I0102 15:13:21.404114 23855 net.cpp:157] Top shape: 1 24 34 125 (102000)
I0102 15:13:21.404119 23855 net.cpp:157] Top shape: 1 24 34 125 (102000)
I0102 15:13:21.404122 23855 net.cpp:157] Top shape: 1 24 34 125 (102000)
I0102 15:13:21.404125 23855 net.cpp:165] Memory required for data: 1275127792
I0102 15:13:21.404129 23855 layer_factory.hpp:77] Creating layer rpn_loss_cls/p4
I0102 15:13:21.404140 23855 net.cpp:106] Creating Layer rpn_loss_cls/p4
I0102 15:13:21.404146 23855 net.cpp:454] rpn_loss_cls/p4 <- rpn_cls_score_reshape/p4_rpn_cls_score_reshape/p4_0_split_0
I0102 15:13:21.404152 23855 net.cpp:454] rpn_loss_cls/p4 <- rpn_labels/p4
…
I0102 15:13:21.405230 23855 net.cpp:160]     with loss weight 1
I0102 15:13:21.405234 23855 net.cpp:165] Memory required for data: 1275127800
I0102 15:13:21.405237 23855 layer_factory.hpp:77] Creating layer rpn_cls_prob/p4
I0102 15:13:21.405242 23855 net.cpp:106] Creating Layer rpn_cls_prob/p4
I0102 15:13:21.405246 23855 net.cpp:454] rpn_cls_prob/p4 <- rpn_cls_score_reshape/p4_rpn_cls_score_reshape/p4_0_split_1
I0102 15:13:21.405252 23855 net.cpp:411] rpn_cls_prob/p4 -> rpn_cls_prob/p4
I0102 15:13:21.405992 23855 net.cpp:150] Setting up rpn_cls_prob/p4
I0102 15:13:21.406008 23855 net.cpp:157] Top shape: 1 2 204 125 (51000)
I0102 15:13:21.406013 23855 net.cpp:165] Memory required for data: 1275331800
I0102 15:13:21.406015 23855 layer_factory.hpp:77] Creating layer rpn_cls_prob_reshape/p4
I0102 15:13:21.406024 23855 net.cpp:106] Creating Layer rpn_cls_prob_reshape/p4
I0102 15:13:21.406028 23855 net.cpp:454] rpn_cls_prob_reshape/p4 <- rpn_cls_prob/p4
I0102 15:13:21.406035 23855 net.cpp:411] rpn_cls_prob_reshape/p4 -> rpn_cls_prob_reshape/p4
I0102 15:13:21.406064 23855 net.cpp:150] Setting up rpn_cls_prob_reshape/p4
I0102 15:13:21.406074 23855 net.cpp:157] Top shape: 1 12 34 125 (51000)
I0102 15:13:21.406077 23855 net.cpp:165] Memory required for data: 1275535800
I0102 15:13:21.406082 23855 layer_factory.hpp:77] Creating layer proposal/p4
I0102 15:13:21.406128 23855 net.cpp:106] Creating Layer proposal/p4
I0102 15:13:21.406136 23855 net.cpp:454] proposal/p4 <- rpn_cls_prob_reshape/p4
I0102 15:13:21.406143 23855 net.cpp:454] proposal/p4 <- rpn_bbox_pred/p4_rpn_bbox_pred/p4_0_split_1
I0102 15:13:21.406150 23855 net.cpp:454] proposal/p4 <- im_info_input-data_1_split_3
I0102 15:13:21.406158 23855 net.cpp:411] proposal/p4 -> rpn_rois/p4
I0102 15:13:21.407388 23855 net.cpp:150] Setting up proposal/p4
I0102 15:13:21.407408 23855 net.cpp:157] Top shape: 1 5 (5)
I0102 15:13:21.407413 23855 net.cpp:165] Memory required for data: 1275535820
I0102 15:13:21.407419 23855 layer_factory.hpp:77] Creating layer rpn_conv/3x3/p5
I0102 15:13:21.407438 23855 net.cpp:106] Creating Layer rpn_conv/3x3/p5
I0102 15:13:21.407454 23855 net.cpp:454] rpn_conv/3x3/p5 <- conv5_256_conv5_256_relu_0_split_1
I0102 15:13:21.407486 23855 net.cpp:411] rpn_conv/3x3/p5 -> rpn_conv/3x3_output/p5
I0102 15:13:21.416427 23855 net.cpp:150] Setting up rpn_conv/3x3/p5
I0102 15:13:21.416450 23855 net.cpp:157] Top shape: 1 256 17 63 (274176)
I0102 15:13:21.416455 23855 net.cpp:165] Memory required for data: 1276632524
I0102 15:13:21.416467 23855 layer_factory.hpp:77] Creating layer rpn_dimred/3x3/p5
I0102 15:13:21.416486 23855 net.cpp:106] Creating Layer rpn_dimred/3x3/p5
I0102 15:13:21.416493 23855 net.cpp:454] rpn_dimred/3x3/p5 <- conv5_256_conv5_256_relu_0_split_2
I0102 15:13:21.416505 23855 net.cpp:411] rpn_dimred/3x3/p5 -> rpn_dimred_output/p5
I0102 15:13:21.421111 23855 net.cpp:150] Setting up rpn_dimred/3x3/p5
I0102 15:13:21.421128 23855 net.cpp:157] Top shape: 1 128 17 63 (137088)
I0102 15:13:21.421133 23855 net.cpp:165] Memory required for data: 1277180876
I0102 15:13:21.421144 23855 layer_factory.hpp:77] Creating layer rpn_dimred_relu/p5
I0102 15:13:21.421157 23855 net.cpp:106] Creating Layer rpn_dimred_relu/p5
I0102 15:13:21.421164 23855 net.cpp:454] rpn_dimred_relu/p5 <- rpn_dimred_output/p5
I0102 15:13:21.421172 23855 net.cpp:397] rpn_dimred_relu/p5 -> rpn_dimred_output/p5 (in-place)
I0102 15:13:21.421689 23855 net.cpp:150] Setting up rpn_dimred_relu/p5
I0102 15:13:21.421703 23855 net.cpp:157] Top shape: 1 128 17 63 (137088)
I0102 15:13:21.421707 23855 net.cpp:165] Memory required for data: 1277729228
I0102 15:13:21.421713 23855 layer_factory.hpp:77] Creating layer rpn_dimred_output/p5_rpn_dimred_relu/p5_0_split
I0102 15:13:21.421722 23855 net.cpp:106] Creating Layer rpn_dimred_output/p5_rpn_dimred_relu/p5_0_split
I0102 15:13:21.421728 23855 net.cpp:454] rpn_dimred_output/p5_rpn_dimred_relu/p5_0_split <- rpn_dimred_output/p5
I0102 15:13:21.421737 23855 net.cpp:411] rpn_dimred_output/p5_rpn_dimred_relu/p5_0_split -> rpn_dimred_output/p5_rpn_dimred_relu/p5_0_split_0
I0102 15:13:21.421748 23855 net.cpp:411] rpn_dimred_output/p5_rpn_dimred_relu/p5_0_split -> rpn_dimred_output/p5_rpn_dimred_relu/p5_0_split_1
I0102 15:13:21.421802 23855 net.cpp:150] Setting up rpn_dimred_output/p5_rpn_dimred_relu/p5_0_split
I0102 15:13:21.421809 23855 net.cpp:157] Top shape: 1 128 17 63 (137088)
I0102 15:13:21.421818 23855 net.cpp:157] Top shape: 1 128 17 63 (137088)
I0102 15:13:21.421823 23855 net.cpp:165] Memory required for data: 1278825932
I0102 15:13:21.421828 23855 layer_factory.hpp:77] Creating layer rpn_conv/5x5/p5
I0102 15:13:21.421840 23855 net.cpp:106] Creating Layer rpn_conv/5x5/p5
I0102 15:13:21.421846 23855 net.cpp:454] rpn_conv/5x5/p5 <- rpn_dimred_output/p5_rpn_dimred_relu/p5_0_split_0
I0102 15:13:21.421855 23855 net.cpp:411] rpn_conv/5x5/p5 -> rpn_conv/5x5_output/p5
I0102 15:13:21.424649 23855 net.cpp:150] Setting up rpn_conv/5x5/p5
I0102 15:13:21.424664 23855 net.cpp:157] Top shape: 1 128 17 63 (137088)
I0102 15:13:21.424669 23855 net.cpp:165] Memory required for data: 1279374284
I0102 15:13:21.424679 23855 layer_factory.hpp:77] Creating layer rpn_conv/7x7-1/p5
I0102 15:13:21.424692 23855 net.cpp:106] Creating Layer rpn_conv/7x7-1/p5
I0102 15:13:21.424698 23855 net.cpp:454] rpn_conv/7x7-1/p5 <- rpn_dimred_output/p5_rpn_dimred_relu/p5_0_split_1
I0102 15:13:21.424710 23855 net.cpp:411] rpn_conv/7x7-1/p5 -> rpn_conv/7x7-1_out/p5
I0102 15:13:21.428053 23855 net.cpp:150] Setting up rpn_conv/7x7-1/p5
I0102 15:13:21.428078 23855 net.cpp:157] Top shape: 1 128 17 63 (137088)
I0102 15:13:21.428083 23855 net.cpp:165] Memory required for data: 1279922636
I0102 15:13:21.428097 23855 layer_factory.hpp:77] Creating layer rpn_relu/7x7-1/p5
I0102 15:13:21.428109 23855 net.cpp:106] Creating Layer rpn_relu/7x7-1/p5
I0102 15:13:21.428117 23855 net.cpp:454] rpn_relu/7x7-1/p5 <- rpn_conv/7x7-1_out/p5
I0102 15:13:21.428124 23855 net.cpp:397] rpn_relu/7x7-1/p5 -> rpn_conv/7x7-1_out/p5 (in-place)
I0102 15:13:21.428850 23855 net.cpp:150] Setting up rpn_relu/7x7-1/p5
I0102 15:13:21.428874 23855 net.cpp:157] Top shape: 1 128 17 63 (137088)
I0102 15:13:21.428879 23855 net.cpp:165] Memory required for data: 1280470988
I0102 15:13:21.428884 23855 layer_factory.hpp:77] Creating layer rpn_conv/7x7/p5
I0102 15:13:21.428903 23855 net.cpp:106] Creating Layer rpn_conv/7x7/p5
I0102 15:13:21.428910 23855 net.cpp:454] rpn_conv/7x7/p5 <- rpn_conv/7x7-1_out/p5
I0102 15:13:21.428938 23855 net.cpp:411] rpn_conv/7x7/p5 -> rpn_conv/7x7_output/p5
I0102 15:13:21.433393 23855 net.cpp:150] Setting up rpn_conv/7x7/p5
I0102 15:13:21.433418 23855 net.cpp:157] Top shape: 1 128 17 63 (137088)
I0102 15:13:21.433421 23855 net.cpp:165] Memory required for data: 1281019340
I0102 15:13:21.433435 23855 layer_factory.hpp:77] Creating layer rpn_conv/357/p5
I0102 15:13:21.433446 23855 net.cpp:106] Creating Layer rpn_conv/357/p5
I0102 15:13:21.433454 23855 net.cpp:454] rpn_conv/357/p5 <- rpn_conv/3x3_output/p5
I0102 15:13:21.433462 23855 net.cpp:454] rpn_conv/357/p5 <- rpn_conv/5x5_output/p5
I0102 15:13:21.433470 23855 net.cpp:454] rpn_conv/357/p5 <- rpn_conv/7x7_output/p5
I0102 15:13:21.433480 23855 net.cpp:411] rpn_conv/357/p5 -> rpn_conv/357_output/p5
I0102 15:13:21.433523 23855 net.cpp:150] Setting up rpn_conv/357/p5
I0102 15:13:21.433531 23855 net.cpp:157] Top shape: 1 512 17 63 (548352)
I0102 15:13:21.433537 23855 net.cpp:165] Memory required for data: 1283212748
I0102 15:13:21.433540 23855 layer_factory.hpp:77] Creating layer rpn_relu/357/p5
I0102 15:13:21.433553 23855 net.cpp:106] Creating Layer rpn_relu/357/p5
I0102 15:13:21.433558 23855 net.cpp:454] rpn_relu/357/p5 <- rpn_conv/357_output/p5
I0102 15:13:21.433565 23855 net.cpp:397] rpn_relu/357/p5 -> rpn_conv/357_output/p5 (in-place)
I0102 15:13:21.433755 23855 net.cpp:150] Setting up rpn_relu/357/p5
I0102 15:13:21.433765 23855 net.cpp:157] Top shape: 1 512 17 63 (548352)
I0102 15:13:21.433770 23855 net.cpp:165] Memory required for data: 1285406156
I0102 15:13:21.433775 23855 layer_factory.hpp:77] Creating layer rpn_conv/357_output/p5_rpn_relu/357/p5_0_split
I0102 15:13:21.433789 23855 net.cpp:106] Creating Layer rpn_conv/357_output/p5_rpn_relu/357/p5_0_split
I0102 15:13:21.433794 23855 net.cpp:454] rpn_conv/357_output/p5_rpn_relu/357/p5_0_split <- rpn_conv/357_output/p5
I0102 15:13:21.433805 23855 net.cpp:411] rpn_conv/357_output/p5_rpn_relu/357/p5_0_split -> rpn_conv/357_output/p5_rpn_relu/357/p5_0_split_0
I0102 15:13:21.433815 23855 net.cpp:411] rpn_conv/357_output/p5_rpn_relu/357/p5_0_split -> rpn_conv/357_output/p5_rpn_relu/357/p5_0_split_1
I0102 15:13:21.433869 23855 net.cpp:150] Setting up rpn_conv/357_output/p5_rpn_relu/357/p5_0_split
I0102 15:13:21.433877 23855 net.cpp:157] Top shape: 1 512 17 63 (548352)
I0102 15:13:21.433884 23855 net.cpp:157] Top shape: 1 512 17 63 (548352)
I0102 15:13:21.433889 23855 net.cpp:165] Memory required for data: 1289792972
I0102 15:13:21.433893 23855 layer_factory.hpp:77] Creating layer rpn_cls_score/p5
I0102 15:13:21.433907 23855 net.cpp:106] Creating Layer rpn_cls_score/p5
I0102 15:13:21.433912 23855 net.cpp:454] rpn_cls_score/p5 <- rpn_conv/357_output/p5_rpn_relu/357/p5_0_split_0
I0102 15:13:21.433923 23855 net.cpp:411] rpn_cls_score/p5 -> rpn_cls_score/p5
I0102 15:13:21.435201 23855 net.cpp:150] Setting up rpn_cls_score/p5
I0102 15:13:21.435214 23855 net.cpp:157] Top shape: 1 12 17 63 (12852)
I0102 15:13:21.435220 23855 net.cpp:165] Memory required for data: 1289844380
I0102 15:13:21.435228 23855 layer_factory.hpp:77] Creating layer rpn_cls_score/p5_rpn_cls_score/p5_0_split
I0102 15:13:21.435238 23855 net.cpp:106] Creating Layer rpn_cls_score/p5_rpn_cls_score/p5_0_split
I0102 15:13:21.435245 23855 net.cpp:454] rpn_cls_score/p5_rpn_cls_score/p5_0_split <- rpn_cls_score/p5
I0102 15:13:21.435254 23855 net.cpp:411] rpn_cls_score/p5_rpn_cls_score/p5_0_split -> rpn_cls_score/p5_rpn_cls_score/p5_0_split_0
I0102 15:13:21.435266 23855 net.cpp:411] rpn_cls_score/p5_rpn_cls_score/p5_0_split -> rpn_cls_score/p5_rpn_cls_score/p5_0_split_1
I0102 15:13:21.435310 23855 net.cpp:150] Setting up rpn_cls_score/p5_rpn_cls_score/p5_0_split
I0102 15:13:21.435320 23855 net.cpp:157] Top shape: 1 12 17 63 (12852)
I0102 15:13:21.435328 23855 net.cpp:157] Top shape: 1 12 17 63 (12852)
I0102 15:13:21.435333 23855 net.cpp:165] Memory required for data: 1289947196
I0102 15:13:21.435338 23855 layer_factory.hpp:77] Creating layer rpn_bbox_pred/p5
I0102 15:13:21.435351 23855 net.cpp:106] Creating Layer rpn_bbox_pred/p5
I0102 15:13:21.435358 23855 net.cpp:454] rpn_bbox_pred/p5 <- rpn_conv/357_output/p5_rpn_relu/357/p5_0_split_1
I0102 15:13:21.435369 23855 net.cpp:411] rpn_bbox_pred/p5 -> rpn_bbox_pred/p5
I0102 15:13:21.436604 23855 net.cpp:150] Setting up rpn_bbox_pred/p5
I0102 15:13:21.436616 23855 net.cpp:157] Top shape: 1 24 17 63 (25704)
I0102 15:13:21.436621 23855 net.cpp:165] Memory required for data: 1290050012
I0102 15:13:21.436630 23855 layer_factory.hpp:77] Creating layer rpn_bbox_pred/p5_rpn_bbox_pred/p5_0_split
I0102 15:13:21.436640 23855 net.cpp:106] Creating Layer rpn_bbox_pred/p5_rpn_bbox_pred/p5_0_split
I0102 15:13:21.436645 23855 net.cpp:454] rpn_bbox_pred/p5_rpn_bbox_pred/p5_0_split <- rpn_bbox_pred/p5
I0102 15:13:21.436656 23855 net.cpp:411] rpn_bbox_pred/p5_rpn_bbox_pred/p5_0_split -> rpn_bbox_pred/p5_rpn_bbox_pred/p5_0_split_0
I0102 15:13:21.436667 23855 net.cpp:411] rpn_bbox_pred/p5_rpn_bbox_pred/p5_0_split -> rpn_bbox_pred/p5_rpn_bbox_pred/p5_0_split_1
I0102 15:13:21.436713 23855 net.cpp:150] Setting up rpn_bbox_pred/p5_rpn_bbox_pred/p5_0_split
I0102 15:13:21.436722 23855 net.cpp:157] Top shape: 1 24 17 63 (25704)
I0102 15:13:21.436728 23855 net.cpp:157] Top shape: 1 24 17 63 (25704)
I0102 15:13:21.436733 23855 net.cpp:165] Memory required for data: 1290255644
I0102 15:13:21.436738 23855 layer_factory.hpp:77] Creating layer rpn_cls_score_reshape/p5
I0102 15:13:21.436746 23855 net.cpp:106] Creating Layer rpn_cls_score_reshape/p5
I0102 15:13:21.436751 23855 net.cpp:454] rpn_cls_score_reshape/p5 <- rpn_cls_score/p5_rpn_cls_score/p5_0_split_0
I0102 15:13:21.436761 23855 net.cpp:411] rpn_cls_score_reshape/p5 -> rpn_cls_score_reshape/p5
I0102 15:13:21.436792 23855 net.cpp:150] Setting up rpn_cls_score_reshape/p5
I0102 15:13:21.436800 23855 net.cpp:157] Top shape: 1 2 102 63 (12852)
I0102 15:13:21.436805 23855 net.cpp:165] Memory required for data: 1290307052
I0102 15:13:21.436808 23855 layer_factory.hpp:77] Creating layer rpn_cls_score_reshape/p5_rpn_cls_score_reshape/p5_0_split
I0102 15:13:21.436815 23855 net.cpp:106] Creating Layer rpn_cls_score_reshape/p5_rpn_cls_score_reshape/p5_0_split
I0102 15:13:21.436820 23855 net.cpp:454] rpn_cls_score_reshape/p5_rpn_cls_score_reshape/p5_0_split <- rpn_cls_score_reshape/p5
I0102 15:13:21.436830 23855 net.cpp:411] rpn_cls_score_reshape/p5_rpn_cls_score_reshape/p5_0_split -> rpn_cls_score_reshape/p5_rpn_cls_score_reshape/p5_0_split_0
I0102 15:13:21.436838 23855 net.cpp:411] rpn_cls_score_reshape/p5_rpn_cls_score_reshape/p5_0_split -> rpn_cls_score_reshape/p5_rpn_cls_score_reshape/p5_0_split_1
I0102 15:13:21.436887 23855 net.cpp:150] Setting up rpn_cls_score_reshape/p5_rpn_cls_score_reshape/p5_0_split
I0102 15:13:21.436895 23855 net.cpp:157] Top shape: 1 2 102 63 (12852)
I0102 15:13:21.436902 23855 net.cpp:157] Top shape: 1 2 102 63 (12852)
I0102 15:13:21.436906 23855 net.cpp:165] Memory required for data: 1290409868
I0102 15:13:21.436910 23855 layer_factory.hpp:77] Creating layer rpn-data/p5
I0102 15:13:21.436960 23855 net.cpp:106] Creating Layer rpn-data/p5
I0102 15:13:21.436977 23855 net.cpp:454] rpn-data/p5 <- rpn_cls_score/p5_rpn_cls_score/p5_0_split_1
I0102 15:13:21.436985 23855 net.cpp:454] rpn-data/p5 <- gt_boxes_input-data_2_split_2
I0102 15:13:21.436991 23855 net.cpp:454] rpn-data/p5 <- im_info_input-data_1_split_4
I0102 15:13:21.436998 23855 net.cpp:454] rpn-data/p5 <- data_input-data_0_split_3
I0102 15:13:21.437008 23855 net.cpp:411] rpn-data/p5 -> rpn_labels/p5
I0102 15:13:21.437019 23855 net.cpp:411] rpn-data/p5 -> rpn_bbox_targets/p5
I0102 15:13:21.437029 23855 net.cpp:411] rpn-data/p5 -> rpn_bbox_inside_weights/p5
I0102 15:13:21.437039 23855 net.cpp:411] rpn-data/p5 -> rpn_bbox_outside_weights/p5
I0102 15:13:21.438181 23855 net.cpp:150] Setting up rpn-data/p5
I0102 15:13:21.438194 23855 net.cpp:157] Top shape: 1 1 102 63 (6426)
I0102 15:13:21.438200 23855 net.cpp:157] Top shape: 1 24 17 63 (25704)
I0102 15:13:21.438206 23855 net.cpp:157] Top shape: 1 24 17 63 (25704)
I0102 15:13:21.438212 23855 net.cpp:157] Top shape: 1 24 17 63 (25704)
I0102 15:13:21.438216 23855 net.cpp:165] Memory required for data: 1290744020
I0102 15:13:21.438220 23855 layer_factory.hpp:77] Creating layer rpn_loss_cls/p5
I0102 15:13:21.438230 23855 net.cpp:106] Creating Layer rpn_loss_cls/p5
I0102 15:13:21.438236 23855 net.cpp:454] rpn_loss_cls/p5 <- rpn_cls_score_reshape/p5_rpn_cls_score_reshape/p5_0_split_0
I0102 15:13:21.438243 23855 net.cpp:454] rpn_loss_cls/p5 <- rpn_labels/p5
…
I0102 15:13:21.438835 23855 net.cpp:160]     with loss weight 1
I0102 15:13:21.438843 23855 net.cpp:165] Memory required for data: 1290744028
I0102 15:13:21.438846 23855 layer_factory.hpp:77] Creating layer rpn_cls_prob/p5
I0102 15:13:21.438854 23855 net.cpp:106] Creating Layer rpn_cls_prob/p5
I0102 15:13:21.438860 23855 net.cpp:454] rpn_cls_prob/p5 <- rpn_cls_score_reshape/p5_rpn_cls_score_reshape/p5_0_split_1
I0102 15:13:21.438868 23855 net.cpp:411] rpn_cls_prob/p5 -> rpn_cls_prob/p5
I0102 15:13:21.439103 23855 net.cpp:150] Setting up rpn_cls_prob/p5
I0102 15:13:21.439115 23855 net.cpp:157] Top shape: 1 2 102 63 (12852)
I0102 15:13:21.439118 23855 net.cpp:165] Memory required for data: 1290795436
I0102 15:13:21.439123 23855 layer_factory.hpp:77] Creating layer rpn_cls_prob_reshape/p5
I0102 15:13:21.439131 23855 net.cpp:106] Creating Layer rpn_cls_prob_reshape/p5
I0102 15:13:21.439136 23855 net.cpp:454] rpn_cls_prob_reshape/p5 <- rpn_cls_prob/p5
I0102 15:13:21.439143 23855 net.cpp:411] rpn_cls_prob_reshape/p5 -> rpn_cls_prob_reshape/p5
I0102 15:13:21.439173 23855 net.cpp:150] Setting up rpn_cls_prob_reshape/p5
I0102 15:13:21.439180 23855 net.cpp:157] Top shape: 1 12 17 63 (12852)
I0102 15:13:21.439184 23855 net.cpp:165] Memory required for data: 1290846844
I0102 15:13:21.439188 23855 layer_factory.hpp:77] Creating layer proposal/p5
I0102 15:13:21.439218 23855 net.cpp:106] Creating Layer proposal/p5
I0102 15:13:21.439224 23855 net.cpp:454] proposal/p5 <- rpn_cls_prob_reshape/p5
I0102 15:13:21.439229 23855 net.cpp:454] proposal/p5 <- rpn_bbox_pred/p5_rpn_bbox_pred/p5_0_split_1
I0102 15:13:21.439236 23855 net.cpp:454] proposal/p5 <- im_info_input-data_1_split_5
I0102 15:13:21.439245 23855 net.cpp:411] proposal/p5 -> rpn_rois/p5
I0102 15:13:21.440155 23855 net.cpp:150] Setting up proposal/p5
I0102 15:13:21.440167 23855 net.cpp:157] Top shape: 1 5 (5)
I0102 15:13:21.440171 23855 net.cpp:165] Memory required for data: 1290846864
I0102 15:13:21.440176 23855 layer_factory.hpp:77] Creating layer roi-data
I0102 15:13:21.456887 23855 net.cpp:106] Creating Layer roi-data
I0102 15:13:21.456900 23855 net.cpp:454] roi-data <- rpn_rois/p3
I0102 15:13:21.456907 23855 net.cpp:454] roi-data <- rpn_rois/p4
I0102 15:13:21.456913 23855 net.cpp:454] roi-data <- rpn_rois/p5
I0102 15:13:21.456921 23855 net.cpp:454] roi-data <- gt_boxes_input-data_2_split_3
I0102 15:13:21.456933 23855 net.cpp:411] roi-data -> rois/p3
I0102 15:13:21.456944 23855 net.cpp:411] roi-data -> rois/p4
I0102 15:13:21.456954 23855 net.cpp:411] roi-data -> rois/p5
I0102 15:13:21.456974 23855 net.cpp:411] roi-data -> labels
I0102 15:13:21.456985 23855 net.cpp:411] roi-data -> bbox_targets
I0102 15:13:21.456995 23855 net.cpp:411] roi-data -> bbox_inside_weights
I0102 15:13:21.457005 23855 net.cpp:411] roi-data -> bbox_outside_weights
I0102 15:13:21.457435 23855 net.cpp:150] Setting up roi-data
I0102 15:13:21.457448 23855 net.cpp:157] Top shape: 1 5 (5)
I0102 15:13:21.457453 23855 net.cpp:157] Top shape: 1 5 (5)
I0102 15:13:21.457458 23855 net.cpp:157] Top shape: 1 5 (5)
I0102 15:13:21.457463 23855 net.cpp:157] Top shape: 1 1 (1)
I0102 15:13:21.457469 23855 net.cpp:157] Top shape: 1 16 (16)
I0102 15:13:21.457475 23855 net.cpp:157] Top shape: 1 16 (16)
I0102 15:13:21.457480 23855 net.cpp:157] Top shape: 1 16 (16)
I0102 15:13:21.457485 23855 net.cpp:165] Memory required for data: 1290847120
I0102 15:13:21.457491 23855 layer_factory.hpp:77] Creating layer rois/p3_roi-data_0_split
I0102 15:13:21.457533 23855 net.cpp:106] Creating Layer rois/p3_roi-data_0_split
I0102 15:13:21.457540 23855 net.cpp:454] rois/p3_roi-data_0_split <- rois/p3
I0102 15:13:21.457547 23855 net.cpp:411] rois/p3_roi-data_0_split -> rois/p3_roi-data_0_split_0
I0102 15:13:21.457557 23855 net.cpp:411] rois/p3_roi-data_0_split -> rois/p3_roi-data_0_split_1
I0102 15:13:21.457600 23855 net.cpp:150] Setting up rois/p3_roi-data_0_split
I0102 15:13:21.457607 23855 net.cpp:157] Top shape: 1 5 (5)
I0102 15:13:21.457613 23855 net.cpp:157] Top shape: 1 5 (5)
I0102 15:13:21.457617 23855 net.cpp:165] Memory required for data: 1290847160
I0102 15:13:21.457623 23855 layer_factory.hpp:77] Creating layer rois/p4_roi-data_1_split
I0102 15:13:21.457630 23855 net.cpp:106] Creating Layer rois/p4_roi-data_1_split
I0102 15:13:21.457635 23855 net.cpp:454] rois/p4_roi-data_1_split <- rois/p4
I0102 15:13:21.457643 23855 net.cpp:411] rois/p4_roi-data_1_split -> rois/p4_roi-data_1_split_0
I0102 15:13:21.457653 23855 net.cpp:411] rois/p4_roi-data_1_split -> rois/p4_roi-data_1_split_1
I0102 15:13:21.457695 23855 net.cpp:150] Setting up rois/p4_roi-data_1_split
I0102 15:13:21.457701 23855 net.cpp:157] Top shape: 1 5 (5)
I0102 15:13:21.457706 23855 net.cpp:157] Top shape: 1 5 (5)
I0102 15:13:21.457711 23855 net.cpp:165] Memory required for data: 1290847200
I0102 15:13:21.457716 23855 layer_factory.hpp:77] Creating layer rois/p5_roi-data_2_split
I0102 15:13:21.457722 23855 net.cpp:106] Creating Layer rois/p5_roi-data_2_split
I0102 15:13:21.457727 23855 net.cpp:454] rois/p5_roi-data_2_split <- rois/p5
I0102 15:13:21.457734 23855 net.cpp:411] rois/p5_roi-data_2_split -> rois/p5_roi-data_2_split_0
I0102 15:13:21.457743 23855 net.cpp:411] rois/p5_roi-data_2_split -> rois/p5_roi-data_2_split_1
I0102 15:13:21.457784 23855 net.cpp:150] Setting up rois/p5_roi-data_2_split
I0102 15:13:21.457792 23855 net.cpp:157] Top shape: 1 5 (5)
I0102 15:13:21.457799 23855 net.cpp:157] Top shape: 1 5 (5)
I0102 15:13:21.457803 23855 net.cpp:165] Memory required for data: 1290847240
I0102 15:13:21.457808 23855 layer_factory.hpp:77] Creating layer roi_pool_org/p5
I0102 15:13:21.457815 23855 net.cpp:106] Creating Layer roi_pool_org/p5
I0102 15:13:21.457821 23855 net.cpp:454] roi_pool_org/p5 <- conv5_256_conv5_256_relu_0_split_3
I0102 15:13:21.457828 23855 net.cpp:454] roi_pool_org/p5 <- rois/p5_roi-data_2_split_0
I0102 15:13:21.457834 23855 net.cpp:411] roi_pool_org/p5 -> roi_pool_org/p5
I0102 15:13:21.457846 23855 roi_pooling_layer.cpp:31] Spatial scale: 0.0625
I0102 15:13:21.457895 23855 net.cpp:150] Setting up roi_pool_org/p5
I0102 15:13:21.457903 23855 net.cpp:157] Top shape: 1 256 7 7 (12544)
I0102 15:13:21.457907 23855 net.cpp:165] Memory required for data: 1290897416
I0102 15:13:21.457911 23855 layer_factory.hpp:77] Creating layer roi_pool_ctx/p5
I0102 15:13:21.457919 23855 net.cpp:106] Creating Layer roi_pool_ctx/p5
I0102 15:13:21.457926 23855 net.cpp:454] roi_pool_ctx/p5 <- conv5_256_conv5_256_relu_0_split_4
I0102 15:13:21.457934 23855 net.cpp:454] roi_pool_ctx/p5 <- rois/p5_roi-data_2_split_1
I0102 15:13:21.457942 23855 net.cpp:411] roi_pool_ctx/p5 -> roi_pool_ctx/p5
I0102 15:13:21.457949 23855 roi_pooling_layer.cpp:31] Spatial scale: 0.0625
I0102 15:13:21.457990 23855 net.cpp:150] Setting up roi_pool_ctx/p5
I0102 15:13:21.457998 23855 net.cpp:157] Top shape: 1 256 7 7 (12544)
I0102 15:13:21.458003 23855 net.cpp:165] Memory required for data: 1290947592
I0102 15:13:21.458006 23855 layer_factory.hpp:77] Creating layer roi_pool/p5
I0102 15:13:21.458015 23855 net.cpp:106] Creating Layer roi_pool/p5
I0102 15:13:21.458021 23855 net.cpp:454] roi_pool/p5 <- roi_pool_org/p5
I0102 15:13:21.458027 23855 net.cpp:454] roi_pool/p5 <- roi_pool_ctx/p5
I0102 15:13:21.458034 23855 net.cpp:411] roi_pool/p5 -> roi_pool/p5
I0102 15:13:21.458062 23855 net.cpp:150] Setting up roi_pool/p5
I0102 15:13:21.458070 23855 net.cpp:157] Top shape: 1 512 7 7 (25088)
I0102 15:13:21.458075 23855 net.cpp:165] Memory required for data: 1291047944
I0102 15:13:21.458078 23855 layer_factory.hpp:77] Creating layer roi_conv/p5
I0102 15:13:21.458091 23855 net.cpp:106] Creating Layer roi_conv/p5
I0102 15:13:21.458096 23855 net.cpp:454] roi_conv/p5 <- roi_pool/p5
I0102 15:13:21.458103 23855 net.cpp:411] roi_conv/p5 -> roi_conv/p5
I0102 15:13:21.465204 23855 net.cpp:150] Setting up roi_conv/p5
I0102 15:13:21.465229 23855 net.cpp:157] Top shape: 1 512 7 7 (25088)
I0102 15:13:21.465234 23855 net.cpp:165] Memory required for data: 1291148296
I0102 15:13:21.465247 23855 layer_factory.hpp:77] Creating layer roi_conv_relu/p5
I0102 15:13:21.465260 23855 net.cpp:106] Creating Layer roi_conv_relu/p5
I0102 15:13:21.465267 23855 net.cpp:454] roi_conv_relu/p5 <- roi_conv/p5
I0102 15:13:21.465277 23855 net.cpp:397] roi_conv_relu/p5 -> roi_conv/p5 (in-place)
I0102 15:13:21.465484 23855 net.cpp:150] Setting up roi_conv_relu/p5
I0102 15:13:21.465497 23855 net.cpp:157] Top shape: 1 512 7 7 (25088)
I0102 15:13:21.465500 23855 net.cpp:165] Memory required for data: 1291248648
I0102 15:13:21.465505 23855 layer_factory.hpp:77] Creating layer roi_pool_org/p4
I0102 15:13:21.465513 23855 net.cpp:106] Creating Layer roi_pool_org/p4
I0102 15:13:21.465523 23855 net.cpp:454] roi_pool_org/p4 <- conv4_fuse_final_conv4_fuse_final_relu_0_split_2
I0102 15:13:21.465530 23855 net.cpp:454] roi_pool_org/p4 <- rois/p4_roi-data_1_split_0
I0102 15:13:21.465538 23855 net.cpp:411] roi_pool_org/p4 -> roi_pool_org/p4
I0102 15:13:21.465549 23855 roi_pooling_layer.cpp:31] Spatial scale: 0.125
I0102 15:13:21.465610 23855 net.cpp:150] Setting up roi_pool_org/p4
I0102 15:13:21.465618 23855 net.cpp:157] Top shape: 1 256 7 7 (12544)
I0102 15:13:21.465623 23855 net.cpp:165] Memory required for data: 1291298824
I0102 15:13:21.465628 23855 layer_factory.hpp:77] Creating layer roi_pool_ctx/p4
I0102 15:13:21.465634 23855 net.cpp:106] Creating Layer roi_pool_ctx/p4
I0102 15:13:21.465639 23855 net.cpp:454] roi_pool_ctx/p4 <- conv4_fuse_final_conv4_fuse_final_relu_0_split_3
I0102 15:13:21.465646 23855 net.cpp:454] roi_pool_ctx/p4 <- rois/p4_roi-data_1_split_1
I0102 15:13:21.465653 23855 net.cpp:411] roi_pool_ctx/p4 -> roi_pool_ctx/p4
I0102 15:13:21.465668 23855 roi_pooling_layer.cpp:31] Spatial scale: 0.125
I0102 15:13:21.465713 23855 net.cpp:150] Setting up roi_pool_ctx/p4
I0102 15:13:21.465720 23855 net.cpp:157] Top shape: 1 256 7 7 (12544)
I0102 15:13:21.465724 23855 net.cpp:165] Memory required for data: 1291349000
I0102 15:13:21.465728 23855 layer_factory.hpp:77] Creating layer roi_pool/p4
I0102 15:13:21.465736 23855 net.cpp:106] Creating Layer roi_pool/p4
I0102 15:13:21.465741 23855 net.cpp:454] roi_pool/p4 <- roi_pool_org/p4
I0102 15:13:21.465749 23855 net.cpp:454] roi_pool/p4 <- roi_pool_ctx/p4
I0102 15:13:21.465756 23855 net.cpp:411] roi_pool/p4 -> roi_pool/p4
I0102 15:13:21.465786 23855 net.cpp:150] Setting up roi_pool/p4
I0102 15:13:21.465793 23855 net.cpp:157] Top shape: 1 512 7 7 (25088)
I0102 15:13:21.465798 23855 net.cpp:165] Memory required for data: 1291449352
I0102 15:13:21.465802 23855 layer_factory.hpp:77] Creating layer roi_conv/p4
I0102 15:13:21.465816 23855 net.cpp:106] Creating Layer roi_conv/p4
I0102 15:13:21.465819 23855 net.cpp:454] roi_conv/p4 <- roi_pool/p4
I0102 15:13:21.465831 23855 net.cpp:411] roi_conv/p4 -> roi_conv/p4
I0102 15:13:21.469388 23855 net.cpp:150] Setting up roi_conv/p4
I0102 15:13:21.469403 23855 net.cpp:157] Top shape: 1 512 7 7 (25088)
I0102 15:13:21.469408 23855 net.cpp:165] Memory required for data: 1291549704
I0102 15:13:21.469418 23855 layer_factory.hpp:77] Creating layer roi_conv_relu/p4
I0102 15:13:21.469424 23855 net.cpp:106] Creating Layer roi_conv_relu/p4
I0102 15:13:21.469431 23855 net.cpp:454] roi_conv_relu/p4 <- roi_conv/p4
I0102 15:13:21.469439 23855 net.cpp:397] roi_conv_relu/p4 -> roi_conv/p4 (in-place)
I0102 15:13:21.469954 23855 net.cpp:150] Setting up roi_conv_relu/p4
I0102 15:13:21.469966 23855 net.cpp:157] Top shape: 1 512 7 7 (25088)
I0102 15:13:21.469971 23855 net.cpp:165] Memory required for data: 1291650056
I0102 15:13:21.469976 23855 layer_factory.hpp:77] Creating layer roi_pool_org/p3
I0102 15:13:21.469985 23855 net.cpp:106] Creating Layer roi_pool_org/p3
I0102 15:13:21.469991 23855 net.cpp:454] roi_pool_org/p3 <- conv3_fuse_final_conv3_fuse_final_relu_0_split_2
I0102 15:13:21.469998 23855 net.cpp:454] roi_pool_org/p3 <- rois/p3_roi-data_0_split_0
I0102 15:13:21.470008 23855 net.cpp:411] roi_pool_org/p3 -> roi_pool_org/p3
I0102 15:13:21.470018 23855 roi_pooling_layer.cpp:31] Spatial scale: 0.25
I0102 15:13:21.470072 23855 net.cpp:150] Setting up roi_pool_org/p3
I0102 15:13:21.470078 23855 net.cpp:157] Top shape: 1 256 7 7 (12544)
I0102 15:13:21.470082 23855 net.cpp:165] Memory required for data: 1291700232
I0102 15:13:21.470088 23855 layer_factory.hpp:77] Creating layer roi_pool_ctx/p3
I0102 15:13:21.470094 23855 net.cpp:106] Creating Layer roi_pool_ctx/p3
I0102 15:13:21.470100 23855 net.cpp:454] roi_pool_ctx/p3 <- conv4_fuse_final_conv4_fuse_final_relu_0_split_4
I0102 15:13:21.470106 23855 net.cpp:454] roi_pool_ctx/p3 <- rois/p3_roi-data_0_split_1
I0102 15:13:21.470114 23855 net.cpp:411] roi_pool_ctx/p3 -> roi_pool_ctx/p3
I0102 15:13:21.470122 23855 roi_pooling_layer.cpp:31] Spatial scale: 0.25
I0102 15:13:21.470166 23855 net.cpp:150] Setting up roi_pool_ctx/p3
I0102 15:13:21.470173 23855 net.cpp:157] Top shape: 1 256 7 7 (12544)
I0102 15:13:21.470177 23855 net.cpp:165] Memory required for data: 1291750408
I0102 15:13:21.470182 23855 layer_factory.hpp:77] Creating layer roi_pool/p3
I0102 15:13:21.470188 23855 net.cpp:106] Creating Layer roi_pool/p3
I0102 15:13:21.470194 23855 net.cpp:454] roi_pool/p3 <- roi_pool_org/p3
I0102 15:13:21.470201 23855 net.cpp:454] roi_pool/p3 <- roi_pool_ctx/p3
I0102 15:13:21.470209 23855 net.cpp:411] roi_pool/p3 -> roi_pool/p3
I0102 15:13:21.470237 23855 net.cpp:150] Setting up roi_pool/p3
I0102 15:13:21.470245 23855 net.cpp:157] Top shape: 1 512 7 7 (25088)
I0102 15:13:21.470250 23855 net.cpp:165] Memory required for data: 1291850760
I0102 15:13:21.470254 23855 layer_factory.hpp:77] Creating layer roi_conv/p3
I0102 15:13:21.470265 23855 net.cpp:106] Creating Layer roi_conv/p3
I0102 15:13:21.470269 23855 net.cpp:454] roi_conv/p3 <- roi_pool/p3
I0102 15:13:21.470278 23855 net.cpp:411] roi_conv/p3 -> roi_conv/p3
I0102 15:13:21.473845 23855 net.cpp:150] Setting up roi_conv/p3
I0102 15:13:21.473860 23855 net.cpp:157] Top shape: 1 512 7 7 (25088)
I0102 15:13:21.473865 23855 net.cpp:165] Memory required for data: 1291951112
I0102 15:13:21.473873 23855 layer_factory.hpp:77] Creating layer roi_conv_relu/p3
I0102 15:13:21.473881 23855 net.cpp:106] Creating Layer roi_conv_relu/p3
I0102 15:13:21.473887 23855 net.cpp:454] roi_conv_relu/p3 <- roi_conv/p3
I0102 15:13:21.473897 23855 net.cpp:397] roi_conv_relu/p3 -> roi_conv/p3 (in-place)
I0102 15:13:21.474406 23855 net.cpp:150] Setting up roi_conv_relu/p3
I0102 15:13:21.474417 23855 net.cpp:157] Top shape: 1 512 7 7 (25088)
I0102 15:13:21.474421 23855 net.cpp:165] Memory required for data: 1292051464
I0102 15:13:21.474426 23855 layer_factory.hpp:77] Creating layer all_pool
I0102 15:13:21.474434 23855 net.cpp:106] Creating Layer all_pool
I0102 15:13:21.474440 23855 net.cpp:454] all_pool <- roi_conv/p3
I0102 15:13:21.474445 23855 net.cpp:454] all_pool <- roi_conv/p4
I0102 15:13:21.474452 23855 net.cpp:454] all_pool <- roi_conv/p5
I0102 15:13:21.474459 23855 net.cpp:411] all_pool -> rcnn_pool
I0102 15:13:21.474496 23855 net.cpp:150] Setting up all_pool
I0102 15:13:21.474504 23855 net.cpp:157] Top shape: 3 512 7 7 (75264)
I0102 15:13:21.474509 23855 net.cpp:165] Memory required for data: 1292352520
I0102 15:13:21.474512 23855 layer_factory.hpp:77] Creating layer rcnn_fc6
I0102 15:13:21.474521 23855 net.cpp:106] Creating Layer rcnn_fc6
I0102 15:13:21.474526 23855 net.cpp:454] rcnn_fc6 <- rcnn_pool
I0102 15:13:21.474535 23855 net.cpp:411] rcnn_fc6 -> rcnn_fc6
I0102 15:13:22.212394 23855 net.cpp:150] Setting up rcnn_fc6
I0102 15:13:22.212427 23855 net.cpp:157] Top shape: 3 4096 (12288)
I0102 15:13:22.212431 23855 net.cpp:165] Memory required for data: 1292401672
I0102 15:13:22.212479 23855 layer_factory.hpp:77] Creating layer relu6
I0102 15:13:22.212493 23855 net.cpp:106] Creating Layer relu6
I0102 15:13:22.212512 23855 net.cpp:454] relu6 <- rcnn_fc6
I0102 15:13:22.212543 23855 net.cpp:397] relu6 -> rcnn_fc6 (in-place)
I0102 15:13:22.212811 23855 net.cpp:150] Setting up relu6
I0102 15:13:22.212821 23855 net.cpp:157] Top shape: 3 4096 (12288)
I0102 15:13:22.212823 23855 net.cpp:165] Memory required for data: 1292450824
I0102 15:13:22.212846 23855 layer_factory.hpp:77] Creating layer drop6
I0102 15:13:22.212854 23855 net.cpp:106] Creating Layer drop6
I0102 15:13:22.212880 23855 net.cpp:454] drop6 <- rcnn_fc6
I0102 15:13:22.212903 23855 net.cpp:397] drop6 -> rcnn_fc6 (in-place)
I0102 15:13:22.213009 23855 net.cpp:150] Setting up drop6
I0102 15:13:22.213016 23855 net.cpp:157] Top shape: 3 4096 (12288)
I0102 15:13:22.213019 23855 net.cpp:165] Memory required for data: 1292499976
I0102 15:13:22.213022 23855 layer_factory.hpp:77] Creating layer fc7
I0102 15:13:22.213044 23855 net.cpp:106] Creating Layer fc7
I0102 15:13:22.213066 23855 net.cpp:454] fc7 <- rcnn_fc6
I0102 15:13:22.213093 23855 net.cpp:411] fc7 -> fc7
I0102 15:13:22.307824 23855 net.cpp:150] Setting up fc7
I0102 15:13:22.307852 23855 net.cpp:157] Top shape: 3 4096 (12288)
I0102 15:13:22.307855 23855 net.cpp:165] Memory required for data: 1292549128
I0102 15:13:22.307871 23855 layer_factory.hpp:77] Creating layer relu7
I0102 15:13:22.307883 23855 net.cpp:106] Creating Layer relu7
I0102 15:13:22.307890 23855 net.cpp:454] relu7 <- fc7
I0102 15:13:22.307898 23855 net.cpp:397] relu7 -> fc7 (in-place)
I0102 15:13:22.308115 23855 net.cpp:150] Setting up relu7
I0102 15:13:22.308122 23855 net.cpp:157] Top shape: 3 4096 (12288)
I0102 15:13:22.308125 23855 net.cpp:165] Memory required for data: 1292598280
I0102 15:13:22.308130 23855 layer_factory.hpp:77] Creating layer drop7
I0102 15:13:22.308136 23855 net.cpp:106] Creating Layer drop7
I0102 15:13:22.308141 23855 net.cpp:454] drop7 <- fc7
I0102 15:13:22.308148 23855 net.cpp:397] drop7 -> fc7 (in-place)
I0102 15:13:22.308182 23855 net.cpp:150] Setting up drop7
I0102 15:13:22.308189 23855 net.cpp:157] Top shape: 3 4096 (12288)
I0102 15:13:22.308192 23855 net.cpp:165] Memory required for data: 1292647432
I0102 15:13:22.308195 23855 layer_factory.hpp:77] Creating layer fc7_drop7_0_split
I0102 15:13:22.308203 23855 net.cpp:106] Creating Layer fc7_drop7_0_split
I0102 15:13:22.308208 23855 net.cpp:454] fc7_drop7_0_split <- fc7
I0102 15:13:22.308215 23855 net.cpp:411] fc7_drop7_0_split -> fc7_drop7_0_split_0
I0102 15:13:22.308224 23855 net.cpp:411] fc7_drop7_0_split -> fc7_drop7_0_split_1
I0102 15:13:22.308266 23855 net.cpp:150] Setting up fc7_drop7_0_split
I0102 15:13:22.308274 23855 net.cpp:157] Top shape: 3 4096 (12288)
I0102 15:13:22.308277 23855 net.cpp:157] Top shape: 3 4096 (12288)
I0102 15:13:22.308281 23855 net.cpp:165] Memory required for data: 1292745736
I0102 15:13:22.308285 23855 layer_factory.hpp:77] Creating layer cls_score
I0102 15:13:22.308295 23855 net.cpp:106] Creating Layer cls_score
I0102 15:13:22.308300 23855 net.cpp:454] cls_score <- fc7_drop7_0_split_0
I0102 15:13:22.308307 23855 net.cpp:411] cls_score -> cls_score
I0102 15:13:22.308539 23855 net.cpp:150] Setting up cls_score
I0102 15:13:22.308547 23855 net.cpp:157] Top shape: 3 4 (12)
I0102 15:13:22.308549 23855 net.cpp:165] Memory required for data: 1292745784
I0102 15:13:22.308557 23855 layer_factory.hpp:77] Creating layer bbox_pred
I0102 15:13:22.308562 23855 net.cpp:106] Creating Layer bbox_pred
I0102 15:13:22.308567 23855 net.cpp:454] bbox_pred <- fc7_drop7_0_split_1
I0102 15:13:22.308574 23855 net.cpp:411] bbox_pred -> bbox_pred
I0102 15:13:22.309170 23855 net.cpp:150] Setting up bbox_pred
I0102 15:13:22.309177 23855 net.cpp:157] Top shape: 3 16 (48)
I0102 15:13:22.309181 23855 net.cpp:165] Memory required for data: 1292745976
I0102 15:13:22.309188 23855 layer_factory.hpp:77] Creating layer loss_cls
I0102 15:13:22.309195 23855 net.cpp:106] Creating Layer loss_cls
I0102 15:13:22.309201 23855 net.cpp:454] loss_cls <- cls_score
I0102 15:13:22.309206 23855 net.cpp:454] loss_cls <- labels
I0102 15:13:22.309211 23855 net.cpp:411] loss_cls -> loss_cls
…
