…
           'RPN_POST_NMS_TOP_N': 2000,
           'RPN_PRE_NMS_TOP_N': 12000,
           'SCALES': [400],
           'SNAPSHOT_INFIX': '',
           'SNAPSHOT_ITERS': 10000,
           'USE_FLIPPED': True,
           'USE_PREFETCH': False},
 'USE_GPU_NMS': True}
WARNING: Logging before InitGoogleLogging() is written to STDERR
I1213 10:09:55.915164 13516 net.cpp:49] Initializing net from parameters: 
name: "VGG_ILSVRC_16_layers"
input: "data"
input: "im_info"
state {
  phase: TEST
}
input_shape {
  dim: 1
  dim: 3
  dim: 224
  dim: 224
}
input_shape {
  dim: 1
  dim: 3
}
layer {
  name: "conv1_1"
  type: "Convolution"
  bottom: "data"
  top: "conv1_1"
  param {
    lr_mult: 0
    decay_mult: 0
  }
  param {
    lr_mult: 0
    decay_mult: 0
  }
  convolution_param {
    num_output: 64
    pad: 1
    kernel_size: 3
  }
}
layer {
  name: "relu1_1"
  type: "ReLU"
  bottom: "conv1_1"
  top: "conv1_1"
}
layer {
  name: "conv1_2"
  type: "Convolution"
  bottom: "conv1_1"
  top: "conv1_2"
  param {
    lr_mult: 0
    decay_mult: 0
  }
  param {
    lr_mult: 0
    decay_mult: 0
  }
  convolution_param {
    num_output: 64
    pad: 1
    kernel_size: 3
  }
}
layer {
  name: "relu1_2"
  type: "ReLU"
  bottom: "conv1_2"
  top: "conv1_2"
}
layer {
  name: "pool1"
  type: "Pooling"
  bottom: "conv1_2"
  top: "pool1"
  pooling_param {
    pool: MAX
    kernel_size: 2
    stride: 2
  }
}
layer {
  name: "conv2_1"
  type: "Convolution"
  bottom: "pool1"
  top: "conv2_1"
  param {
    lr_mult: 0
    decay_mult: 0
  }
  param {
    lr_mult: 0
    decay_mult: 0
  }
  convolution_param {
    num_output: 128
    pad: 1
    kernel_size: 3
  }
}
layer {
  name: "relu2_1"
  type: "ReLU"
  bottom: "conv2_1"
  top: "conv2_1"
}
layer {
  name: "conv2_2"
  type: "Convolution"
  bottom: "conv2_1"
  top: "conv2_2"
  param {
    lr_mult: 0
    decay_mult: 0
  }
  param {
    lr_mult: 0
    decay_mult: 0
  }
  convolution_param {
    num_output: 128
    pad: 1
    kernel_size: 3
  }
}
layer {
  name: "relu2_2"
  type: "ReLU"
  bottom: "conv2_2"
  top: "conv2_2"
}
layer {
  name: "pool2"
  type: "Pooling"
  bottom: "conv2_2"
  top: "pool2"
  pooling_param {
    pool: MAX
    kernel_size: 2
    stride: 2
  }
}
layer {
  name: "conv3_1"
  type: "Convolution"
  bottom: "pool2"
  top: "conv3_1"
  param {
    lr_mult: 1
  }
  param {
    lr_mult: 2
  }
  convolution_param {
    num_output: 256
    pad: 1
    kernel_size: 3
  }
}
layer {
  name: "relu3_1"
  type: "ReLU"
  bottom: "conv3_1"
  top: "conv3_1"
}
layer {
  name: "conv3_2"
  type: "Convolution"
  bottom: "conv3_1"
  top: "conv3_2"
  param {
    lr_mult: 1
  }
  param {
    lr_mult: 2
  }
  convolution_param {
    num_output: 256
    pad: 1
    kernel_size: 3
  }
}
layer {
  name: "relu3_2"
  type: "ReLU"
  bottom: "conv3_2"
  top: "conv3_2"
}
layer {
  name: "conv3_3"
  type: "Convolution"
  bottom: "conv3_2"
  top: "conv3_3"
  param {
    lr_mult: 1
  }
  param {
    lr_mult: 2
  }
  convolution_param {
    num_output: 256
    pad: 1
    kernel_size: 3
  }
}
layer {
  name: "relu3_3"
  type: "ReLU"
  bottom: "conv3_3"
  top: "conv3_3"
}
layer {
  name: "pool3"
  type: "Pooling"
  bottom: "conv3_3"
  top: "pool3"
  pooling_param {
    pool: MAX
    kernel_size: 2
    stride: 2
  }
}
layer {
  name: "conv4_1"
  type: "Convolution"
  bottom: "pool3"
  top: "conv4_1"
  param {
    lr_mult: 1
  }
  param {
    lr_mult: 2
  }
  convolution_param {
    num_output: 512
    pad: 1
    kernel_size: 3
  }
}
layer {
  name: "relu4_1"
  type: "ReLU"
  bottom: "conv4_1"
  top: "conv4_1"
}
layer {
  name: "conv4_2"
  type: "Convolution"
  bottom: "conv4_1"
  top: "conv4_2"
  param {
    lr_mult: 1
  }
  param {
    lr_mult: 2
  }
  convolution_param {
    num_output: 512
    pad: 1
    kernel_size: 3
  }
}
layer {
  name: "relu4_2"
  type: "ReLU"
  bottom: "conv4_2"
  top: "conv4_2"
}
layer {
  name: "conv4_3"
  type: "Convolution"
  bottom: "conv4_2"
  top: "conv4_3"
  param {
    lr_mult: 1
  }
  param {
    lr_mult: 2
  }
  convolution_param {
    num_output: 512
    pad: 1
    kernel_size: 3
  }
}
layer {
  name: "relu4_3"
  type: "ReLU"
  bottom: "conv4_3"
  top: "conv4_3"
}
layer {
  name: "pool4"
  type: "Pooling"
  bottom: "conv4_3"
  top: "pool4"
  pooling_param {
    pool: MAX
    kernel_size: 2
    stride: 2
  }
}
layer {
  name: "conv5_1"
  type: "Convolution"
  bottom: "pool4"
  top: "conv5_1"
  param {
    lr_mult: 1
  }
  param {
    lr_mult: 2
  }
  convolution_param {
    num_output: 512
    pad: 1
    kernel_size: 3
  }
}
layer {
  name: "relu5_1"
  type: "ReLU"
  bottom: "conv5_1"
  top: "conv5_1"
}
layer {
  name: "conv5_2"
  type: "Convolution"
  bottom: "conv5_1"
  top: "conv5_2"
  param {
    lr_mult: 1
  }
  param {
    lr_mult: 2
  }
  convolution_param {
    num_output: 512
    pad: 1
    kernel_size: 3
  }
}
layer {
  name: "relu5_2"
  type: "ReLU"
  bottom: "conv5_2"
  top: "conv5_2"
}
layer {
  name: "conv5_3"
  type: "Convolution"
  bottom: "conv5_2"
  top: "conv5_3"
  param {
    lr_mult: 1
  }
  param {
    lr_mult: 2
  }
  convolution_param {
    num_output: 512
    pad: 1
    kernel_size: 3
  }
}
layer {
  name: "relu5_3"
  type: "ReLU"
  bottom: "conv5_3"
  top: "conv5_3"
}
layer {
  name: "conv5_256"
  type: "Convolution"
  bottom: "conv5_3"
  top: "conv5_256"
  param {
    lr_mult: 1
  }
  param {
    lr_mult: 2
  }
  convolution_param {
    num_output: 256
    pad: 0
    kernel_size: 1
    weight_filler {
      type: "gaussian"
      std: 0.01
    }
    bias_filler {
      type: "constant"
      value: 0
    }
  }
}
layer {
  name: "conv5_256_relu"
  type: "ReLU"
  bottom: "conv5_256"
  top: "conv5_256"
}
layer {
  name: "conv5_256_up"
  type: "Deconvolution"
  bottom: "conv5_256"
  top: "conv5_256_up"
  param {
    lr_mult: 0
    decay_mult: 0
  }
  convolution_param {
    num_output: 256
    bias_term: false
    pad: 1
    kernel_size: 4
    group: 256
    stride: 2
    weight_filler {
      type: "bilinear"
    }
  }
}
layer {
  name: "conv4_256"
  type: "Convolution"
  bottom: "conv4_3"
  top: "conv4_256"
  param {
    lr_mult: 1
  }
  param {
    lr_mult: 2
  }
  convolution_param {
    num_output: 256
    pad: 0
    kernel_size: 1
    weight_filler {
      type: "gaussian"
      std: 0.01
    }
    bias_filler {
      type: "constant"
      value: 0
    }
  }
}
layer {
  name: "conv4_256_relu"
  type: "ReLU"
  bottom: "conv4_256"
  top: "conv4_256"
}
layer {
  name: "conv5_256_crop"
  type: "Crop"
  bottom: "conv5_256_up"
  bottom: "conv4_256"
  top: "conv5_256_crop"
  crop_param {
    axis: 2
    offset: 0
  }
}
layer {
  name: "conv4_fuse"
  type: "Eltwise"
  bottom: "conv5_256_crop"
  bottom: "conv4_256"
  top: "conv4_fuse"
  eltwise_param {
    operation: SUM
  }
}
layer {
  name: "conv4_fuse_final"
  type: "Convolution"
  bottom: "conv4_fuse"
  top: "conv4_fuse_final"
  param {
    lr_mult: 1
  }
  param {
    lr_mult: 2
  }
  convolution_param {
    num_output: 256
    pad: 1
    kernel_size: 3
    weight_filler {
      type: "gaussian"
      std: 0.01
    }
    bias_filler {
      type: "constant"
      value: 0
    }
  }
}
layer {
  name: "conv4_fuse_final_relu"
  type: "ReLU"
  bottom: "conv4_fuse_final"
  top: "conv4_fuse_final"
}
layer {
  name: "conv4_256_up"
  type: "Deconvolution"
  bottom: "conv4_fuse"
  top: "conv4_256_up"
  param {
    lr_mult: 0
    decay_mult: 0
  }
  convolution_param {
    num_output: 256
    bias_term: false
    pad: 1
    kernel_size: 4
    group: 256
    stride: 2
    weight_filler {
      type: "bilinear"
    }
  }
}
layer {
  name: "conv3_256"
  type: "Convolution"
  bottom: "conv3_3"
  top: "conv3_256"
  param {
    lr_mult: 1
  }
  param {
    lr_mult: 2
  }
  convolution_param {
    num_output: 256
    pad: 0
    kernel_size: 1
    weight_filler {
      type: "gaussian"
      std: 0.01
    }
    bias_filler {
      type: "constant"
      value: 0
    }
  }
}
layer {
  name: "conv3_256_relu"
  type: "ReLU"
  bottom: "conv3_256"
  top: "conv3_256"
}
layer {
  name: "conv4_256_crop"
  type: "Crop"
  bottom: "conv4_256_up"
  bottom: "conv3_256"
  top: "conv4_256_crop"
  crop_param {
    axis: 2
    offset: 0
  }
}
layer {
  name: "conv3_fuse"
  type: "Eltwise"
  bottom: "conv4_256_crop"
  bottom: "conv3_256"
  top: "conv3_fuse"
  eltwise_param {
    operation: SUM
  }
}
layer {
  name: "conv3_fuse_final"
  type: "Convolution"
  bottom: "conv3_fuse"
  top: "conv3_fuse_final"
  param {
    lr_mult: 1
  }
  param {
    lr_mult: 2
  }
  convolution_param {
    num_output: 256
    pad: 1
    kernel_size: 3
    weight_filler {
      type: "gaussian"
      std: 0.01
    }
    bias_filler {
      type: "constant"
      value: 0
    }
  }
}
layer {
  name: "conv3_fuse_final_relu"
  type: "ReLU"
  bottom: "conv3_fuse_final"
  top: "conv3_fuse_final"
}
layer {
  name: "rpn_conv/3x3/p3"
  type: "Convolution"
  bottom: "conv3_fuse_final"
  top: "rpn_conv/3x3_output/p3"
  param {
    lr_mult: 1
  }
  param {
    lr_mult: 2
  }
  convolution_param {
    num_output: 256
    pad: 1
    kernel_size: 3
    stride: 1
    weight_filler {
      type: "gaussian"
      std: 0.01
    }
    bias_filler {
      type: "constant"
      value: 0
    }
  }
}
layer {
  name: "rpn_dimred/3x3/p3"
  type: "Convolution"
  bottom: "conv3_fuse_final"
  top: "rpn_dimred_output/p3"
  param {
    lr_mult: 1
  }
  param {
    lr_mult: 2
  }
  convolution_param {
    num_output: 128
    pad: 1
    kernel_size: 3
    stride: 1
    weight_filler {
      type: "gaussian"
      std: 0.01
    }
    bias_filler {
      type: "constant"
      value: 0
    }
  }
}
layer {
  name: "rpn_dimred_relu/p3"
  type: "ReLU"
  bottom: "rpn_dimred_output/p3"
  top: "rpn_dimred_output/p3"
}
layer {
  name: "rpn_conv/5x5/p3"
  type: "Convolution"
  bottom: "rpn_dimred_output/p3"
  top: "rpn_conv/5x5_output/p3"
  param {
    lr_mult: 1
  }
  param {
    lr_mult: 2
  }
  convolution_param {
    num_output: 128
    pad: 1
    kernel_size: 3
    stride: 1
    weight_filler {
      type: "gaussian"
      std: 0.01
    }
    bias_filler {
      type: "constant"
      value: 0
    }
  }
}
layer {
  name: "rpn_conv/7x7-1/p3"
  type: "Convolution"
  bottom: "rpn_dimred_output/p3"
  top: "rpn_conv/7x7-1_out/p3"
  param {
    lr_mult: 1
  }
  param {
    lr_mult: 2
  }
  convolution_param {
    num_output: 128
    pad: 1
    kernel_size: 3
    stride: 1
    weight_filler {
      type: "gaussian"
      std: 0.01
    }
    bias_filler {
      type: "constant"
      value: 0
    }
  }
}
layer {
  name: "rpn_relu/7x7-1/p3"
  type: "ReLU"
  bottom: "rpn_conv/7x7-1_out/p3"
  top: "rpn_conv/7x7-1_out/p3"
}
layer {
  name: "rpn_conv/7x7/p3"
  type: "Convolution"
  bottom: "rpn_conv/7x7-1_out/p3"
  top: "rpn_conv/7x7_output/p3"
  param {
    lr_mult: 1
  }
  param {
    lr_mult: 2
  }
  convolution_param {
    num_output: 128
    pad: 1
    kernel_size: 3
    stride: 1
    weight_filler {
      type: "gaussian"
      std: 0.01
    }
    bias_filler {
      type: "constant"
      value: 0
    }
  }
}
layer {
  name: "rpn_conv/357/p3"
  type: "Concat"
  bottom: "rpn_conv/3x3_output/p3"
  bottom: "rpn_conv/5x5_output/p3"
  bottom: "rpn_conv/7x7_output/p3"
  top: "rpn_conv/357_output/p3"
  concat_param {
    axis: 1
  }
}
layer {
  name: "rpn_relu/357/p3"
  type: "ReLU"
  bottom: "rpn_conv/357_output/p3"
  top: "rpn_conv/357_output/p3"
}
layer {
  name: "rpn_cls_score/p3"
  type: "Convolution"
  bottom: "rpn_conv/357_output/p3"
  top: "rpn_cls_score/p3"
  param {
    lr_mult: 1
  }
  param {
    lr_mult: 2
  }
  convolution_param {
    num_output: 12
    pad: 0
    kernel_size: 1
    stride: 1
    weight_filler {
      type: "gaussian"
      std: 0.01
    }
    bias_filler {
      type: "constant"
      value: 0
    }
  }
}
layer {
  name: "rpn_bbox_pred/p3"
  type: "Convolution"
  bottom: "rpn_conv/357_output/p3"
  top: "rpn_bbox_pred/p3"
  param {
    lr_mult: 1
  }
  param {
    lr_mult: 2
  }
  convolution_param {
    num_output: 24
    pad: 0
    kernel_size: 1
    stride: 1
    weight_filler {
      type: "gaussian"
      std: 0.01
    }
    bias_filler {
      type: "constant"
      value: 0
    }
  }
}
layer {
  name: "rpn_cls_score_reshape/p3"
  type: "Reshape"
  bottom: "rpn_cls_score/p3"
  top: "rpn_cls_score_reshape/p3"
  reshape_param {
    shape {
      dim: 0
      dim: 2
      dim: -1
      dim: 0
    }
  }
}
layer {
  name: "rpn_cls_prob/p3"
  type: "Softmax"
  bottom: "rpn_cls_score_reshape/p3"
  top: "rpn_cls_prob/p3"
}
layer {
  name: "rpn_cls_prob_reshape/p3"
  type: "Reshape"
  bottom: "rpn_cls_prob/p3"
  top: "rpn_cls_prob_reshape/p3"
  reshape_param {
    shape {
      dim: 0
      dim: 12
      dim: -1
      dim: 0
    }
  }
}
layer {
  name: "proposal/p3"
  type: "Python"
  bottom: "rpn_cls_prob_reshape/p3"
  bottom: "rpn_bbox_pred/p3"
  bottom: "im_info"
  top: "rois/p3"
  python_param {
    module: "rpn.proposal_layer"
    layer: "ProposalLayer"
    param_str: "{\'feat_stride\': 4, \'scales\':[1,2], \'ratios\': [0.5,1,2]}"
  }
}
layer {
  name: "rpn_conv/3x3/p4"
  type: "Convolution"
  bottom: "conv4_fuse_final"
  top: "rpn_conv/3x3_output/p4"
  param {
    lr_mult: 1
  }
  param {
    lr_mult: 2
  }
  convolution_param {
    num_output: 256
    pad: 1
    kernel_size: 3
    stride: 1
    weight_filler {
      type: "gaussian"
      std: 0.01
    }
    bias_filler {
      type: "constant"
      value: 0
    }
  }
}
layer {
  name: "rpn_dimred/3x3/p4"
  type: "Convolution"
  bottom: "conv4_fuse_final"
  top: "rpn_dimred_output/p4"
  param {
    lr_mult: 1
  }
  param {
    lr_mult: 2
  }
  convolution_param {
    num_output: 128
    pad: 1
    kernel_size: 3
    stride: 1
    weight_filler {
      type: "gaussian"
      std: 0.01
    }
    bias_filler {
      type: "constant"
      value: 0
    }
  }
}
layer {
  name: "rpn_dimred_relu/p4"
  type: "ReLU"
  bottom: "rpn_dimred_output/p4"
  top: "rpn_dimred_output/p4"
}
layer {
  name: "rpn_conv/5x5/p4"
  type: "Convolution"
  bottom: "rpn_dimred_output/p4"
  top: "rpn_conv/5x5_output/p4"
  param {
    lr_mult: 1
  }
  param {
    lr_mult: 2
  }
  convolution_param {
    num_output: 128
    pad: 1
    kernel_size: 3
    stride: 1
    weight_filler {
      type: "gaussian"
      std: 0.01
    }
    bias_filler {
      type: "constant"
      value: 0
    }
  }
}
layer {
  name: "rpn_conv/7x7-1/p4"
  type: "Convolution"
  bottom: "rpn_dimred_output/p4"
  top: "rpn_conv/7x7-1_out/p4"
  param {
    lr_mult: 1
  }
  param {
    lr_mult: 2
  }
  convolution_param {
    num_output: 128
    pad: 1
    kernel_size: 3
    stride: 1
    weight_filler {
      type: "gaussian"
      std: 0.01
    }
    bias_filler {
      type: "constant"
      value: 0
    }
  }
}
layer {
  name: "rpn_relu/7x7-1/p4"
  type: "ReLU"
  bottom: "rpn_conv/7x7-1_out/p4"
  top: "rpn_conv/7x7-1_out/p4"
}
layer {
  name: "rpn_conv/7x7/p4"
  type: "Convolution"
  bottom: "rpn_conv/7x7-1_out/p4"
  top: "rpn_conv/7x7_output/p4"
  param {
    lr_mult: 1
  }
  param {
    lr_mult: 2
  }
  convolution_param {
    num_output: 128
    pad: 1
    kernel_size: 3
    stride: 1
    weight_filler {
      type: "gaussian"
      std: 0.01
    }
    bias_filler {
      type: "constant"
      value: 0
    }
  }
}
layer {
  name: "rpn_conv/357/p4"
  type: "Concat"
  bottom: "rpn_conv/3x3_output/p4"
  bottom: "rpn_conv/5x5_output/p4"
  bottom: "rpn_conv/7x7_output/p4"
  top: "rpn_conv/357_output/p4"
  concat_param {
    axis: 1
  }
}
layer {
  name: "rpn_relu/357/p4"
  type: "ReLU"
  bottom: "rpn_conv/357_output/p4"
  top: "rpn_conv/357_output/p4"
}
layer {
  name: "rpn_cls_score/p4"
  type: "Convolution"
  bottom: "rpn_conv/357_output/p4"
  top: "rpn_cls_score/p4"
  param {
    lr_mult: 1
  }
  param {
    lr_mult: 2
  }
  convolution_param {
    num_output: 12
    pad: 0
    kernel_size: 1
    stride: 1
    weight_filler {
      type: "gaussian"
      std: 0.01
    }
    bias_filler {
      type: "constant"
      value: 0
    }
  }
}
layer {
  name: "rpn_bbox_pred/p4"
  type: "Convolution"
  bottom: "rpn_conv/357_output/p4"
  top: "rpn_bbox_pred/p4"
  param {
    lr_mult: 1
  }
  param {
    lr_mult: 2
  }
  convolution_param {
    num_output: 24
    pad: 0
    kernel_size: 1
    stride: 1
    weight_filler {
      type: "gaussian"
      std: 0.01
    }
    bias_filler {
      type: "constant"
      value: 0
    }
  }
}
layer {
  name: "rpn_cls_score_reshape/p4"
  type: "Reshape"
  bottom: "rpn_cls_score/p4"
  top: "rpn_cls_score_reshape/p4"
  reshape_param {
    shape {
      dim: 0
      dim: 2
      dim: -1
      dim: 0
    }
  }
}
layer {
  name: "rpn_cls_prob/p4"
  type: "Softmax"
  bottom: "rpn_cls_score_reshape/p4"
  top: "rpn_cls_prob/p4"
}
layer {
  name: "rpn_cls_prob_reshape/p4"
  type: "Reshape"
  bottom: "rpn_cls_prob/p4"
  top: "rpn_cls_prob_reshape/p4"
  reshape_param {
    shape {
      dim: 0
      dim: 12
      dim: -1
      dim: 0
    }
  }
}
layer {
  name: "proposal/p4"
  type: "Python"
  bottom: "rpn_cls_prob_reshape/p4"
  bottom: "rpn_bbox_pred/p4"
  bottom: "im_info"
  top: "rois/p4"
  python_param {
    module: "rpn.proposal_layer"
    layer: "ProposalLayer"
    param_str: "{\'feat_stride\': 8, \'scales\':[4,8], \'ratios\': [0.5,1,2]}"
  }
}
layer {
  name: "rpn_conv/3x3/p5"
  type: "Convolution"
  bottom: "conv5_256"
  top: "rpn_conv/3x3_output/p5"
  param {
    lr_mult: 1
  }
  param {
    lr_mult: 2
  }
  convolution_param {
    num_output: 256
    pad: 1
    kernel_size: 3
    stride: 1
    weight_filler {
      type: "gaussian"
      std: 0.01
    }
    bias_filler {
      type: "constant"
      value: 0
    }
  }
}
layer {
  name: "rpn_dimred/3x3/p5"
  type: "Convolution"
  bottom: "conv5_256"
  top: "rpn_dimred_output/p5"
  param {
    lr_mult: 1
  }
  param {
    lr_mult: 2
  }
  convolution_param {
    num_output: 128
    pad: 1
    kernel_size: 3
    stride: 1
    weight_filler {
      type: "gaussian"
      std: 0.01
    }
    bias_filler {
      type: "constant"
      value: 0
    }
  }
}
layer {
  name: "rpn_dimred_relu/p5"
  type: "ReLU"
  bottom: "rpn_dimred_output/p5"
  top: "rpn_dimred_output/p5"
}
layer {
  name: "rpn_conv/5x5/p5"
  type: "Convolution"
  bottom: "rpn_dimred_output/p5"
  top: "rpn_conv/5x5_output/p5"
  param {
    lr_mult: 1
  }
  param {
    lr_mult: 2
  }
  convolution_param {
    num_output: 128
    pad: 1
    kernel_size: 3
    stride: 1
    weight_filler {
      type: "gaussian"
      std: 0.01
    }
    bias_filler {
      type: "constant"
      value: 0
    }
  }
}
layer {
  name: "rpn_conv/7x7-1/p5"
  type: "Convolution"
  bottom: "rpn_dimred_output/p5"
  top: "rpn_conv/7x7-1_out/p5"
  param {
    lr_mult: 1
  }
  param {
    lr_mult: 2
  }
  convolution_param {
    num_output: 128
    pad: 1
    kernel_size: 3
    stride: 1
    weight_filler {
      type: "gaussian"
      std: 0.01
    }
    bias_filler {
      type: "constant"
      value: 0
    }
  }
}
layer {
  name: "rpn_relu/7x7-1/p5"
  type: "ReLU"
  bottom: "rpn_conv/7x7-1_out/p5"
  top: "rpn_conv/7x7-1_out/p5"
}
layer {
  name: "rpn_conv/7x7/p5"
  type: "Convolution"
  bottom: "rpn_conv/7x7-1_out/p5"
  top: "rpn_conv/7x7_output/p5"
  param {
    lr_mult: 1
  }
  param {
    lr_mult: 2
  }
  convolution_param {
    num_output: 128
    pad: 1
    kernel_size: 3
    stride: 1
    weight_filler {
      type: "gaussian"
      std: 0.01
    }
    bias_filler {
      type: "constant"
      value: 0
    }
  }
}
layer {
  name: "rpn_conv/357/p5"
  type: "Concat"
  bottom: "rpn_conv/3x3_output/p5"
  bottom: "rpn_conv/5x5_output/p5"
  bottom: "rpn_conv/7x7_output/p5"
  top: "rpn_conv/357_output/p5"
  concat_param {
    axis: 1
  }
}
layer {
  name: "rpn_relu/357/p5"
  type: "ReLU"
  bottom: "rpn_conv/357_output/p5"
  top: "rpn_conv/357_output/p5"
}
layer {
  name: "rpn_cls_score/p5"
  type: "Convolution"
  bottom: "rpn_conv/357_output/p5"
  top: "rpn_cls_score/p5"
  param {
    lr_mult: 1
  }
  param {
    lr_mult: 2
  }
  convolution_param {
    num_output: 12
    pad: 0
    kernel_size: 1
    stride: 1
    weight_filler {
      type: "gaussian"
      std: 0.01
    }
    bias_filler {
      type: "constant"
      value: 0
    }
  }
}
layer {
  name: "rpn_bbox_pred/p5"
  type: "Convolution"
  bottom: "rpn_conv/357_output/p5"
  top: "rpn_bbox_pred/p5"
  param {
    lr_mult: 1
  }
  param {
    lr_mult: 2
  }
  convolution_param {
    num_output: 24
    pad: 0
    kernel_size: 1
    stride: 1
    weight_filler {
      type: "gaussian"
      std: 0.01
    }
    bias_filler {
      type: "constant"
      value: 0
    }
  }
}
layer {
  name: "rpn_cls_score_reshape/p5"
  type: "Reshape"
  bottom: "rpn_cls_score/p5"
  top: "rpn_cls_score_reshape/p5"
  reshape_param {
    shape {
      dim: 0
      dim: 2
      dim: -1
      dim: 0
    }
  }
}
layer {
  name: "rpn_cls_prob/p5"
  type: "Softmax"
  bottom: "rpn_cls_score_reshape/p5"
  top: "rpn_cls_prob/p5"
}
layer {
  name: "rpn_cls_prob_reshape/p5"
  type: "Reshape"
  bottom: "rpn_cls_prob/p5"
  top: "rpn_cls_prob_reshape/p5"
  reshape_param {
    shape {
      dim: 0
      dim: 12
      dim: -1
      dim: 0
    }
  }
}
layer {
  name: "proposal/p5"
  type: "Python"
  bottom: "rpn_cls_prob_reshape/p5"
  bottom: "rpn_bbox_pred/p5"
  bottom: "im_info"
  top: "rois/p5"
  python_param {
    module: "rpn.proposal_layer"
    layer: "ProposalLayer"
    param_str: "{\'feat_stride\': 16,\'scales\': [16,32], \'ratios\':[0.5,1,2]}"
  }
}
layer {
  name: "roi_pool/p5"
  type: "ROIPooling"
  bottom: "conv5_256"
  bottom: "rois/p5"
  top: "roi_pool/p5"
  roi_pooling_param {
    pooled_h: 7
    pooled_w: 7
    spatial_scale: 0.0625
  }
}
layer {
  name: "roi_pool/p4"
  type: "ROIPooling"
  bottom: "conv4_fuse_final"
  bottom: "rois/p4"
  top: "roi_pool/p4"
  roi_pooling_param {
    pooled_h: 7
    pooled_w: 7
    spatial_scale: 0.125
  }
}
layer {
  name: "roi_pool/p3"
  type: "ROIPooling"
  bottom: "conv3_fuse_final"
  bottom: "rois/p3"
  top: "roi_pool/p3"
  roi_pooling_param {
    pooled_h: 7
    pooled_w: 7
    spatial_scale: 0.25
  }
}
layer {
  name: "all_pool"
  type: "Concat"
  bottom: "roi_pool/p3"
  bottom: "roi_pool/p4"
  bottom: "roi_pool/p5"
  top: "rcnn_pool"
  concat_param {
    axis: 0
  }
}
layer {
  name: "rcnn_fc6"
  type: "InnerProduct"
  bottom: "rcnn_pool"
  top: "rcnn_fc6"
  param {
    lr_mult: 1
  }
  param {
    lr_mult: 2
  }
  inner_product_param {
    num_output: 4096
    weight_filler {
      type: "xavier"
    }
    bias_filler {
      type: "constant"
    }
  }
}
layer {
  name: "relu6"
  type: "ReLU"
  bottom: "rcnn_fc6"
  top: "rcnn_fc6"
}
layer {
  name: "drop6"
  type: "Dropout"
  bottom: "rcnn_fc6"
  top: "rcnn_fc6"
  dropout_param {
    dropout_ratio: 0.5
  }
}
layer {
  name: "fc7"
  type: "InnerProduct"
  bottom: "rcnn_fc6"
  top: "fc7"
  param {
    lr_mult: 1
  }
  param {
    lr_mult: 2
  }
  inner_product_param {
    num_output: 4096
    weight_filler {
      type: "xavier"
    }
    bias_filler {
      type: "constant"
    }
  }
}
layer {
  name: "relu7"
  type: "ReLU"
  bottom: "fc7"
  top: "fc7"
}
layer {
  name: "drop7"
  type: "Dropout"
  bottom: "fc7"
  top: "fc7"
  dropout_param {
    dropout_ratio: 0.5
  }
}
layer {
  name: "cls_score"
  type: "InnerProduct"
  bottom: "fc7"
  top: "cls_score"
  param {
    lr_mult: 1
  }
  param {
    lr_mult: 2
  }
  inner_product_param {
    num_output: 4
    weight_filler {
      type: "gaussian"
      std: 0.01
    }
    bias_filler {
      type: "constant"
      value: 0
    }
  }
}
layer {
  name: "bbox_pred"
  type: "InnerProduct"
  bottom: "fc7"
  top: "bbox_pred"
  param {
    lr_mult: 1
  }
  param {
    lr_mult: 2
  }
  inner_product_param {
    num_output: 16
    weight_filler {
      type: "gaussian"
      std: 0.001
    }
    bias_filler {
      type: "constant"
      value: 0
    }
  }
}
layer {
  name: "cls_prob"
  type: "Softmax"
  bottom: "cls_score"
  top: "cls_prob"
}
I1213 10:09:55.915514 13516 net.cpp:413] Input 0 -> data
I1213 10:09:56.190387 13516 net.cpp:413] Input 1 -> im_info
I1213 10:09:56.190443 13516 layer_factory.hpp:77] Creating layer im_info_input_1_split
I1213 10:09:56.190454 13516 net.cpp:106] Creating Layer im_info_input_1_split
I1213 10:09:56.190455 13516 net.cpp:454] im_info_input_1_split <- im_info
I1213 10:09:56.190461 13516 net.cpp:411] im_info_input_1_split -> im_info_input_1_split_0
I1213 10:09:56.190469 13516 net.cpp:411] im_info_input_1_split -> im_info_input_1_split_1
I1213 10:09:56.190474 13516 net.cpp:411] im_info_input_1_split -> im_info_input_1_split_2
I1213 10:09:56.190503 13516 net.cpp:150] Setting up im_info_input_1_split
I1213 10:09:56.190510 13516 net.cpp:157] Top shape: 1 3 (3)
I1213 10:09:56.190513 13516 net.cpp:157] Top shape: 1 3 (3)
I1213 10:09:56.190515 13516 net.cpp:157] Top shape: 1 3 (3)
I1213 10:09:56.190516 13516 net.cpp:165] Memory required for data: 36
I1213 10:09:56.190546 13516 layer_factory.hpp:77] Creating layer conv1_1
I1213 10:09:56.190556 13516 net.cpp:106] Creating Layer conv1_1
I1213 10:09:56.190557 13516 net.cpp:454] conv1_1 <- data
I1213 10:09:56.190562 13516 net.cpp:411] conv1_1 -> conv1_1
I1213 10:09:56.394192 13516 net.cpp:150] Setting up conv1_1
I1213 10:09:56.394215 13516 net.cpp:157] Top shape: 1 64 224 224 (3211264)
I1213 10:09:56.394217 13516 net.cpp:165] Memory required for data: 12845092
I1213 10:09:56.394239 13516 layer_factory.hpp:77] Creating layer relu1_1
I1213 10:09:56.394289 13516 net.cpp:106] Creating Layer relu1_1
I1213 10:09:56.394294 13516 net.cpp:454] relu1_1 <- conv1_1
I1213 10:09:56.394304 13516 net.cpp:397] relu1_1 -> conv1_1 (in-place)
I1213 10:09:56.394758 13516 net.cpp:150] Setting up relu1_1
I1213 10:09:56.394768 13516 net.cpp:157] Top shape: 1 64 224 224 (3211264)
I1213 10:09:56.394770 13516 net.cpp:165] Memory required for data: 25690148
I1213 10:09:56.394773 13516 layer_factory.hpp:77] Creating layer conv1_2
I1213 10:09:56.394778 13516 net.cpp:106] Creating Layer conv1_2
I1213 10:09:56.394780 13516 net.cpp:454] conv1_2 <- conv1_1
I1213 10:09:56.394783 13516 net.cpp:411] conv1_2 -> conv1_2
I1213 10:09:56.395380 13516 net.cpp:150] Setting up conv1_2
I1213 10:09:56.395387 13516 net.cpp:157] Top shape: 1 64 224 224 (3211264)
I1213 10:09:56.395390 13516 net.cpp:165] Memory required for data: 38535204
I1213 10:09:56.395395 13516 layer_factory.hpp:77] Creating layer relu1_2
I1213 10:09:56.395418 13516 net.cpp:106] Creating Layer relu1_2
I1213 10:09:56.395421 13516 net.cpp:454] relu1_2 <- conv1_2
I1213 10:09:56.395423 13516 net.cpp:397] relu1_2 -> conv1_2 (in-place)
I1213 10:09:56.395812 13516 net.cpp:150] Setting up relu1_2
I1213 10:09:56.395819 13516 net.cpp:157] Top shape: 1 64 224 224 (3211264)
I1213 10:09:56.395822 13516 net.cpp:165] Memory required for data: 51380260
I1213 10:09:56.395823 13516 layer_factory.hpp:77] Creating layer pool1
I1213 10:09:56.395828 13516 net.cpp:106] Creating Layer pool1
I1213 10:09:56.395830 13516 net.cpp:454] pool1 <- conv1_2
I1213 10:09:56.395833 13516 net.cpp:411] pool1 -> pool1
I1213 10:09:56.395862 13516 net.cpp:150] Setting up pool1
I1213 10:09:56.395865 13516 net.cpp:157] Top shape: 1 64 112 112 (802816)
I1213 10:09:56.395867 13516 net.cpp:165] Memory required for data: 54591524
I1213 10:09:56.395869 13516 layer_factory.hpp:77] Creating layer conv2_1
I1213 10:09:56.395891 13516 net.cpp:106] Creating Layer conv2_1
I1213 10:09:56.395894 13516 net.cpp:454] conv2_1 <- pool1
I1213 10:09:56.395896 13516 net.cpp:411] conv2_1 -> conv2_1
I1213 10:09:56.398066 13516 net.cpp:150] Setting up conv2_1
I1213 10:09:56.398079 13516 net.cpp:157] Top shape: 1 128 112 112 (1605632)
I1213 10:09:56.398082 13516 net.cpp:165] Memory required for data: 61014052
I1213 10:09:56.398088 13516 layer_factory.hpp:77] Creating layer relu2_1
I1213 10:09:56.398094 13516 net.cpp:106] Creating Layer relu2_1
I1213 10:09:56.398097 13516 net.cpp:454] relu2_1 <- conv2_1
I1213 10:09:56.398099 13516 net.cpp:397] relu2_1 -> conv2_1 (in-place)
I1213 10:09:56.398267 13516 net.cpp:150] Setting up relu2_1
I1213 10:09:56.398272 13516 net.cpp:157] Top shape: 1 128 112 112 (1605632)
I1213 10:09:56.398274 13516 net.cpp:165] Memory required for data: 67436580
I1213 10:09:56.398277 13516 layer_factory.hpp:77] Creating layer conv2_2
I1213 10:09:56.398283 13516 net.cpp:106] Creating Layer conv2_2
I1213 10:09:56.398284 13516 net.cpp:454] conv2_2 <- conv2_1
I1213 10:09:56.398288 13516 net.cpp:411] conv2_2 -> conv2_2
I1213 10:09:56.399417 13516 net.cpp:150] Setting up conv2_2
I1213 10:09:56.399432 13516 net.cpp:157] Top shape: 1 128 112 112 (1605632)
I1213 10:09:56.399435 13516 net.cpp:165] Memory required for data: 73859108
I1213 10:09:56.399438 13516 layer_factory.hpp:77] Creating layer relu2_2
I1213 10:09:56.399442 13516 net.cpp:106] Creating Layer relu2_2
I1213 10:09:56.399444 13516 net.cpp:454] relu2_2 <- conv2_2
I1213 10:09:56.399447 13516 net.cpp:397] relu2_2 -> conv2_2 (in-place)
I1213 10:09:56.399606 13516 net.cpp:150] Setting up relu2_2
I1213 10:09:56.399611 13516 net.cpp:157] Top shape: 1 128 112 112 (1605632)
I1213 10:09:56.399613 13516 net.cpp:165] Memory required for data: 80281636
I1213 10:09:56.399616 13516 layer_factory.hpp:77] Creating layer pool2
I1213 10:09:56.399619 13516 net.cpp:106] Creating Layer pool2
I1213 10:09:56.399621 13516 net.cpp:454] pool2 <- conv2_2
I1213 10:09:56.399624 13516 net.cpp:411] pool2 -> pool2
I1213 10:09:56.399653 13516 net.cpp:150] Setting up pool2
I1213 10:09:56.399657 13516 net.cpp:157] Top shape: 1 128 56 56 (401408)
I1213 10:09:56.399657 13516 net.cpp:165] Memory required for data: 81887268
I1213 10:09:56.399678 13516 layer_factory.hpp:77] Creating layer conv3_1
I1213 10:09:56.399683 13516 net.cpp:106] Creating Layer conv3_1
I1213 10:09:56.399685 13516 net.cpp:454] conv3_1 <- pool2
I1213 10:09:56.399688 13516 net.cpp:411] conv3_1 -> conv3_1
I1213 10:09:56.400825 13516 net.cpp:150] Setting up conv3_1
I1213 10:09:56.400835 13516 net.cpp:157] Top shape: 1 256 56 56 (802816)
I1213 10:09:56.400836 13516 net.cpp:165] Memory required for data: 85098532
I1213 10:09:56.400843 13516 layer_factory.hpp:77] Creating layer relu3_1
I1213 10:09:56.400847 13516 net.cpp:106] Creating Layer relu3_1
I1213 10:09:56.400849 13516 net.cpp:454] relu3_1 <- conv3_1
I1213 10:09:56.400852 13516 net.cpp:397] relu3_1 -> conv3_1 (in-place)
I1213 10:09:56.401005 13516 net.cpp:150] Setting up relu3_1
I1213 10:09:56.401010 13516 net.cpp:157] Top shape: 1 256 56 56 (802816)
I1213 10:09:56.401012 13516 net.cpp:165] Memory required for data: 88309796
I1213 10:09:56.401015 13516 layer_factory.hpp:77] Creating layer conv3_2
I1213 10:09:56.401018 13516 net.cpp:106] Creating Layer conv3_2
I1213 10:09:56.401021 13516 net.cpp:454] conv3_2 <- conv3_1
I1213 10:09:56.401023 13516 net.cpp:411] conv3_2 -> conv3_2
I1213 10:09:56.402880 13516 net.cpp:150] Setting up conv3_2
I1213 10:09:56.402892 13516 net.cpp:157] Top shape: 1 256 56 56 (802816)
I1213 10:09:56.402894 13516 net.cpp:165] Memory required for data: 91521060
I1213 10:09:56.402899 13516 layer_factory.hpp:77] Creating layer relu3_2
I1213 10:09:56.402904 13516 net.cpp:106] Creating Layer relu3_2
I1213 10:09:56.402905 13516 net.cpp:454] relu3_2 <- conv3_2
I1213 10:09:56.402909 13516 net.cpp:397] relu3_2 -> conv3_2 (in-place)
I1213 10:09:56.403069 13516 net.cpp:150] Setting up relu3_2
I1213 10:09:56.403074 13516 net.cpp:157] Top shape: 1 256 56 56 (802816)
I1213 10:09:56.403075 13516 net.cpp:165] Memory required for data: 94732324
I1213 10:09:56.403077 13516 layer_factory.hpp:77] Creating layer conv3_3
I1213 10:09:56.403082 13516 net.cpp:106] Creating Layer conv3_3
I1213 10:09:56.403084 13516 net.cpp:454] conv3_3 <- conv3_2
I1213 10:09:56.403087 13516 net.cpp:411] conv3_3 -> conv3_3
I1213 10:09:56.404973 13516 net.cpp:150] Setting up conv3_3
I1213 10:09:56.404984 13516 net.cpp:157] Top shape: 1 256 56 56 (802816)
I1213 10:09:56.404986 13516 net.cpp:165] Memory required for data: 97943588
I1213 10:09:56.404991 13516 layer_factory.hpp:77] Creating layer relu3_3
I1213 10:09:56.404999 13516 net.cpp:106] Creating Layer relu3_3
I1213 10:09:56.405000 13516 net.cpp:454] relu3_3 <- conv3_3
I1213 10:09:56.405004 13516 net.cpp:397] relu3_3 -> conv3_3 (in-place)
I1213 10:09:56.405414 13516 net.cpp:150] Setting up relu3_3
I1213 10:09:56.405422 13516 net.cpp:157] Top shape: 1 256 56 56 (802816)
I1213 10:09:56.405442 13516 net.cpp:165] Memory required for data: 101154852
I1213 10:09:56.405444 13516 layer_factory.hpp:77] Creating layer conv3_3_relu3_3_0_split
I1213 10:09:56.405449 13516 net.cpp:106] Creating Layer conv3_3_relu3_3_0_split
I1213 10:09:56.405452 13516 net.cpp:454] conv3_3_relu3_3_0_split <- conv3_3
I1213 10:09:56.405455 13516 net.cpp:411] conv3_3_relu3_3_0_split -> conv3_3_relu3_3_0_split_0
I1213 10:09:56.405459 13516 net.cpp:411] conv3_3_relu3_3_0_split -> conv3_3_relu3_3_0_split_1
I1213 10:09:56.405489 13516 net.cpp:150] Setting up conv3_3_relu3_3_0_split
I1213 10:09:56.405493 13516 net.cpp:157] Top shape: 1 256 56 56 (802816)
I1213 10:09:56.405496 13516 net.cpp:157] Top shape: 1 256 56 56 (802816)
I1213 10:09:56.405510 13516 net.cpp:165] Memory required for data: 107577380
I1213 10:09:56.405513 13516 layer_factory.hpp:77] Creating layer pool3
I1213 10:09:56.405517 13516 net.cpp:106] Creating Layer pool3
I1213 10:09:56.405537 13516 net.cpp:454] pool3 <- conv3_3_relu3_3_0_split_0
I1213 10:09:56.405540 13516 net.cpp:411] pool3 -> pool3
I1213 10:09:56.405570 13516 net.cpp:150] Setting up pool3
I1213 10:09:56.405573 13516 net.cpp:157] Top shape: 1 256 28 28 (200704)
I1213 10:09:56.405575 13516 net.cpp:165] Memory required for data: 108380196
I1213 10:09:56.405576 13516 layer_factory.hpp:77] Creating layer conv4_1
I1213 10:09:56.405596 13516 net.cpp:106] Creating Layer conv4_1
I1213 10:09:56.405598 13516 net.cpp:454] conv4_1 <- pool3
I1213 10:09:56.405602 13516 net.cpp:411] conv4_1 -> conv4_1
I1213 10:09:56.408921 13516 net.cpp:150] Setting up conv4_1
I1213 10:09:56.408939 13516 net.cpp:157] Top shape: 1 512 28 28 (401408)
I1213 10:09:56.408942 13516 net.cpp:165] Memory required for data: 109985828
I1213 10:09:56.408948 13516 layer_factory.hpp:77] Creating layer relu4_1
I1213 10:09:56.408954 13516 net.cpp:106] Creating Layer relu4_1
I1213 10:09:56.408957 13516 net.cpp:454] relu4_1 <- conv4_1
I1213 10:09:56.408962 13516 net.cpp:397] relu4_1 -> conv4_1 (in-place)
I1213 10:09:56.409647 13516 net.cpp:150] Setting up relu4_1
I1213 10:09:56.409692 13516 net.cpp:157] Top shape: 1 512 28 28 (401408)
I1213 10:09:56.409694 13516 net.cpp:165] Memory required for data: 111591460
I1213 10:09:56.409701 13516 layer_factory.hpp:77] Creating layer conv4_2
I1213 10:09:56.409760 13516 net.cpp:106] Creating Layer conv4_2
I1213 10:09:56.409765 13516 net.cpp:454] conv4_2 <- conv4_1
I1213 10:09:56.409773 13516 net.cpp:411] conv4_2 -> conv4_2
I1213 10:09:56.416823 13516 net.cpp:150] Setting up conv4_2
I1213 10:09:56.416842 13516 net.cpp:157] Top shape: 1 512 28 28 (401408)
I1213 10:09:56.416844 13516 net.cpp:165] Memory required for data: 113197092
I1213 10:09:56.416857 13516 layer_factory.hpp:77] Creating layer relu4_2
I1213 10:09:56.416864 13516 net.cpp:106] Creating Layer relu4_2
I1213 10:09:56.416867 13516 net.cpp:454] relu4_2 <- conv4_2
I1213 10:09:56.416872 13516 net.cpp:397] relu4_2 -> conv4_2 (in-place)
I1213 10:09:56.417034 13516 net.cpp:150] Setting up relu4_2
I1213 10:09:56.417040 13516 net.cpp:157] Top shape: 1 512 28 28 (401408)
I1213 10:09:56.417042 13516 net.cpp:165] Memory required for data: 114802724
I1213 10:09:56.417044 13516 layer_factory.hpp:77] Creating layer conv4_3
I1213 10:09:56.417052 13516 net.cpp:106] Creating Layer conv4_3
I1213 10:09:56.417053 13516 net.cpp:454] conv4_3 <- conv4_2
I1213 10:09:56.417057 13516 net.cpp:411] conv4_3 -> conv4_3
I1213 10:09:56.421775 13516 net.cpp:150] Setting up conv4_3
I1213 10:09:56.421795 13516 net.cpp:157] Top shape: 1 512 28 28 (401408)
I1213 10:09:56.421797 13516 net.cpp:165] Memory required for data: 116408356
I1213 10:09:56.421803 13516 layer_factory.hpp:77] Creating layer relu4_3
I1213 10:09:56.421810 13516 net.cpp:106] Creating Layer relu4_3
I1213 10:09:56.421813 13516 net.cpp:454] relu4_3 <- conv4_3
I1213 10:09:56.421818 13516 net.cpp:397] relu4_3 -> conv4_3 (in-place)
I1213 10:09:56.421964 13516 net.cpp:150] Setting up relu4_3
I1213 10:09:56.421970 13516 net.cpp:157] Top shape: 1 512 28 28 (401408)
I1213 10:09:56.421972 13516 net.cpp:165] Memory required for data: 118013988
I1213 10:09:56.421974 13516 layer_factory.hpp:77] Creating layer conv4_3_relu4_3_0_split
I1213 10:09:56.421978 13516 net.cpp:106] Creating Layer conv4_3_relu4_3_0_split
I1213 10:09:56.421980 13516 net.cpp:454] conv4_3_relu4_3_0_split <- conv4_3
I1213 10:09:56.421984 13516 net.cpp:411] conv4_3_relu4_3_0_split -> conv4_3_relu4_3_0_split_0
I1213 10:09:56.421989 13516 net.cpp:411] conv4_3_relu4_3_0_split -> conv4_3_relu4_3_0_split_1
I1213 10:09:56.422020 13516 net.cpp:150] Setting up conv4_3_relu4_3_0_split
I1213 10:09:56.422024 13516 net.cpp:157] Top shape: 1 512 28 28 (401408)
I1213 10:09:56.422027 13516 net.cpp:157] Top shape: 1 512 28 28 (401408)
I1213 10:09:56.422029 13516 net.cpp:165] Memory required for data: 121225252
I1213 10:09:56.422030 13516 layer_factory.hpp:77] Creating layer pool4
I1213 10:09:56.422035 13516 net.cpp:106] Creating Layer pool4
I1213 10:09:56.422037 13516 net.cpp:454] pool4 <- conv4_3_relu4_3_0_split_0
I1213 10:09:56.422041 13516 net.cpp:411] pool4 -> pool4
I1213 10:09:56.422070 13516 net.cpp:150] Setting up pool4
I1213 10:09:56.422073 13516 net.cpp:157] Top shape: 1 512 14 14 (100352)
I1213 10:09:56.422075 13516 net.cpp:165] Memory required for data: 121626660
I1213 10:09:56.422077 13516 layer_factory.hpp:77] Creating layer conv5_1
I1213 10:09:56.422082 13516 net.cpp:106] Creating Layer conv5_1
I1213 10:09:56.422085 13516 net.cpp:454] conv5_1 <- pool4
I1213 10:09:56.422089 13516 net.cpp:411] conv5_1 -> conv5_1
I1213 10:09:56.427629 13516 net.cpp:150] Setting up conv5_1
I1213 10:09:56.427649 13516 net.cpp:157] Top shape: 1 512 14 14 (100352)
I1213 10:09:56.427650 13516 net.cpp:165] Memory required for data: 122028068
I1213 10:09:56.427656 13516 layer_factory.hpp:77] Creating layer relu5_1
I1213 10:09:56.427664 13516 net.cpp:106] Creating Layer relu5_1
I1213 10:09:56.427666 13516 net.cpp:454] relu5_1 <- conv5_1
I1213 10:09:56.427671 13516 net.cpp:397] relu5_1 -> conv5_1 (in-place)
I1213 10:09:56.427830 13516 net.cpp:150] Setting up relu5_1
I1213 10:09:56.427836 13516 net.cpp:157] Top shape: 1 512 14 14 (100352)
I1213 10:09:56.427839 13516 net.cpp:165] Memory required for data: 122429476
I1213 10:09:56.427840 13516 layer_factory.hpp:77] Creating layer conv5_2
I1213 10:09:56.427847 13516 net.cpp:106] Creating Layer conv5_2
I1213 10:09:56.427850 13516 net.cpp:454] conv5_2 <- conv5_1
I1213 10:09:56.427855 13516 net.cpp:411] conv5_2 -> conv5_2
I1213 10:09:56.436533 13516 net.cpp:150] Setting up conv5_2
I1213 10:09:56.436555 13516 net.cpp:157] Top shape: 1 512 14 14 (100352)
I1213 10:09:56.436558 13516 net.cpp:165] Memory required for data: 122830884
I1213 10:09:56.436563 13516 layer_factory.hpp:77] Creating layer relu5_2
I1213 10:09:56.436570 13516 net.cpp:106] Creating Layer relu5_2
I1213 10:09:56.436573 13516 net.cpp:454] relu5_2 <- conv5_2
I1213 10:09:56.436578 13516 net.cpp:397] relu5_2 -> conv5_2 (in-place)
I1213 10:09:56.436738 13516 net.cpp:150] Setting up relu5_2
I1213 10:09:56.436743 13516 net.cpp:157] Top shape: 1 512 14 14 (100352)
I1213 10:09:56.436745 13516 net.cpp:165] Memory required for data: 123232292
I1213 10:09:56.436748 13516 layer_factory.hpp:77] Creating layer conv5_3
I1213 10:09:56.436754 13516 net.cpp:106] Creating Layer conv5_3
I1213 10:09:56.436758 13516 net.cpp:454] conv5_3 <- conv5_2
I1213 10:09:56.436763 13516 net.cpp:411] conv5_3 -> conv5_3
I1213 10:09:56.441431 13516 net.cpp:150] Setting up conv5_3
I1213 10:09:56.441452 13516 net.cpp:157] Top shape: 1 512 14 14 (100352)
I1213 10:09:56.441455 13516 net.cpp:165] Memory required for data: 123633700
I1213 10:09:56.441462 13516 layer_factory.hpp:77] Creating layer relu5_3
I1213 10:09:56.441473 13516 net.cpp:106] Creating Layer relu5_3
I1213 10:09:56.441476 13516 net.cpp:454] relu5_3 <- conv5_3
I1213 10:09:56.441481 13516 net.cpp:397] relu5_3 -> conv5_3 (in-place)
I1213 10:09:56.441946 13516 net.cpp:150] Setting up relu5_3
I1213 10:09:56.441956 13516 net.cpp:157] Top shape: 1 512 14 14 (100352)
I1213 10:09:56.441958 13516 net.cpp:165] Memory required for data: 124035108
I1213 10:09:56.441961 13516 layer_factory.hpp:77] Creating layer conv5_256
I1213 10:09:56.441968 13516 net.cpp:106] Creating Layer conv5_256
I1213 10:09:56.441972 13516 net.cpp:454] conv5_256 <- conv5_3
I1213 10:09:56.441977 13516 net.cpp:411] conv5_256 -> conv5_256
I1213 10:09:56.444671 13516 net.cpp:150] Setting up conv5_256
I1213 10:09:56.444684 13516 net.cpp:157] Top shape: 1 256 14 14 (50176)
I1213 10:09:56.444685 13516 net.cpp:165] Memory required for data: 124235812
I1213 10:09:56.444689 13516 layer_factory.hpp:77] Creating layer conv5_256_relu
I1213 10:09:56.444694 13516 net.cpp:106] Creating Layer conv5_256_relu
I1213 10:09:56.444697 13516 net.cpp:454] conv5_256_relu <- conv5_256
I1213 10:09:56.444700 13516 net.cpp:397] conv5_256_relu -> conv5_256 (in-place)
I1213 10:09:56.445156 13516 net.cpp:150] Setting up conv5_256_relu
I1213 10:09:56.445166 13516 net.cpp:157] Top shape: 1 256 14 14 (50176)
I1213 10:09:56.445168 13516 net.cpp:165] Memory required for data: 124436516
I1213 10:09:56.445170 13516 layer_factory.hpp:77] Creating layer conv5_256_conv5_256_relu_0_split
I1213 10:09:56.445175 13516 net.cpp:106] Creating Layer conv5_256_conv5_256_relu_0_split
I1213 10:09:56.445178 13516 net.cpp:454] conv5_256_conv5_256_relu_0_split <- conv5_256
I1213 10:09:56.445183 13516 net.cpp:411] conv5_256_conv5_256_relu_0_split -> conv5_256_conv5_256_relu_0_split_0
I1213 10:09:56.445189 13516 net.cpp:411] conv5_256_conv5_256_relu_0_split -> conv5_256_conv5_256_relu_0_split_1
I1213 10:09:56.445194 13516 net.cpp:411] conv5_256_conv5_256_relu_0_split -> conv5_256_conv5_256_relu_0_split_2
I1213 10:09:56.445199 13516 net.cpp:411] conv5_256_conv5_256_relu_0_split -> conv5_256_conv5_256_relu_0_split_3
I1213 10:09:56.445257 13516 net.cpp:150] Setting up conv5_256_conv5_256_relu_0_split
I1213 10:09:56.445262 13516 net.cpp:157] Top shape: 1 256 14 14 (50176)
I1213 10:09:56.445264 13516 net.cpp:157] Top shape: 1 256 14 14 (50176)
I1213 10:09:56.445267 13516 net.cpp:157] Top shape: 1 256 14 14 (50176)
I1213 10:09:56.445269 13516 net.cpp:157] Top shape: 1 256 14 14 (50176)
I1213 10:09:56.445271 13516 net.cpp:165] Memory required for data: 125239332
I1213 10:09:56.445272 13516 layer_factory.hpp:77] Creating layer conv5_256_up
I1213 10:09:56.445278 13516 net.cpp:106] Creating Layer conv5_256_up
I1213 10:09:56.445281 13516 net.cpp:454] conv5_256_up <- conv5_256_conv5_256_relu_0_split_0
I1213 10:09:56.445284 13516 net.cpp:411] conv5_256_up -> conv5_256_up
I1213 10:09:56.445564 13516 net.cpp:150] Setting up conv5_256_up
I1213 10:09:56.445567 13516 net.cpp:157] Top shape: 1 256 28 28 (200704)
I1213 10:09:56.445569 13516 net.cpp:165] Memory required for data: 126042148
I1213 10:09:56.445572 13516 layer_factory.hpp:77] Creating layer conv4_256
I1213 10:09:56.445577 13516 net.cpp:106] Creating Layer conv4_256
I1213 10:09:56.445580 13516 net.cpp:454] conv4_256 <- conv4_3_relu4_3_0_split_1
I1213 10:09:56.445585 13516 net.cpp:411] conv4_256 -> conv4_256
I1213 10:09:56.447576 13516 net.cpp:150] Setting up conv4_256
I1213 10:09:56.447587 13516 net.cpp:157] Top shape: 1 256 28 28 (200704)
I1213 10:09:56.447588 13516 net.cpp:165] Memory required for data: 126844964
I1213 10:09:56.447593 13516 layer_factory.hpp:77] Creating layer conv4_256_relu
I1213 10:09:56.447600 13516 net.cpp:106] Creating Layer conv4_256_relu
I1213 10:09:56.447604 13516 net.cpp:454] conv4_256_relu <- conv4_256
I1213 10:09:56.447607 13516 net.cpp:397] conv4_256_relu -> conv4_256 (in-place)
I1213 10:09:56.447762 13516 net.cpp:150] Setting up conv4_256_relu
I1213 10:09:56.447767 13516 net.cpp:157] Top shape: 1 256 28 28 (200704)
I1213 10:09:56.447769 13516 net.cpp:165] Memory required for data: 127647780
I1213 10:09:56.447772 13516 layer_factory.hpp:77] Creating layer conv4_256_conv4_256_relu_0_split
I1213 10:09:56.447775 13516 net.cpp:106] Creating Layer conv4_256_conv4_256_relu_0_split
I1213 10:09:56.447777 13516 net.cpp:454] conv4_256_conv4_256_relu_0_split <- conv4_256
I1213 10:09:56.447782 13516 net.cpp:411] conv4_256_conv4_256_relu_0_split -> conv4_256_conv4_256_relu_0_split_0
I1213 10:09:56.447787 13516 net.cpp:411] conv4_256_conv4_256_relu_0_split -> conv4_256_conv4_256_relu_0_split_1
I1213 10:09:56.447818 13516 net.cpp:150] Setting up conv4_256_conv4_256_relu_0_split
I1213 10:09:56.447821 13516 net.cpp:157] Top shape: 1 256 28 28 (200704)
I1213 10:09:56.447824 13516 net.cpp:157] Top shape: 1 256 28 28 (200704)
I1213 10:09:56.447826 13516 net.cpp:165] Memory required for data: 129253412
I1213 10:09:56.447829 13516 layer_factory.hpp:77] Creating layer conv5_256_crop
I1213 10:09:56.447834 13516 net.cpp:106] Creating Layer conv5_256_crop
I1213 10:09:56.447837 13516 net.cpp:454] conv5_256_crop <- conv5_256_up
I1213 10:09:56.447840 13516 net.cpp:454] conv5_256_crop <- conv4_256_conv4_256_relu_0_split_0
I1213 10:09:56.447844 13516 net.cpp:411] conv5_256_crop -> conv5_256_crop
I1213 10:09:56.447923 13516 net.cpp:150] Setting up conv5_256_crop
I1213 10:09:56.447927 13516 net.cpp:157] Top shape: 1 256 28 28 (200704)
I1213 10:09:56.447929 13516 net.cpp:165] Memory required for data: 130056228
I1213 10:09:56.447932 13516 layer_factory.hpp:77] Creating layer conv4_fuse
I1213 10:09:56.447935 13516 net.cpp:106] Creating Layer conv4_fuse
I1213 10:09:56.447952 13516 net.cpp:454] conv4_fuse <- conv5_256_crop
I1213 10:09:56.447954 13516 net.cpp:454] conv4_fuse <- conv4_256_conv4_256_relu_0_split_1
I1213 10:09:56.447959 13516 net.cpp:411] conv4_fuse -> conv4_fuse
I1213 10:09:56.447976 13516 net.cpp:150] Setting up conv4_fuse
I1213 10:09:56.447980 13516 net.cpp:157] Top shape: 1 256 28 28 (200704)
I1213 10:09:56.447983 13516 net.cpp:165] Memory required for data: 130859044
I1213 10:09:56.447983 13516 layer_factory.hpp:77] Creating layer conv4_fuse_conv4_fuse_0_split
I1213 10:09:56.447986 13516 net.cpp:106] Creating Layer conv4_fuse_conv4_fuse_0_split
I1213 10:09:56.447989 13516 net.cpp:454] conv4_fuse_conv4_fuse_0_split <- conv4_fuse
I1213 10:09:56.447993 13516 net.cpp:411] conv4_fuse_conv4_fuse_0_split -> conv4_fuse_conv4_fuse_0_split_0
I1213 10:09:56.447998 13516 net.cpp:411] conv4_fuse_conv4_fuse_0_split -> conv4_fuse_conv4_fuse_0_split_1
I1213 10:09:56.448024 13516 net.cpp:150] Setting up conv4_fuse_conv4_fuse_0_split
I1213 10:09:56.448027 13516 net.cpp:157] Top shape: 1 256 28 28 (200704)
I1213 10:09:56.448029 13516 net.cpp:157] Top shape: 1 256 28 28 (200704)
I1213 10:09:56.448031 13516 net.cpp:165] Memory required for data: 132464676
I1213 10:09:56.448034 13516 layer_factory.hpp:77] Creating layer conv4_fuse_final
I1213 10:09:56.448040 13516 net.cpp:106] Creating Layer conv4_fuse_final
I1213 10:09:56.448043 13516 net.cpp:454] conv4_fuse_final <- conv4_fuse_conv4_fuse_0_split_0
I1213 10:09:56.448047 13516 net.cpp:411] conv4_fuse_final -> conv4_fuse_final
I1213 10:09:56.454530 13516 net.cpp:150] Setting up conv4_fuse_final
I1213 10:09:56.454551 13516 net.cpp:157] Top shape: 1 256 28 28 (200704)
I1213 10:09:56.454553 13516 net.cpp:165] Memory required for data: 133267492
I1213 10:09:56.454586 13516 layer_factory.hpp:77] Creating layer conv4_fuse_final_relu
I1213 10:09:56.454592 13516 net.cpp:106] Creating Layer conv4_fuse_final_relu
I1213 10:09:56.454596 13516 net.cpp:454] conv4_fuse_final_relu <- conv4_fuse_final
I1213 10:09:56.454603 13516 net.cpp:397] conv4_fuse_final_relu -> conv4_fuse_final (in-place)
I1213 10:09:56.454810 13516 net.cpp:150] Setting up conv4_fuse_final_relu
I1213 10:09:56.454816 13516 net.cpp:157] Top shape: 1 256 28 28 (200704)
I1213 10:09:56.454818 13516 net.cpp:165] Memory required for data: 134070308
I1213 10:09:56.454839 13516 layer_factory.hpp:77] Creating layer conv4_fuse_final_conv4_fuse_final_relu_0_split
I1213 10:09:56.454844 13516 net.cpp:106] Creating Layer conv4_fuse_final_conv4_fuse_final_relu_0_split
I1213 10:09:56.454847 13516 net.cpp:454] conv4_fuse_final_conv4_fuse_final_relu_0_split <- conv4_fuse_final
I1213 10:09:56.454851 13516 net.cpp:411] conv4_fuse_final_conv4_fuse_final_relu_0_split -> conv4_fuse_final_conv4_fuse_final_relu_0_split_0
I1213 10:09:56.454856 13516 net.cpp:411] conv4_fuse_final_conv4_fuse_final_relu_0_split -> conv4_fuse_final_conv4_fuse_final_relu_0_split_1
I1213 10:09:56.454862 13516 net.cpp:411] conv4_fuse_final_conv4_fuse_final_relu_0_split -> conv4_fuse_final_conv4_fuse_final_relu_0_split_2
I1213 10:09:56.454952 13516 net.cpp:150] Setting up conv4_fuse_final_conv4_fuse_final_relu_0_split
I1213 10:09:56.454957 13516 net.cpp:157] Top shape: 1 256 28 28 (200704)
I1213 10:09:56.454977 13516 net.cpp:157] Top shape: 1 256 28 28 (200704)
I1213 10:09:56.454980 13516 net.cpp:157] Top shape: 1 256 28 28 (200704)
I1213 10:09:56.454982 13516 net.cpp:165] Memory required for data: 136478756
I1213 10:09:56.454983 13516 layer_factory.hpp:77] Creating layer conv4_256_up
I1213 10:09:56.454988 13516 net.cpp:106] Creating Layer conv4_256_up
I1213 10:09:56.454990 13516 net.cpp:454] conv4_256_up <- conv4_fuse_conv4_fuse_0_split_1
I1213 10:09:56.454995 13516 net.cpp:411] conv4_256_up -> conv4_256_up
I1213 10:09:56.455299 13516 net.cpp:150] Setting up conv4_256_up
I1213 10:09:56.455305 13516 net.cpp:157] Top shape: 1 256 56 56 (802816)
I1213 10:09:56.455308 13516 net.cpp:165] Memory required for data: 139690020
I1213 10:09:56.455312 13516 layer_factory.hpp:77] Creating layer conv3_256
I1213 10:09:56.455318 13516 net.cpp:106] Creating Layer conv3_256
I1213 10:09:56.455322 13516 net.cpp:454] conv3_256 <- conv3_3_relu3_3_0_split_1
I1213 10:09:56.455325 13516 net.cpp:411] conv3_256 -> conv3_256
I1213 10:09:56.456848 13516 net.cpp:150] Setting up conv3_256
I1213 10:09:56.456905 13516 net.cpp:157] Top shape: 1 256 56 56 (802816)
I1213 10:09:56.456907 13516 net.cpp:165] Memory required for data: 142901284
I1213 10:09:56.456914 13516 layer_factory.hpp:77] Creating layer conv3_256_relu
I1213 10:09:56.456920 13516 net.cpp:106] Creating Layer conv3_256_relu
I1213 10:09:56.456925 13516 net.cpp:454] conv3_256_relu <- conv3_256
I1213 10:09:56.456929 13516 net.cpp:397] conv3_256_relu -> conv3_256 (in-place)
I1213 10:09:56.457077 13516 net.cpp:150] Setting up conv3_256_relu
I1213 10:09:56.457082 13516 net.cpp:157] Top shape: 1 256 56 56 (802816)
I1213 10:09:56.457084 13516 net.cpp:165] Memory required for data: 146112548
I1213 10:09:56.457087 13516 layer_factory.hpp:77] Creating layer conv3_256_conv3_256_relu_0_split
I1213 10:09:56.457090 13516 net.cpp:106] Creating Layer conv3_256_conv3_256_relu_0_split
I1213 10:09:56.457093 13516 net.cpp:454] conv3_256_conv3_256_relu_0_split <- conv3_256
I1213 10:09:56.457096 13516 net.cpp:411] conv3_256_conv3_256_relu_0_split -> conv3_256_conv3_256_relu_0_split_0
I1213 10:09:56.457101 13516 net.cpp:411] conv3_256_conv3_256_relu_0_split -> conv3_256_conv3_256_relu_0_split_1
I1213 10:09:56.457137 13516 net.cpp:150] Setting up conv3_256_conv3_256_relu_0_split
I1213 10:09:56.457140 13516 net.cpp:157] Top shape: 1 256 56 56 (802816)
I1213 10:09:56.457142 13516 net.cpp:157] Top shape: 1 256 56 56 (802816)
I1213 10:09:56.457144 13516 net.cpp:165] Memory required for data: 152535076
I1213 10:09:56.457146 13516 layer_factory.hpp:77] Creating layer conv4_256_crop
I1213 10:09:56.457151 13516 net.cpp:106] Creating Layer conv4_256_crop
I1213 10:09:56.457155 13516 net.cpp:454] conv4_256_crop <- conv4_256_up
I1213 10:09:56.457157 13516 net.cpp:454] conv4_256_crop <- conv3_256_conv3_256_relu_0_split_0
I1213 10:09:56.457162 13516 net.cpp:411] conv4_256_crop -> conv4_256_crop
I1213 10:09:56.457284 13516 net.cpp:150] Setting up conv4_256_crop
I1213 10:09:56.457295 13516 net.cpp:157] Top shape: 1 256 56 56 (802816)
I1213 10:09:56.457298 13516 net.cpp:165] Memory required for data: 155746340
I1213 10:09:56.457311 13516 layer_factory.hpp:77] Creating layer conv3_fuse
I1213 10:09:56.457326 13516 net.cpp:106] Creating Layer conv3_fuse
I1213 10:09:56.457329 13516 net.cpp:454] conv3_fuse <- conv4_256_crop
I1213 10:09:56.457332 13516 net.cpp:454] conv3_fuse <- conv3_256_conv3_256_relu_0_split_1
I1213 10:09:56.457337 13516 net.cpp:411] conv3_fuse -> conv3_fuse
I1213 10:09:56.457379 13516 net.cpp:150] Setting up conv3_fuse
I1213 10:09:56.457394 13516 net.cpp:157] Top shape: 1 256 56 56 (802816)
I1213 10:09:56.457397 13516 net.cpp:165] Memory required for data: 158957604
I1213 10:09:56.457399 13516 layer_factory.hpp:77] Creating layer conv3_fuse_final
I1213 10:09:56.457423 13516 net.cpp:106] Creating Layer conv3_fuse_final
I1213 10:09:56.457429 13516 net.cpp:454] conv3_fuse_final <- conv3_fuse
I1213 10:09:56.457437 13516 net.cpp:411] conv3_fuse_final -> conv3_fuse_final
I1213 10:09:56.466532 13516 net.cpp:150] Setting up conv3_fuse_final
I1213 10:09:56.466550 13516 net.cpp:157] Top shape: 1 256 56 56 (802816)
I1213 10:09:56.466552 13516 net.cpp:165] Memory required for data: 162168868
I1213 10:09:56.466559 13516 layer_factory.hpp:77] Creating layer conv3_fuse_final_relu
I1213 10:09:56.466567 13516 net.cpp:106] Creating Layer conv3_fuse_final_relu
I1213 10:09:56.466570 13516 net.cpp:454] conv3_fuse_final_relu <- conv3_fuse_final
I1213 10:09:56.466575 13516 net.cpp:397] conv3_fuse_final_relu -> conv3_fuse_final (in-place)
I1213 10:09:56.466727 13516 net.cpp:150] Setting up conv3_fuse_final_relu
I1213 10:09:56.466732 13516 net.cpp:157] Top shape: 1 256 56 56 (802816)
I1213 10:09:56.466733 13516 net.cpp:165] Memory required for data: 165380132
I1213 10:09:56.466735 13516 layer_factory.hpp:77] Creating layer conv3_fuse_final_conv3_fuse_final_relu_0_split
I1213 10:09:56.466742 13516 net.cpp:106] Creating Layer conv3_fuse_final_conv3_fuse_final_relu_0_split
I1213 10:09:56.466744 13516 net.cpp:454] conv3_fuse_final_conv3_fuse_final_relu_0_split <- conv3_fuse_final
I1213 10:09:56.466748 13516 net.cpp:411] conv3_fuse_final_conv3_fuse_final_relu_0_split -> conv3_fuse_final_conv3_fuse_final_relu_0_split_0
I1213 10:09:56.466754 13516 net.cpp:411] conv3_fuse_final_conv3_fuse_final_relu_0_split -> conv3_fuse_final_conv3_fuse_final_relu_0_split_1
I1213 10:09:56.466758 13516 net.cpp:411] conv3_fuse_final_conv3_fuse_final_relu_0_split -> conv3_fuse_final_conv3_fuse_final_relu_0_split_2
I1213 10:09:56.466804 13516 net.cpp:150] Setting up conv3_fuse_final_conv3_fuse_final_relu_0_split
I1213 10:09:56.466809 13516 net.cpp:157] Top shape: 1 256 56 56 (802816)
I1213 10:09:56.466811 13516 net.cpp:157] Top shape: 1 256 56 56 (802816)
I1213 10:09:56.466814 13516 net.cpp:157] Top shape: 1 256 56 56 (802816)
I1213 10:09:56.466814 13516 net.cpp:165] Memory required for data: 175013924
I1213 10:09:56.466816 13516 layer_factory.hpp:77] Creating layer rpn_conv/3x3/p3
I1213 10:09:56.466825 13516 net.cpp:106] Creating Layer rpn_conv/3x3/p3
I1213 10:09:56.466827 13516 net.cpp:454] rpn_conv/3x3/p3 <- conv3_fuse_final_conv3_fuse_final_relu_0_split_0
I1213 10:09:56.466831 13516 net.cpp:411] rpn_conv/3x3/p3 -> rpn_conv/3x3_output/p3
I1213 10:09:56.472918 13516 net.cpp:150] Setting up rpn_conv/3x3/p3
I1213 10:09:56.472932 13516 net.cpp:157] Top shape: 1 256 56 56 (802816)
I1213 10:09:56.472934 13516 net.cpp:165] Memory required for data: 178225188
I1213 10:09:56.472939 13516 layer_factory.hpp:77] Creating layer rpn_dimred/3x3/p3
I1213 10:09:56.472947 13516 net.cpp:106] Creating Layer rpn_dimred/3x3/p3
I1213 10:09:56.472950 13516 net.cpp:454] rpn_dimred/3x3/p3 <- conv3_fuse_final_conv3_fuse_final_relu_0_split_1
I1213 10:09:56.472954 13516 net.cpp:411] rpn_dimred/3x3/p3 -> rpn_dimred_output/p3
I1213 10:09:56.476728 13516 net.cpp:150] Setting up rpn_dimred/3x3/p3
I1213 10:09:56.476740 13516 net.cpp:157] Top shape: 1 128 56 56 (401408)
I1213 10:09:56.476742 13516 net.cpp:165] Memory required for data: 179830820
I1213 10:09:56.476747 13516 layer_factory.hpp:77] Creating layer rpn_dimred_relu/p3
I1213 10:09:56.476753 13516 net.cpp:106] Creating Layer rpn_dimred_relu/p3
I1213 10:09:56.476755 13516 net.cpp:454] rpn_dimred_relu/p3 <- rpn_dimred_output/p3
I1213 10:09:56.476759 13516 net.cpp:397] rpn_dimred_relu/p3 -> rpn_dimred_output/p3 (in-place)
I1213 10:09:56.476902 13516 net.cpp:150] Setting up rpn_dimred_relu/p3
I1213 10:09:56.476907 13516 net.cpp:157] Top shape: 1 128 56 56 (401408)
I1213 10:09:56.476909 13516 net.cpp:165] Memory required for data: 181436452
I1213 10:09:56.476912 13516 layer_factory.hpp:77] Creating layer rpn_dimred_output/p3_rpn_dimred_relu/p3_0_split
I1213 10:09:56.476915 13516 net.cpp:106] Creating Layer rpn_dimred_output/p3_rpn_dimred_relu/p3_0_split
I1213 10:09:56.476917 13516 net.cpp:454] rpn_dimred_output/p3_rpn_dimred_relu/p3_0_split <- rpn_dimred_output/p3
I1213 10:09:56.476922 13516 net.cpp:411] rpn_dimred_output/p3_rpn_dimred_relu/p3_0_split -> rpn_dimred_output/p3_rpn_dimred_relu/p3_0_split_0
I1213 10:09:56.476925 13516 net.cpp:411] rpn_dimred_output/p3_rpn_dimred_relu/p3_0_split -> rpn_dimred_output/p3_rpn_dimred_relu/p3_0_split_1
I1213 10:09:56.476960 13516 net.cpp:150] Setting up rpn_dimred_output/p3_rpn_dimred_relu/p3_0_split
I1213 10:09:56.476964 13516 net.cpp:157] Top shape: 1 128 56 56 (401408)
I1213 10:09:56.476966 13516 net.cpp:157] Top shape: 1 128 56 56 (401408)
I1213 10:09:56.476969 13516 net.cpp:165] Memory required for data: 184647716
I1213 10:09:56.476970 13516 layer_factory.hpp:77] Creating layer rpn_conv/5x5/p3
I1213 10:09:56.476976 13516 net.cpp:106] Creating Layer rpn_conv/5x5/p3
I1213 10:09:56.476979 13516 net.cpp:454] rpn_conv/5x5/p3 <- rpn_dimred_output/p3_rpn_dimred_relu/p3_0_split_0
I1213 10:09:56.476984 13516 net.cpp:411] rpn_conv/5x5/p3 -> rpn_conv/5x5_output/p3
I1213 10:09:56.479148 13516 net.cpp:150] Setting up rpn_conv/5x5/p3
I1213 10:09:56.479156 13516 net.cpp:157] Top shape: 1 128 56 56 (401408)
I1213 10:09:56.479158 13516 net.cpp:165] Memory required for data: 186253348
I1213 10:09:56.479163 13516 layer_factory.hpp:77] Creating layer rpn_conv/7x7-1/p3
I1213 10:09:56.479169 13516 net.cpp:106] Creating Layer rpn_conv/7x7-1/p3
I1213 10:09:56.479172 13516 net.cpp:454] rpn_conv/7x7-1/p3 <- rpn_dimred_output/p3_rpn_dimred_relu/p3_0_split_1
I1213 10:09:56.479177 13516 net.cpp:411] rpn_conv/7x7-1/p3 -> rpn_conv/7x7-1_out/p3
I1213 10:09:56.481387 13516 net.cpp:150] Setting up rpn_conv/7x7-1/p3
I1213 10:09:56.481397 13516 net.cpp:157] Top shape: 1 128 56 56 (401408)
I1213 10:09:56.481400 13516 net.cpp:165] Memory required for data: 187858980
I1213 10:09:56.481403 13516 layer_factory.hpp:77] Creating layer rpn_relu/7x7-1/p3
I1213 10:09:56.481407 13516 net.cpp:106] Creating Layer rpn_relu/7x7-1/p3
I1213 10:09:56.481410 13516 net.cpp:454] rpn_relu/7x7-1/p3 <- rpn_conv/7x7-1_out/p3
I1213 10:09:56.481413 13516 net.cpp:397] rpn_relu/7x7-1/p3 -> rpn_conv/7x7-1_out/p3 (in-place)
I1213 10:09:56.481554 13516 net.cpp:150] Setting up rpn_relu/7x7-1/p3
I1213 10:09:56.481560 13516 net.cpp:157] Top shape: 1 128 56 56 (401408)
I1213 10:09:56.481562 13516 net.cpp:165] Memory required for data: 189464612
I1213 10:09:56.481564 13516 layer_factory.hpp:77] Creating layer rpn_conv/7x7/p3
I1213 10:09:56.481570 13516 net.cpp:106] Creating Layer rpn_conv/7x7/p3
I1213 10:09:56.481572 13516 net.cpp:454] rpn_conv/7x7/p3 <- rpn_conv/7x7-1_out/p3
I1213 10:09:56.481576 13516 net.cpp:411] rpn_conv/7x7/p3 -> rpn_conv/7x7_output/p3
I1213 10:09:56.484359 13516 net.cpp:150] Setting up rpn_conv/7x7/p3
I1213 10:09:56.484370 13516 net.cpp:157] Top shape: 1 128 56 56 (401408)
I1213 10:09:56.484372 13516 net.cpp:165] Memory required for data: 191070244
I1213 10:09:56.484376 13516 layer_factory.hpp:77] Creating layer rpn_conv/357/p3
I1213 10:09:56.484381 13516 net.cpp:106] Creating Layer rpn_conv/357/p3
I1213 10:09:56.484385 13516 net.cpp:454] rpn_conv/357/p3 <- rpn_conv/3x3_output/p3
I1213 10:09:56.484387 13516 net.cpp:454] rpn_conv/357/p3 <- rpn_conv/5x5_output/p3
I1213 10:09:56.484390 13516 net.cpp:454] rpn_conv/357/p3 <- rpn_conv/7x7_output/p3
I1213 10:09:56.484395 13516 net.cpp:411] rpn_conv/357/p3 -> rpn_conv/357_output/p3
I1213 10:09:56.484417 13516 net.cpp:150] Setting up rpn_conv/357/p3
I1213 10:09:56.484421 13516 net.cpp:157] Top shape: 1 512 56 56 (1605632)
I1213 10:09:56.484422 13516 net.cpp:165] Memory required for data: 197492772
I1213 10:09:56.484423 13516 layer_factory.hpp:77] Creating layer rpn_relu/357/p3
I1213 10:09:56.484436 13516 net.cpp:106] Creating Layer rpn_relu/357/p3
I1213 10:09:56.484438 13516 net.cpp:454] rpn_relu/357/p3 <- rpn_conv/357_output/p3
I1213 10:09:56.484441 13516 net.cpp:397] rpn_relu/357/p3 -> rpn_conv/357_output/p3 (in-place)
I1213 10:09:56.484853 13516 net.cpp:150] Setting up rpn_relu/357/p3
I1213 10:09:56.484859 13516 net.cpp:157] Top shape: 1 512 56 56 (1605632)
I1213 10:09:56.484861 13516 net.cpp:165] Memory required for data: 203915300
I1213 10:09:56.484863 13516 layer_factory.hpp:77] Creating layer rpn_conv/357_output/p3_rpn_relu/357/p3_0_split
I1213 10:09:56.484869 13516 net.cpp:106] Creating Layer rpn_conv/357_output/p3_rpn_relu/357/p3_0_split
I1213 10:09:56.484870 13516 net.cpp:454] rpn_conv/357_output/p3_rpn_relu/357/p3_0_split <- rpn_conv/357_output/p3
I1213 10:09:56.484874 13516 net.cpp:411] rpn_conv/357_output/p3_rpn_relu/357/p3_0_split -> rpn_conv/357_output/p3_rpn_relu/357/p3_0_split_0
I1213 10:09:56.484879 13516 net.cpp:411] rpn_conv/357_output/p3_rpn_relu/357/p3_0_split -> rpn_conv/357_output/p3_rpn_relu/357/p3_0_split_1
I1213 10:09:56.484912 13516 net.cpp:150] Setting up rpn_conv/357_output/p3_rpn_relu/357/p3_0_split
I1213 10:09:56.484916 13516 net.cpp:157] Top shape: 1 512 56 56 (1605632)
I1213 10:09:56.484918 13516 net.cpp:157] Top shape: 1 512 56 56 (1605632)
I1213 10:09:56.484920 13516 net.cpp:165] Memory required for data: 216760356
I1213 10:09:56.484921 13516 layer_factory.hpp:77] Creating layer rpn_cls_score/p3
I1213 10:09:56.484928 13516 net.cpp:106] Creating Layer rpn_cls_score/p3
I1213 10:09:56.484931 13516 net.cpp:454] rpn_cls_score/p3 <- rpn_conv/357_output/p3_rpn_relu/357/p3_0_split_0
I1213 10:09:56.484936 13516 net.cpp:411] rpn_cls_score/p3 -> rpn_cls_score/p3
I1213 10:09:56.485908 13516 net.cpp:150] Setting up rpn_cls_score/p3
I1213 10:09:56.485915 13516 net.cpp:157] Top shape: 1 12 56 56 (37632)
I1213 10:09:56.485918 13516 net.cpp:165] Memory required for data: 216910884
I1213 10:09:56.485921 13516 layer_factory.hpp:77] Creating layer rpn_bbox_pred/p3
I1213 10:09:56.485930 13516 net.cpp:106] Creating Layer rpn_bbox_pred/p3
I1213 10:09:56.485932 13516 net.cpp:454] rpn_bbox_pred/p3 <- rpn_conv/357_output/p3_rpn_relu/357/p3_0_split_1
I1213 10:09:56.485936 13516 net.cpp:411] rpn_bbox_pred/p3 -> rpn_bbox_pred/p3
I1213 10:09:56.486634 13516 net.cpp:150] Setting up rpn_bbox_pred/p3
I1213 10:09:56.486641 13516 net.cpp:157] Top shape: 1 24 56 56 (75264)
I1213 10:09:56.486644 13516 net.cpp:165] Memory required for data: 217211940
I1213 10:09:56.486646 13516 layer_factory.hpp:77] Creating layer rpn_cls_score_reshape/p3
I1213 10:09:56.486652 13516 net.cpp:106] Creating Layer rpn_cls_score_reshape/p3
I1213 10:09:56.486654 13516 net.cpp:454] rpn_cls_score_reshape/p3 <- rpn_cls_score/p3
I1213 10:09:56.486659 13516 net.cpp:411] rpn_cls_score_reshape/p3 -> rpn_cls_score_reshape/p3
I1213 10:09:56.486683 13516 net.cpp:150] Setting up rpn_cls_score_reshape/p3
I1213 10:09:56.486687 13516 net.cpp:157] Top shape: 1 2 336 56 (37632)
I1213 10:09:56.486688 13516 net.cpp:165] Memory required for data: 217362468
I1213 10:09:56.486690 13516 layer_factory.hpp:77] Creating layer rpn_cls_prob/p3
I1213 10:09:56.486694 13516 net.cpp:106] Creating Layer rpn_cls_prob/p3
I1213 10:09:56.486696 13516 net.cpp:454] rpn_cls_prob/p3 <- rpn_cls_score_reshape/p3
I1213 10:09:56.486701 13516 net.cpp:411] rpn_cls_prob/p3 -> rpn_cls_prob/p3
I1213 10:09:56.487167 13516 net.cpp:150] Setting up rpn_cls_prob/p3
I1213 10:09:56.487175 13516 net.cpp:157] Top shape: 1 2 336 56 (37632)
I1213 10:09:56.487177 13516 net.cpp:165] Memory required for data: 217512996
I1213 10:09:56.487179 13516 layer_factory.hpp:77] Creating layer rpn_cls_prob_reshape/p3
I1213 10:09:56.487185 13516 net.cpp:106] Creating Layer rpn_cls_prob_reshape/p3
I1213 10:09:56.487186 13516 net.cpp:454] rpn_cls_prob_reshape/p3 <- rpn_cls_prob/p3
I1213 10:09:56.487190 13516 net.cpp:411] rpn_cls_prob_reshape/p3 -> rpn_cls_prob_reshape/p3
I1213 10:09:56.487215 13516 net.cpp:150] Setting up rpn_cls_prob_reshape/p3
I1213 10:09:56.487220 13516 net.cpp:157] Top shape: 1 12 56 56 (37632)
I1213 10:09:56.487221 13516 net.cpp:165] Memory required for data: 217663524
I1213 10:09:56.487222 13516 layer_factory.hpp:77] Creating layer proposal/p3
I1213 10:09:56.487733 13516 net.cpp:106] Creating Layer proposal/p3
I1213 10:09:56.487742 13516 net.cpp:454] proposal/p3 <- rpn_cls_prob_reshape/p3
I1213 10:09:56.487746 13516 net.cpp:454] proposal/p3 <- rpn_bbox_pred/p3
I1213 10:09:56.487747 13516 net.cpp:454] proposal/p3 <- im_info_input_1_split_0
I1213 10:09:56.487751 13516 net.cpp:411] proposal/p3 -> rois/p3
I1213 10:09:56.488860 13516 net.cpp:150] Setting up proposal/p3
I1213 10:09:56.488874 13516 net.cpp:157] Top shape: 1 5 (5)
I1213 10:09:56.488878 13516 net.cpp:165] Memory required for data: 217663544
I1213 10:09:56.488879 13516 layer_factory.hpp:77] Creating layer rpn_conv/3x3/p4
I1213 10:09:56.488888 13516 net.cpp:106] Creating Layer rpn_conv/3x3/p4
I1213 10:09:56.488891 13516 net.cpp:454] rpn_conv/3x3/p4 <- conv4_fuse_final_conv4_fuse_final_relu_0_split_0
I1213 10:09:56.488898 13516 net.cpp:411] rpn_conv/3x3/p4 -> rpn_conv/3x3_output/p4
I1213 10:09:56.496425 13516 net.cpp:150] Setting up rpn_conv/3x3/p4
I1213 10:09:56.496443 13516 net.cpp:157] Top shape: 1 256 28 28 (200704)
I1213 10:09:56.496444 13516 net.cpp:165] Memory required for data: 218466360
I1213 10:09:56.496450 13516 layer_factory.hpp:77] Creating layer rpn_dimred/3x3/p4
I1213 10:09:56.496460 13516 net.cpp:106] Creating Layer rpn_dimred/3x3/p4
I1213 10:09:56.496464 13516 net.cpp:454] rpn_dimred/3x3/p4 <- conv4_fuse_final_conv4_fuse_final_relu_0_split_1
I1213 10:09:56.496469 13516 net.cpp:411] rpn_dimred/3x3/p4 -> rpn_dimred_output/p4
I1213 10:09:56.499756 13516 net.cpp:150] Setting up rpn_dimred/3x3/p4
I1213 10:09:56.499766 13516 net.cpp:157] Top shape: 1 128 28 28 (100352)
I1213 10:09:56.499768 13516 net.cpp:165] Memory required for data: 218867768
I1213 10:09:56.499773 13516 layer_factory.hpp:77] Creating layer rpn_dimred_relu/p4
I1213 10:09:56.499778 13516 net.cpp:106] Creating Layer rpn_dimred_relu/p4
I1213 10:09:56.499780 13516 net.cpp:454] rpn_dimred_relu/p4 <- rpn_dimred_output/p4
I1213 10:09:56.499783 13516 net.cpp:397] rpn_dimred_relu/p4 -> rpn_dimred_output/p4 (in-place)
I1213 10:09:56.499935 13516 net.cpp:150] Setting up rpn_dimred_relu/p4
I1213 10:09:56.499941 13516 net.cpp:157] Top shape: 1 128 28 28 (100352)
I1213 10:09:56.499943 13516 net.cpp:165] Memory required for data: 219269176
I1213 10:09:56.499945 13516 layer_factory.hpp:77] Creating layer rpn_dimred_output/p4_rpn_dimred_relu/p4_0_split
I1213 10:09:56.499948 13516 net.cpp:106] Creating Layer rpn_dimred_output/p4_rpn_dimred_relu/p4_0_split
I1213 10:09:56.499950 13516 net.cpp:454] rpn_dimred_output/p4_rpn_dimred_relu/p4_0_split <- rpn_dimred_output/p4
I1213 10:09:56.499954 13516 net.cpp:411] rpn_dimred_output/p4_rpn_dimred_relu/p4_0_split -> rpn_dimred_output/p4_rpn_dimred_relu/p4_0_split_0
I1213 10:09:56.499959 13516 net.cpp:411] rpn_dimred_output/p4_rpn_dimred_relu/p4_0_split -> rpn_dimred_output/p4_rpn_dimred_relu/p4_0_split_1
I1213 10:09:56.499994 13516 net.cpp:150] Setting up rpn_dimred_output/p4_rpn_dimred_relu/p4_0_split
I1213 10:09:56.499997 13516 net.cpp:157] Top shape: 1 128 28 28 (100352)
I1213 10:09:56.500000 13516 net.cpp:157] Top shape: 1 128 28 28 (100352)
I1213 10:09:56.500001 13516 net.cpp:165] Memory required for data: 220071992
I1213 10:09:56.500003 13516 layer_factory.hpp:77] Creating layer rpn_conv/5x5/p4
I1213 10:09:56.500010 13516 net.cpp:106] Creating Layer rpn_conv/5x5/p4
I1213 10:09:56.500012 13516 net.cpp:454] rpn_conv/5x5/p4 <- rpn_dimred_output/p4_rpn_dimred_relu/p4_0_split_0
I1213 10:09:56.500017 13516 net.cpp:411] rpn_conv/5x5/p4 -> rpn_conv/5x5_output/p4
I1213 10:09:56.502806 13516 net.cpp:150] Setting up rpn_conv/5x5/p4
I1213 10:09:56.502817 13516 net.cpp:157] Top shape: 1 128 28 28 (100352)
I1213 10:09:56.502820 13516 net.cpp:165] Memory required for data: 220473400
I1213 10:09:56.502825 13516 layer_factory.hpp:77] Creating layer rpn_conv/7x7-1/p4
I1213 10:09:56.502830 13516 net.cpp:106] Creating Layer rpn_conv/7x7-1/p4
I1213 10:09:56.502833 13516 net.cpp:454] rpn_conv/7x7-1/p4 <- rpn_dimred_output/p4_rpn_dimred_relu/p4_0_split_1
I1213 10:09:56.502838 13516 net.cpp:411] rpn_conv/7x7-1/p4 -> rpn_conv/7x7-1_out/p4
I1213 10:09:56.505048 13516 net.cpp:150] Setting up rpn_conv/7x7-1/p4
I1213 10:09:56.505056 13516 net.cpp:157] Top shape: 1 128 28 28 (100352)
I1213 10:09:56.505059 13516 net.cpp:165] Memory required for data: 220874808
I1213 10:09:56.505062 13516 layer_factory.hpp:77] Creating layer rpn_relu/7x7-1/p4
I1213 10:09:56.505066 13516 net.cpp:106] Creating Layer rpn_relu/7x7-1/p4
I1213 10:09:56.505069 13516 net.cpp:454] rpn_relu/7x7-1/p4 <- rpn_conv/7x7-1_out/p4
I1213 10:09:56.505074 13516 net.cpp:397] rpn_relu/7x7-1/p4 -> rpn_conv/7x7-1_out/p4 (in-place)
I1213 10:09:56.505218 13516 net.cpp:150] Setting up rpn_relu/7x7-1/p4
I1213 10:09:56.505223 13516 net.cpp:157] Top shape: 1 128 28 28 (100352)
I1213 10:09:56.505225 13516 net.cpp:165] Memory required for data: 221276216
I1213 10:09:56.505228 13516 layer_factory.hpp:77] Creating layer rpn_conv/7x7/p4
I1213 10:09:56.505234 13516 net.cpp:106] Creating Layer rpn_conv/7x7/p4
I1213 10:09:56.505236 13516 net.cpp:454] rpn_conv/7x7/p4 <- rpn_conv/7x7-1_out/p4
I1213 10:09:56.505241 13516 net.cpp:411] rpn_conv/7x7/p4 -> rpn_conv/7x7_output/p4
I1213 10:09:56.507468 13516 net.cpp:150] Setting up rpn_conv/7x7/p4
I1213 10:09:56.507478 13516 net.cpp:157] Top shape: 1 128 28 28 (100352)
I1213 10:09:56.507480 13516 net.cpp:165] Memory required for data: 221677624
I1213 10:09:56.507484 13516 layer_factory.hpp:77] Creating layer rpn_conv/357/p4
I1213 10:09:56.507489 13516 net.cpp:106] Creating Layer rpn_conv/357/p4
I1213 10:09:56.507491 13516 net.cpp:454] rpn_conv/357/p4 <- rpn_conv/3x3_output/p4
I1213 10:09:56.507494 13516 net.cpp:454] rpn_conv/357/p4 <- rpn_conv/5x5_output/p4
I1213 10:09:56.507498 13516 net.cpp:454] rpn_conv/357/p4 <- rpn_conv/7x7_output/p4
I1213 10:09:56.507500 13516 net.cpp:411] rpn_conv/357/p4 -> rpn_conv/357_output/p4
I1213 10:09:56.507524 13516 net.cpp:150] Setting up rpn_conv/357/p4
I1213 10:09:56.507529 13516 net.cpp:157] Top shape: 1 512 28 28 (401408)
I1213 10:09:56.507530 13516 net.cpp:165] Memory required for data: 223283256
I1213 10:09:56.507532 13516 layer_factory.hpp:77] Creating layer rpn_relu/357/p4
I1213 10:09:56.507536 13516 net.cpp:106] Creating Layer rpn_relu/357/p4
I1213 10:09:56.507539 13516 net.cpp:454] rpn_relu/357/p4 <- rpn_conv/357_output/p4
I1213 10:09:56.507542 13516 net.cpp:397] rpn_relu/357/p4 -> rpn_conv/357_output/p4 (in-place)
I1213 10:09:56.507686 13516 net.cpp:150] Setting up rpn_relu/357/p4
I1213 10:09:56.507692 13516 net.cpp:157] Top shape: 1 512 28 28 (401408)
I1213 10:09:56.507694 13516 net.cpp:165] Memory required for data: 224888888
I1213 10:09:56.507696 13516 layer_factory.hpp:77] Creating layer rpn_conv/357_output/p4_rpn_relu/357/p4_0_split
I1213 10:09:56.507700 13516 net.cpp:106] Creating Layer rpn_conv/357_output/p4_rpn_relu/357/p4_0_split
I1213 10:09:56.507702 13516 net.cpp:454] rpn_conv/357_output/p4_rpn_relu/357/p4_0_split <- rpn_conv/357_output/p4
I1213 10:09:56.507705 13516 net.cpp:411] rpn_conv/357_output/p4_rpn_relu/357/p4_0_split -> rpn_conv/357_output/p4_rpn_relu/357/p4_0_split_0
I1213 10:09:56.507710 13516 net.cpp:411] rpn_conv/357_output/p4_rpn_relu/357/p4_0_split -> rpn_conv/357_output/p4_rpn_relu/357/p4_0_split_1
I1213 10:09:56.507743 13516 net.cpp:150] Setting up rpn_conv/357_output/p4_rpn_relu/357/p4_0_split
I1213 10:09:56.507747 13516 net.cpp:157] Top shape: 1 512 28 28 (401408)
I1213 10:09:56.507750 13516 net.cpp:157] Top shape: 1 512 28 28 (401408)
I1213 10:09:56.507751 13516 net.cpp:165] Memory required for data: 228100152
I1213 10:09:56.507753 13516 layer_factory.hpp:77] Creating layer rpn_cls_score/p4
I1213 10:09:56.507761 13516 net.cpp:106] Creating Layer rpn_cls_score/p4
I1213 10:09:56.507763 13516 net.cpp:454] rpn_cls_score/p4 <- rpn_conv/357_output/p4_rpn_relu/357/p4_0_split_0
I1213 10:09:56.507767 13516 net.cpp:411] rpn_cls_score/p4 -> rpn_cls_score/p4
I1213 10:09:56.508749 13516 net.cpp:150] Setting up rpn_cls_score/p4
I1213 10:09:56.508759 13516 net.cpp:157] Top shape: 1 12 28 28 (9408)
I1213 10:09:56.508760 13516 net.cpp:165] Memory required for data: 228137784
I1213 10:09:56.508764 13516 layer_factory.hpp:77] Creating layer rpn_bbox_pred/p4
I1213 10:09:56.508771 13516 net.cpp:106] Creating Layer rpn_bbox_pred/p4
I1213 10:09:56.508774 13516 net.cpp:454] rpn_bbox_pred/p4 <- rpn_conv/357_output/p4_rpn_relu/357/p4_0_split_1
I1213 10:09:56.508779 13516 net.cpp:411] rpn_bbox_pred/p4 -> rpn_bbox_pred/p4
I1213 10:09:56.510047 13516 net.cpp:150] Setting up rpn_bbox_pred/p4
I1213 10:09:56.510056 13516 net.cpp:157] Top shape: 1 24 28 28 (18816)
I1213 10:09:56.510057 13516 net.cpp:165] Memory required for data: 228213048
I1213 10:09:56.510067 13516 layer_factory.hpp:77] Creating layer rpn_cls_score_reshape/p4
I1213 10:09:56.510073 13516 net.cpp:106] Creating Layer rpn_cls_score_reshape/p4
I1213 10:09:56.510076 13516 net.cpp:454] rpn_cls_score_reshape/p4 <- rpn_cls_score/p4
I1213 10:09:56.510079 13516 net.cpp:411] rpn_cls_score_reshape/p4 -> rpn_cls_score_reshape/p4
I1213 10:09:56.510103 13516 net.cpp:150] Setting up rpn_cls_score_reshape/p4
I1213 10:09:56.510108 13516 net.cpp:157] Top shape: 1 2 168 28 (9408)
I1213 10:09:56.510109 13516 net.cpp:165] Memory required for data: 228250680
I1213 10:09:56.510112 13516 layer_factory.hpp:77] Creating layer rpn_cls_prob/p4
I1213 10:09:56.510115 13516 net.cpp:106] Creating Layer rpn_cls_prob/p4
I1213 10:09:56.510118 13516 net.cpp:454] rpn_cls_prob/p4 <- rpn_cls_score_reshape/p4
I1213 10:09:56.510123 13516 net.cpp:411] rpn_cls_prob/p4 -> rpn_cls_prob/p4
I1213 10:09:56.510311 13516 net.cpp:150] Setting up rpn_cls_prob/p4
I1213 10:09:56.510318 13516 net.cpp:157] Top shape: 1 2 168 28 (9408)
I1213 10:09:56.510319 13516 net.cpp:165] Memory required for data: 228288312
I1213 10:09:56.510321 13516 layer_factory.hpp:77] Creating layer rpn_cls_prob_reshape/p4
I1213 10:09:56.510326 13516 net.cpp:106] Creating Layer rpn_cls_prob_reshape/p4
I1213 10:09:56.510329 13516 net.cpp:454] rpn_cls_prob_reshape/p4 <- rpn_cls_prob/p4
I1213 10:09:56.510334 13516 net.cpp:411] rpn_cls_prob_reshape/p4 -> rpn_cls_prob_reshape/p4
I1213 10:09:56.510351 13516 net.cpp:150] Setting up rpn_cls_prob_reshape/p4
I1213 10:09:56.510354 13516 net.cpp:157] Top shape: 1 12 28 28 (9408)
I1213 10:09:56.510356 13516 net.cpp:165] Memory required for data: 228325944
I1213 10:09:56.510359 13516 layer_factory.hpp:77] Creating layer proposal/p4
I1213 10:09:56.510399 13516 net.cpp:106] Creating Layer proposal/p4
I1213 10:09:56.510403 13516 net.cpp:454] proposal/p4 <- rpn_cls_prob_reshape/p4
I1213 10:09:56.510406 13516 net.cpp:454] proposal/p4 <- rpn_bbox_pred/p4
I1213 10:09:56.510408 13516 net.cpp:454] proposal/p4 <- im_info_input_1_split_1
I1213 10:09:56.510412 13516 net.cpp:411] proposal/p4 -> rois/p4
I1213 10:09:56.511319 13516 net.cpp:150] Setting up proposal/p4
I1213 10:09:56.511329 13516 net.cpp:157] Top shape: 1 5 (5)
I1213 10:09:56.511337 13516 net.cpp:165] Memory required for data: 228325964
I1213 10:09:56.511340 13516 layer_factory.hpp:77] Creating layer rpn_conv/3x3/p5
I1213 10:09:56.511346 13516 net.cpp:106] Creating Layer rpn_conv/3x3/p5
I1213 10:09:56.511349 13516 net.cpp:454] rpn_conv/3x3/p5 <- conv5_256_conv5_256_relu_0_split_1
I1213 10:09:56.511353 13516 net.cpp:411] rpn_conv/3x3/p5 -> rpn_conv/3x3_output/p5
I1213 10:09:56.517396 13516 net.cpp:150] Setting up rpn_conv/3x3/p5
I1213 10:09:56.517410 13516 net.cpp:157] Top shape: 1 256 14 14 (50176)
I1213 10:09:56.517411 13516 net.cpp:165] Memory required for data: 228526668
I1213 10:09:56.517421 13516 layer_factory.hpp:77] Creating layer rpn_dimred/3x3/p5
I1213 10:09:56.517436 13516 net.cpp:106] Creating Layer rpn_dimred/3x3/p5
I1213 10:09:56.517439 13516 net.cpp:454] rpn_dimred/3x3/p5 <- conv5_256_conv5_256_relu_0_split_2
I1213 10:09:56.517444 13516 net.cpp:411] rpn_dimred/3x3/p5 -> rpn_dimred_output/p5
I1213 10:09:56.521560 13516 net.cpp:150] Setting up rpn_dimred/3x3/p5
I1213 10:09:56.521580 13516 net.cpp:157] Top shape: 1 128 14 14 (25088)
I1213 10:09:56.521584 13516 net.cpp:165] Memory required for data: 228627020
I1213 10:09:56.521589 13516 layer_factory.hpp:77] Creating layer rpn_dimred_relu/p5
I1213 10:09:56.521595 13516 net.cpp:106] Creating Layer rpn_dimred_relu/p5
I1213 10:09:56.521600 13516 net.cpp:454] rpn_dimred_relu/p5 <- rpn_dimred_output/p5
I1213 10:09:56.521605 13516 net.cpp:397] rpn_dimred_relu/p5 -> rpn_dimred_output/p5 (in-place)
I1213 10:09:56.521767 13516 net.cpp:150] Setting up rpn_dimred_relu/p5
I1213 10:09:56.521773 13516 net.cpp:157] Top shape: 1 128 14 14 (25088)
I1213 10:09:56.521775 13516 net.cpp:165] Memory required for data: 228727372
I1213 10:09:56.521777 13516 layer_factory.hpp:77] Creating layer rpn_dimred_output/p5_rpn_dimred_relu/p5_0_split
I1213 10:09:56.521781 13516 net.cpp:106] Creating Layer rpn_dimred_output/p5_rpn_dimred_relu/p5_0_split
I1213 10:09:56.521785 13516 net.cpp:454] rpn_dimred_output/p5_rpn_dimred_relu/p5_0_split <- rpn_dimred_output/p5
I1213 10:09:56.521787 13516 net.cpp:411] rpn_dimred_output/p5_rpn_dimred_relu/p5_0_split -> rpn_dimred_output/p5_rpn_dimred_relu/p5_0_split_0
I1213 10:09:56.521792 13516 net.cpp:411] rpn_dimred_output/p5_rpn_dimred_relu/p5_0_split -> rpn_dimred_output/p5_rpn_dimred_relu/p5_0_split_1
I1213 10:09:56.521841 13516 net.cpp:150] Setting up rpn_dimred_output/p5_rpn_dimred_relu/p5_0_split
I1213 10:09:56.521844 13516 net.cpp:157] Top shape: 1 128 14 14 (25088)
I1213 10:09:56.521847 13516 net.cpp:157] Top shape: 1 128 14 14 (25088)
I1213 10:09:56.521847 13516 net.cpp:165] Memory required for data: 228928076
I1213 10:09:56.521849 13516 layer_factory.hpp:77] Creating layer rpn_conv/5x5/p5
I1213 10:09:56.521857 13516 net.cpp:106] Creating Layer rpn_conv/5x5/p5
I1213 10:09:56.521859 13516 net.cpp:454] rpn_conv/5x5/p5 <- rpn_dimred_output/p5_rpn_dimred_relu/p5_0_split_0
I1213 10:09:56.521864 13516 net.cpp:411] rpn_conv/5x5/p5 -> rpn_conv/5x5_output/p5
I1213 10:09:56.526687 13516 net.cpp:150] Setting up rpn_conv/5x5/p5
I1213 10:09:56.526705 13516 net.cpp:157] Top shape: 1 128 14 14 (25088)
I1213 10:09:56.526708 13516 net.cpp:165] Memory required for data: 229028428
I1213 10:09:56.526715 13516 layer_factory.hpp:77] Creating layer rpn_conv/7x7-1/p5
I1213 10:09:56.526737 13516 net.cpp:106] Creating Layer rpn_conv/7x7-1/p5
I1213 10:09:56.526741 13516 net.cpp:454] rpn_conv/7x7-1/p5 <- rpn_dimred_output/p5_rpn_dimred_relu/p5_0_split_1
I1213 10:09:56.526747 13516 net.cpp:411] rpn_conv/7x7-1/p5 -> rpn_conv/7x7-1_out/p5
I1213 10:09:56.529917 13516 net.cpp:150] Setting up rpn_conv/7x7-1/p5
I1213 10:09:56.529930 13516 net.cpp:157] Top shape: 1 128 14 14 (25088)
I1213 10:09:56.529932 13516 net.cpp:165] Memory required for data: 229128780
I1213 10:09:56.529937 13516 layer_factory.hpp:77] Creating layer rpn_relu/7x7-1/p5
I1213 10:09:56.529943 13516 net.cpp:106] Creating Layer rpn_relu/7x7-1/p5
I1213 10:09:56.529947 13516 net.cpp:454] rpn_relu/7x7-1/p5 <- rpn_conv/7x7-1_out/p5
I1213 10:09:56.529950 13516 net.cpp:397] rpn_relu/7x7-1/p5 -> rpn_conv/7x7-1_out/p5 (in-place)
I1213 10:09:56.530103 13516 net.cpp:150] Setting up rpn_relu/7x7-1/p5
I1213 10:09:56.530110 13516 net.cpp:157] Top shape: 1 128 14 14 (25088)
I1213 10:09:56.530112 13516 net.cpp:165] Memory required for data: 229229132
I1213 10:09:56.530114 13516 layer_factory.hpp:77] Creating layer rpn_conv/7x7/p5
I1213 10:09:56.530120 13516 net.cpp:106] Creating Layer rpn_conv/7x7/p5
I1213 10:09:56.530123 13516 net.cpp:454] rpn_conv/7x7/p5 <- rpn_conv/7x7-1_out/p5
I1213 10:09:56.530128 13516 net.cpp:411] rpn_conv/7x7/p5 -> rpn_conv/7x7_output/p5
I1213 10:09:56.532505 13516 net.cpp:150] Setting up rpn_conv/7x7/p5
I1213 10:09:56.532515 13516 net.cpp:157] Top shape: 1 128 14 14 (25088)
I1213 10:09:56.532517 13516 net.cpp:165] Memory required for data: 229329484
I1213 10:09:56.532521 13516 layer_factory.hpp:77] Creating layer rpn_conv/357/p5
I1213 10:09:56.532526 13516 net.cpp:106] Creating Layer rpn_conv/357/p5
I1213 10:09:56.532528 13516 net.cpp:454] rpn_conv/357/p5 <- rpn_conv/3x3_output/p5
I1213 10:09:56.532531 13516 net.cpp:454] rpn_conv/357/p5 <- rpn_conv/5x5_output/p5
I1213 10:09:56.532534 13516 net.cpp:454] rpn_conv/357/p5 <- rpn_conv/7x7_output/p5
I1213 10:09:56.532538 13516 net.cpp:411] rpn_conv/357/p5 -> rpn_conv/357_output/p5
I1213 10:09:56.532565 13516 net.cpp:150] Setting up rpn_conv/357/p5
I1213 10:09:56.532572 13516 net.cpp:157] Top shape: 1 512 14 14 (100352)
I1213 10:09:56.532572 13516 net.cpp:165] Memory required for data: 229730892
I1213 10:09:56.532574 13516 layer_factory.hpp:77] Creating layer rpn_relu/357/p5
I1213 10:09:56.532578 13516 net.cpp:106] Creating Layer rpn_relu/357/p5
I1213 10:09:56.532582 13516 net.cpp:454] rpn_relu/357/p5 <- rpn_conv/357_output/p5
I1213 10:09:56.532586 13516 net.cpp:397] rpn_relu/357/p5 -> rpn_conv/357_output/p5 (in-place)
I1213 10:09:56.532737 13516 net.cpp:150] Setting up rpn_relu/357/p5
I1213 10:09:56.532743 13516 net.cpp:157] Top shape: 1 512 14 14 (100352)
I1213 10:09:56.532745 13516 net.cpp:165] Memory required for data: 230132300
I1213 10:09:56.532747 13516 layer_factory.hpp:77] Creating layer rpn_conv/357_output/p5_rpn_relu/357/p5_0_split
I1213 10:09:56.532752 13516 net.cpp:106] Creating Layer rpn_conv/357_output/p5_rpn_relu/357/p5_0_split
I1213 10:09:56.532753 13516 net.cpp:454] rpn_conv/357_output/p5_rpn_relu/357/p5_0_split <- rpn_conv/357_output/p5
I1213 10:09:56.532758 13516 net.cpp:411] rpn_conv/357_output/p5_rpn_relu/357/p5_0_split -> rpn_conv/357_output/p5_rpn_relu/357/p5_0_split_0
I1213 10:09:56.532763 13516 net.cpp:411] rpn_conv/357_output/p5_rpn_relu/357/p5_0_split -> rpn_conv/357_output/p5_rpn_relu/357/p5_0_split_1
I1213 10:09:56.532799 13516 net.cpp:150] Setting up rpn_conv/357_output/p5_rpn_relu/357/p5_0_split
I1213 10:09:56.532804 13516 net.cpp:157] Top shape: 1 512 14 14 (100352)
I1213 10:09:56.532806 13516 net.cpp:157] Top shape: 1 512 14 14 (100352)
I1213 10:09:56.532807 13516 net.cpp:165] Memory required for data: 230935116
I1213 10:09:56.532809 13516 layer_factory.hpp:77] Creating layer rpn_cls_score/p5
I1213 10:09:56.532816 13516 net.cpp:106] Creating Layer rpn_cls_score/p5
I1213 10:09:56.532819 13516 net.cpp:454] rpn_cls_score/p5 <- rpn_conv/357_output/p5_rpn_relu/357/p5_0_split_0
I1213 10:09:56.532825 13516 net.cpp:411] rpn_cls_score/p5 -> rpn_cls_score/p5
I1213 10:09:56.533839 13516 net.cpp:150] Setting up rpn_cls_score/p5
I1213 10:09:56.533848 13516 net.cpp:157] Top shape: 1 12 14 14 (2352)
I1213 10:09:56.533849 13516 net.cpp:165] Memory required for data: 230944524
I1213 10:09:56.533854 13516 layer_factory.hpp:77] Creating layer rpn_bbox_pred/p5
I1213 10:09:56.533860 13516 net.cpp:106] Creating Layer rpn_bbox_pred/p5
I1213 10:09:56.533864 13516 net.cpp:454] rpn_bbox_pred/p5 <- rpn_conv/357_output/p5_rpn_relu/357/p5_0_split_1
I1213 10:09:56.533867 13516 net.cpp:411] rpn_bbox_pred/p5 -> rpn_bbox_pred/p5
I1213 10:09:56.534917 13516 net.cpp:150] Setting up rpn_bbox_pred/p5
I1213 10:09:56.534927 13516 net.cpp:157] Top shape: 1 24 14 14 (4704)
I1213 10:09:56.534929 13516 net.cpp:165] Memory required for data: 230963340
I1213 10:09:56.534934 13516 layer_factory.hpp:77] Creating layer rpn_cls_score_reshape/p5
I1213 10:09:56.534939 13516 net.cpp:106] Creating Layer rpn_cls_score_reshape/p5
I1213 10:09:56.534940 13516 net.cpp:454] rpn_cls_score_reshape/p5 <- rpn_cls_score/p5
I1213 10:09:56.534945 13516 net.cpp:411] rpn_cls_score_reshape/p5 -> rpn_cls_score_reshape/p5
I1213 10:09:56.534970 13516 net.cpp:150] Setting up rpn_cls_score_reshape/p5
I1213 10:09:56.534973 13516 net.cpp:157] Top shape: 1 2 84 14 (2352)
I1213 10:09:56.534974 13516 net.cpp:165] Memory required for data: 230972748
I1213 10:09:56.534976 13516 layer_factory.hpp:77] Creating layer rpn_cls_prob/p5
I1213 10:09:56.534981 13516 net.cpp:106] Creating Layer rpn_cls_prob/p5
I1213 10:09:56.534983 13516 net.cpp:454] rpn_cls_prob/p5 <- rpn_cls_score_reshape/p5
I1213 10:09:56.534987 13516 net.cpp:411] rpn_cls_prob/p5 -> rpn_cls_prob/p5
I1213 10:09:56.535172 13516 net.cpp:150] Setting up rpn_cls_prob/p5
I1213 10:09:56.535178 13516 net.cpp:157] Top shape: 1 2 84 14 (2352)
I1213 10:09:56.535181 13516 net.cpp:165] Memory required for data: 230982156
I1213 10:09:56.535182 13516 layer_factory.hpp:77] Creating layer rpn_cls_prob_reshape/p5
I1213 10:09:56.535187 13516 net.cpp:106] Creating Layer rpn_cls_prob_reshape/p5
I1213 10:09:56.535189 13516 net.cpp:454] rpn_cls_prob_reshape/p5 <- rpn_cls_prob/p5
I1213 10:09:56.535193 13516 net.cpp:411] rpn_cls_prob_reshape/p5 -> rpn_cls_prob_reshape/p5
I1213 10:09:56.535213 13516 net.cpp:150] Setting up rpn_cls_prob_reshape/p5
I1213 10:09:56.535217 13516 net.cpp:157] Top shape: 1 12 14 14 (2352)
I1213 10:09:56.535218 13516 net.cpp:165] Memory required for data: 230991564
I1213 10:09:56.535220 13516 layer_factory.hpp:77] Creating layer proposal/p5
I1213 10:09:56.535261 13516 net.cpp:106] Creating Layer proposal/p5
I1213 10:09:56.535265 13516 net.cpp:454] proposal/p5 <- rpn_cls_prob_reshape/p5
I1213 10:09:56.535269 13516 net.cpp:454] proposal/p5 <- rpn_bbox_pred/p5
I1213 10:09:56.535271 13516 net.cpp:454] proposal/p5 <- im_info_input_1_split_2
I1213 10:09:56.535275 13516 net.cpp:411] proposal/p5 -> rois/p5
I1213 10:09:56.536226 13516 net.cpp:150] Setting up proposal/p5
I1213 10:09:56.536238 13516 net.cpp:157] Top shape: 1 5 (5)
I1213 10:09:56.536240 13516 net.cpp:165] Memory required for data: 230991584
I1213 10:09:56.536242 13516 layer_factory.hpp:77] Creating layer roi_pool/p5
I1213 10:09:56.536247 13516 net.cpp:106] Creating Layer roi_pool/p5
I1213 10:09:56.536250 13516 net.cpp:454] roi_pool/p5 <- conv5_256_conv5_256_relu_0_split_3
I1213 10:09:56.536254 13516 net.cpp:454] roi_pool/p5 <- rois/p5
I1213 10:09:56.536257 13516 net.cpp:411] roi_pool/p5 -> roi_pool/p5
I1213 10:09:56.536262 13516 roi_pooling_layer.cpp:30] Spatial scale: 0.0625
I1213 10:09:56.536301 13516 net.cpp:150] Setting up roi_pool/p5
I1213 10:09:56.536305 13516 net.cpp:157] Top shape: 1 256 7 7 (12544)
I1213 10:09:56.536306 13516 net.cpp:165] Memory required for data: 231041760
I1213 10:09:56.536309 13516 layer_factory.hpp:77] Creating layer roi_pool/p4
I1213 10:09:56.536311 13516 net.cpp:106] Creating Layer roi_pool/p4
I1213 10:09:56.536314 13516 net.cpp:454] roi_pool/p4 <- conv4_fuse_final_conv4_fuse_final_relu_0_split_2
I1213 10:09:56.536317 13516 net.cpp:454] roi_pool/p4 <- rois/p4
I1213 10:09:56.536322 13516 net.cpp:411] roi_pool/p4 -> roi_pool/p4
I1213 10:09:56.536326 13516 roi_pooling_layer.cpp:30] Spatial scale: 0.125
I1213 10:09:56.536356 13516 net.cpp:150] Setting up roi_pool/p4
I1213 10:09:56.536360 13516 net.cpp:157] Top shape: 1 256 7 7 (12544)
I1213 10:09:56.536362 13516 net.cpp:165] Memory required for data: 231091936
I1213 10:09:56.536363 13516 layer_factory.hpp:77] Creating layer roi_pool/p3
I1213 10:09:56.536366 13516 net.cpp:106] Creating Layer roi_pool/p3
I1213 10:09:56.536368 13516 net.cpp:454] roi_pool/p3 <- conv3_fuse_final_conv3_fuse_final_relu_0_split_2
I1213 10:09:56.536371 13516 net.cpp:454] roi_pool/p3 <- rois/p3
I1213 10:09:56.536375 13516 net.cpp:411] roi_pool/p3 -> roi_pool/p3
I1213 10:09:56.536378 13516 roi_pooling_layer.cpp:30] Spatial scale: 0.25
I1213 10:09:56.536406 13516 net.cpp:150] Setting up roi_pool/p3
I1213 10:09:56.536408 13516 net.cpp:157] Top shape: 1 256 7 7 (12544)
I1213 10:09:56.536411 13516 net.cpp:165] Memory required for data: 231142112
I1213 10:09:56.536412 13516 layer_factory.hpp:77] Creating layer all_pool
I1213 10:09:56.536415 13516 net.cpp:106] Creating Layer all_pool
I1213 10:09:56.536417 13516 net.cpp:454] all_pool <- roi_pool/p3
I1213 10:09:56.536419 13516 net.cpp:454] all_pool <- roi_pool/p4
I1213 10:09:56.536422 13516 net.cpp:454] all_pool <- roi_pool/p5
I1213 10:09:56.536424 13516 net.cpp:411] all_pool -> rcnn_pool
I1213 10:09:56.536442 13516 net.cpp:150] Setting up all_pool
I1213 10:09:56.536445 13516 net.cpp:157] Top shape: 3 256 7 7 (37632)
I1213 10:09:56.536448 13516 net.cpp:165] Memory required for data: 231292640
I1213 10:09:56.536448 13516 layer_factory.hpp:77] Creating layer rcnn_fc6
I1213 10:09:56.536453 13516 net.cpp:106] Creating Layer rcnn_fc6
I1213 10:09:56.536455 13516 net.cpp:454] rcnn_fc6 <- rcnn_pool
I1213 10:09:56.536458 13516 net.cpp:411] rcnn_fc6 -> rcnn_fc6
I1213 10:09:56.792052 13516 net.cpp:150] Setting up rcnn_fc6
I1213 10:09:56.792074 13516 net.cpp:157] Top shape: 3 4096 (12288)
I1213 10:09:56.792076 13516 net.cpp:165] Memory required for data: 231341792
I1213 10:09:56.792083 13516 layer_factory.hpp:77] Creating layer relu6
I1213 10:09:56.792089 13516 net.cpp:106] Creating Layer relu6
I1213 10:09:56.792093 13516 net.cpp:454] relu6 <- rcnn_fc6
I1213 10:09:56.792098 13516 net.cpp:397] relu6 -> rcnn_fc6 (in-place)
I1213 10:09:56.792778 13516 net.cpp:150] Setting up relu6
I1213 10:09:56.792786 13516 net.cpp:157] Top shape: 3 4096 (12288)
I1213 10:09:56.792788 13516 net.cpp:165] Memory required for data: 231390944
I1213 10:09:56.792790 13516 layer_factory.hpp:77] Creating layer drop6
I1213 10:09:56.792804 13516 net.cpp:106] Creating Layer drop6
I1213 10:09:56.792805 13516 net.cpp:454] drop6 <- rcnn_fc6
I1213 10:09:56.792809 13516 net.cpp:397] drop6 -> rcnn_fc6 (in-place)
I1213 10:09:56.792855 13516 net.cpp:150] Setting up drop6
I1213 10:09:56.792860 13516 net.cpp:157] Top shape: 3 4096 (12288)
I1213 10:09:56.792861 13516 net.cpp:165] Memory required for data: 231440096
I1213 10:09:56.792863 13516 layer_factory.hpp:77] Creating layer fc7
I1213 10:09:56.792868 13516 net.cpp:106] Creating Layer fc7
I1213 10:09:56.792870 13516 net.cpp:454] fc7 <- rcnn_fc6
I1213 10:09:56.792893 13516 net.cpp:411] fc7 -> fc7
I1213 10:09:56.881937 13516 net.cpp:150] Setting up fc7
I1213 10:09:56.881954 13516 net.cpp:157] Top shape: 3 4096 (12288)
I1213 10:09:56.881956 13516 net.cpp:165] Memory required for data: 231489248
I1213 10:09:56.881963 13516 layer_factory.hpp:77] Creating layer relu7
I1213 10:09:56.881969 13516 net.cpp:106] Creating Layer relu7
I1213 10:09:56.881971 13516 net.cpp:454] relu7 <- fc7
I1213 10:09:56.881976 13516 net.cpp:397] relu7 -> fc7 (in-place)
I1213 10:09:56.882179 13516 net.cpp:150] Setting up relu7
I1213 10:09:56.882184 13516 net.cpp:157] Top shape: 3 4096 (12288)
I1213 10:09:56.882186 13516 net.cpp:165] Memory required for data: 231538400
I1213 10:09:56.882187 13516 layer_factory.hpp:77] Creating layer drop7
I1213 10:09:56.882192 13516 net.cpp:106] Creating Layer drop7
I1213 10:09:56.882194 13516 net.cpp:454] drop7 <- fc7
I1213 10:09:56.882199 13516 net.cpp:397] drop7 -> fc7 (in-place)
I1213 10:09:56.882225 13516 net.cpp:150] Setting up drop7
I1213 10:09:56.882227 13516 net.cpp:157] Top shape: 3 4096 (12288)
I1213 10:09:56.882228 13516 net.cpp:165] Memory required for data: 231587552
I1213 10:09:56.882230 13516 layer_factory.hpp:77] Creating layer fc7_drop7_0_split
I1213 10:09:56.882235 13516 net.cpp:106] Creating Layer fc7_drop7_0_split
I1213 10:09:56.882236 13516 net.cpp:454] fc7_drop7_0_split <- fc7
I1213 10:09:56.882241 13516 net.cpp:411] fc7_drop7_0_split -> fc7_drop7_0_split_0
I1213 10:09:56.882244 13516 net.cpp:411] fc7_drop7_0_split -> fc7_drop7_0_split_1
I1213 10:09:56.882288 13516 net.cpp:150] Setting up fc7_drop7_0_split
I1213 10:09:56.882292 13516 net.cpp:157] Top shape: 3 4096 (12288)
I1213 10:09:56.882293 13516 net.cpp:157] Top shape: 3 4096 (12288)
I1213 10:09:56.882295 13516 net.cpp:165] Memory required for data: 231685856
I1213 10:09:56.882297 13516 layer_factory.hpp:77] Creating layer cls_score
I1213 10:09:56.882302 13516 net.cpp:106] Creating Layer cls_score
I1213 10:09:56.882304 13516 net.cpp:454] cls_score <- fc7_drop7_0_split_0
I1213 10:09:56.882308 13516 net.cpp:411] cls_score -> cls_score
I1213 10:09:56.882513 13516 net.cpp:150] Setting up cls_score
I1213 10:09:56.882517 13516 net.cpp:157] Top shape: 3 4 (12)
I1213 10:09:56.882519 13516 net.cpp:165] Memory required for data: 231685904
I1213 10:09:56.882522 13516 layer_factory.hpp:77] Creating layer bbox_pred
I1213 10:09:56.882526 13516 net.cpp:106] Creating Layer bbox_pred
I1213 10:09:56.882529 13516 net.cpp:454] bbox_pred <- fc7_drop7_0_split_1
I1213 10:09:56.882534 13516 net.cpp:411] bbox_pred -> bbox_pred
I1213 10:09:56.883078 13516 net.cpp:150] Setting up bbox_pred
I1213 10:09:56.883082 13516 net.cpp:157] Top shape: 3 16 (48)
I1213 10:09:56.883085 13516 net.cpp:165] Memory required for data: 231686096
I1213 10:09:56.883087 13516 layer_factory.hpp:77] Creating layer cls_prob
I1213 10:09:56.883091 13516 net.cpp:106] Creating Layer cls_prob
I1213 10:09:56.883093 13516 net.cpp:454] cls_prob <- cls_score
I1213 10:09:56.883095 13516 net.cpp:411] cls_prob -> cls_prob
I1213 10:09:56.883291 13516 net.cpp:150] Setting up cls_prob
I1213 10:09:56.883296 13516 net.cpp:157] Top shape: 3 4 (12)
I1213 10:09:56.883298 13516 net.cpp:165] Memory required for data: 231686144
I1213 10:09:56.883301 13516 net.cpp:228] cls_prob does not need backward computation.
I1213 10:09:56.883302 13516 net.cpp:228] bbox_pred does not need backward computation.
I1213 10:09:56.883304 13516 net.cpp:228] cls_score does not need backward computation.
I1213 10:09:56.883306 13516 net.cpp:228] fc7_drop7_0_split does not need backward computation.
…
