…
snapshot: 0
snapshot_prefix: "fpn"
average_loss: 100
iter_size: 2
I1209 15:49:43.020210 27915 solver.cpp:81] Creating training net from train_net file: models/kitti/VGG16/fpn_end2end_context_2_layer/train.prototxt
I1209 15:49:43.029377 27915 net.cpp:49] Initializing net from parameters: 
name: "VGG_ILSVRC_16_layers"
state {
  phase: TRAIN
}
layer {
  name: "input-data"
  type: "Python"
  top: "data"
  top: "im_info"
  top: "gt_boxes"
  python_param {
    module: "roi_data_layer.layer"
    layer: "RoIDataLayer"
    param_str: "\'num_classes\': 4"
  }
}
layer {
  name: "conv1_1"
  type: "Convolution"
  bottom: "data"
  top: "conv1_1"
  param {
    lr_mult: 0
    decay_mult: 0
  }
  param {
    lr_mult: 0
    decay_mult: 0
  }
  convolution_param {
    num_output: 64
    pad: 1
    kernel_size: 3
  }
}
layer {
  name: "relu1_1"
  type: "ReLU"
  bottom: "conv1_1"
  top: "conv1_1"
}
layer {
  name: "conv1_2"
  type: "Convolution"
  bottom: "conv1_1"
  top: "conv1_2"
  param {
    lr_mult: 0
    decay_mult: 0
  }
  param {
    lr_mult: 0
    decay_mult: 0
  }
  convolution_param {
    num_output: 64
    pad: 1
    kernel_size: 3
  }
}
layer {
  name: "relu1_2"
  type: "ReLU"
  bottom: "conv1_2"
  top: "conv1_2"
}
layer {
  name: "pool1"
  type: "Pooling"
  bottom: "conv1_2"
  top: "pool1"
  pooling_param {
    pool: MAX
    kernel_size: 2
    stride: 2
  }
}
layer {
  name: "conv2_1"
  type: "Convolution"
  bottom: "pool1"
  top: "conv2_1"
  param {
    lr_mult: 0
    decay_mult: 0
  }
  param {
    lr_mult: 0
    decay_mult: 0
  }
  convolution_param {
    num_output: 128
    pad: 1
    kernel_size: 3
  }
}
layer {
  name: "relu2_1"
  type: "ReLU"
  bottom: "conv2_1"
  top: "conv2_1"
}
layer {
  name: "conv2_2"
  type: "Convolution"
  bottom: "conv2_1"
  top: "conv2_2"
  param {
    lr_mult: 0
    decay_mult: 0
  }
  param {
    lr_mult: 0
    decay_mult: 0
  }
  convolution_param {
    num_output: 128
    pad: 1
    kernel_size: 3
  }
}
layer {
  name: "relu2_2"
  type: "ReLU"
  bottom: "conv2_2"
  top: "conv2_2"
}
layer {
  name: "pool2"
  type: "Pooling"
  bottom: "conv2_2"
  top: "pool2"
  pooling_param {
    pool: MAX
    kernel_size: 2
    stride: 2
  }
}
layer {
  name: "conv3_1"
  type: "Convolution"
  bottom: "pool2"
  top: "conv3_1"
  param {
    lr_mult: 1
  }
  param {
    lr_mult: 2
  }
  convolution_param {
    num_output: 256
    pad: 1
    kernel_size: 3
  }
}
layer {
  name: "relu3_1"
  type: "ReLU"
  bottom: "conv3_1"
  top: "conv3_1"
}
layer {
  name: "conv3_2"
  type: "Convolution"
  bottom: "conv3_1"
  top: "conv3_2"
  param {
    lr_mult: 1
  }
  param {
    lr_mult: 2
  }
  convolution_param {
    num_output: 256
    pad: 1
    kernel_size: 3
  }
}
layer {
  name: "relu3_2"
  type: "ReLU"
  bottom: "conv3_2"
  top: "conv3_2"
}
layer {
  name: "conv3_3"
  type: "Convolution"
  bottom: "conv3_2"
  top: "conv3_3"
  param {
    lr_mult: 1
  }
  param {
    lr_mult: 2
  }
  convolution_param {
    num_output: 256
    pad: 1
    kernel_size: 3
  }
}
layer {
  name: "relu3_3"
  type: "ReLU"
  bottom: "conv3_3"
  top: "conv3_3"
}
layer {
  name: "pool3"
  type: "Pooling"
  bottom: "conv3_3"
  top: "pool3"
  pooling_param {
    pool: MAX
    kernel_size: 2
    stride: 2
  }
}
layer {
  name: "conv4_1"
  type: "Convolution"
  bottom: "pool3"
  top: "conv4_1"
  param {
    lr_mult: 1
  }
  param {
    lr_mult: 2
  }
  convolution_param {
    num_output: 512
    pad: 1
    kernel_size: 3
  }
}
layer {
  name: "relu4_1"
  type: "ReLU"
  bottom: "conv4_1"
  top: "conv4_1"
}
layer {
  name: "conv4_2"
  type: "Convolution"
  bottom: "conv4_1"
  top: "conv4_2"
  param {
    lr_mult: 1
  }
  param {
    lr_mult: 2
  }
  convolution_param {
    num_output: 512
    pad: 1
    kernel_size: 3
  }
}
layer {
  name: "relu4_2"
  type: "ReLU"
  bottom: "conv4_2"
  top: "conv4_2"
}
layer {
  name: "conv4_3"
  type: "Convolution"
  bottom: "conv4_2"
  top: "conv4_3"
  param {
    lr_mult: 1
  }
  param {
    lr_mult: 2
  }
  convolution_param {
    num_output: 512
    pad: 1
    kernel_size: 3
  }
}
layer {
  name: "relu4_3"
  type: "ReLU"
  bottom: "conv4_3"
  top: "conv4_3"
}
layer {
  name: "pool4"
  type: "Pooling"
  bottom: "conv4_3"
  top: "pool4"
  pooling_param {
    pool: MAX
    kernel_size: 2
    stride: 2
  }
}
layer {
  name: "conv5_1"
  type: "Convolution"
  bottom: "pool4"
  top: "conv5_1"
  param {
    lr_mult: 1
  }
  param {
    lr_mult: 2
  }
  convolution_param {
    num_output: 512
    pad: 1
    kernel_size: 3
  }
}
layer {
  name: "relu5_1"
  type: "ReLU"
  bottom: "conv5_1"
  top: "conv5_1"
}
layer {
  name: "conv5_2"
  type: "Convolution"
  bottom: "conv5_1"
  top: "conv5_2"
  param {
    lr_mult: 1
  }
  param {
    lr_mult: 2
  }
  convolution_param {
    num_output: 512
    pad: 1
    kernel_size: 3
  }
}
layer {
  name: "relu5_2"
  type: "ReLU"
  bottom: "conv5_2"
  top: "conv5_2"
}
layer {
  name: "conv5_3"
  type: "Convolution"
  bottom: "conv5_2"
  top: "conv5_3"
  param {
    lr_mult: 1
  }
  param {
    lr_mult: 2
  }
  convolution_param {
    num_output: 512
    pad: 1
    kernel_size: 3
  }
}
layer {
  name: "relu5_3"
  type: "ReLU"
  bottom: "conv5_3"
  top: "conv5_3"
}
layer {
  name: "conv5_256"
  type: "Convolution"
  bottom: "conv5_3"
  top: "conv5_256"
  param {
    lr_mult: 1
  }
  param {
    lr_mult: 2
  }
  convolution_param {
    num_output: 256
    pad: 0
    kernel_size: 1
    weight_filler {
      type: "gaussian"
      std: 0.01
    }
    bias_filler {
      type: "constant"
      value: 0
    }
  }
}
layer {
  name: "conv5_256_relu"
  type: "ReLU"
  bottom: "conv5_256"
  top: "conv5_256"
}
layer {
  name: "conv5_256_up"
  type: "Deconvolution"
  bottom: "conv5_256"
  top: "conv5_256_up"
  param {
    lr_mult: 0
    decay_mult: 0
  }
  convolution_param {
    num_output: 256
    bias_term: false
    pad: 1
    kernel_size: 4
    group: 256
    stride: 2
    weight_filler {
      type: "bilinear"
    }
  }
}
layer {
  name: "conv4_256"
  type: "Convolution"
  bottom: "conv4_3"
  top: "conv4_256"
  param {
    lr_mult: 1
  }
  param {
    lr_mult: 2
  }
  convolution_param {
    num_output: 256
    pad: 0
    kernel_size: 1
    weight_filler {
      type: "gaussian"
      std: 0.01
    }
    bias_filler {
      type: "constant"
      value: 0
    }
  }
}
layer {
  name: "conv4_256_relu"
  type: "ReLU"
  bottom: "conv4_256"
  top: "conv4_256"
}
layer {
  name: "conv5_256_crop"
  type: "Crop"
  bottom: "conv5_256_up"
  bottom: "conv4_256"
  top: "conv5_256_crop"
  crop_param {
    axis: 2
    offset: 0
  }
}
layer {
  name: "conv4_fuse"
  type: "Eltwise"
  bottom: "conv5_256_crop"
  bottom: "conv4_256"
  top: "conv4_fuse"
  eltwise_param {
    operation: SUM
  }
}
layer {
  name: "conv4_fuse_final"
  type: "Convolution"
  bottom: "conv4_fuse"
  top: "conv4_fuse_final"
  param {
    lr_mult: 1
  }
  param {
    lr_mult: 2
  }
  convolution_param {
    num_output: 256
    pad: 1
    kernel_size: 3
    weight_filler {
      type: "gaussian"
      std: 0.01
    }
    bias_filler {
      type: "constant"
      value: 0
    }
  }
}
layer {
  name: "conv4_fuse_final_relu"
  type: "ReLU"
  bottom: "conv4_fuse_final"
  top: "conv4_fuse_final"
}
layer {
  name: "rpn_conv/3x3/p4"
  type: "Convolution"
  bottom: "conv4_fuse_final"
  top: "rpn_conv/3x3_output/p4"
  param {
    lr_mult: 1
  }
  param {
    lr_mult: 2
  }
  convolution_param {
    num_output: 256
    pad: 1
    kernel_size: 3
    stride: 1
    weight_filler {
      type: "gaussian"
      std: 0.01
    }
    bias_filler {
      type: "constant"
      value: 0
    }
  }
}
layer {
  name: "rpn_dimred/3x3/p4"
  type: "Convolution"
  bottom: "conv4_fuse_final"
  top: "rpn_dimred_output/p4"
  param {
    lr_mult: 1
  }
  param {
    lr_mult: 2
  }
  convolution_param {
    num_output: 128
    pad: 1
    kernel_size: 3
    stride: 1
    weight_filler {
      type: "gaussian"
      std: 0.01
    }
    bias_filler {
      type: "constant"
      value: 0
    }
  }
}
layer {
  name: "rpn_dimred_relu/p4"
  type: "ReLU"
  bottom: "rpn_dimred_output/p4"
  top: "rpn_dimred_output/p4"
}
layer {
  name: "rpn_conv/5x5/p4"
  type: "Convolution"
  bottom: "rpn_dimred_output/p4"
  top: "rpn_conv/5x5_output/p4"
  param {
    lr_mult: 1
  }
  param {
    lr_mult: 2
  }
  convolution_param {
    num_output: 128
    pad: 1
    kernel_size: 3
    stride: 1
    weight_filler {
      type: "gaussian"
      std: 0.01
    }
    bias_filler {
      type: "constant"
      value: 0
    }
  }
}
layer {
  name: "rpn_conv/7x7-1/p4"
  type: "Convolution"
  bottom: "rpn_dimred_output/p4"
  top: "rpn_conv/7x7-1_out/p4"
  param {
    lr_mult: 1
  }
  param {
    lr_mult: 2
  }
  convolution_param {
    num_output: 128
    pad: 1
    kernel_size: 3
    stride: 1
    weight_filler {
      type: "gaussian"
      std: 0.01
    }
    bias_filler {
      type: "constant"
      value: 0
    }
  }
}
layer {
  name: "rpn_relu/7x7-1/p4"
  type: "ReLU"
  bottom: "rpn_conv/7x7-1_out/p4"
  top: "rpn_conv/7x7-1_out/p4"
}
layer {
  name: "rpn_conv/7x7/p4"
  type: "Convolution"
  bottom: "rpn_conv/7x7-1_out/p4"
  top: "rpn_conv/7x7_output/p4"
  param {
    lr_mult: 1
  }
  param {
    lr_mult: 2
  }
  convolution_param {
    num_output: 128
    pad: 1
    kernel_size: 3
    stride: 1
    weight_filler {
      type: "gaussian"
      std: 0.01
    }
    bias_filler {
      type: "constant"
      value: 0
    }
  }
}
layer {
  name: "rpn_conv/357/p4"
  type: "Concat"
  bottom: "rpn_conv/3x3_output/p4"
  bottom: "rpn_conv/5x5_output/p4"
  bottom: "rpn_conv/7x7_output/p4"
  top: "rpn_conv/357_output/p4"
  concat_param {
    axis: 1
  }
}
layer {
  name: "rpn_relu/357/p4"
  type: "ReLU"
  bottom: "rpn_conv/357_output/p4"
  top: "rpn_conv/357_output/p4"
}
layer {
  name: "rpn_cls_score/p4"
  type: "Convolution"
  bottom: "rpn_conv/357_output/p4"
  top: "rpn_cls_score/p4"
  param {
    lr_mult: 1
  }
  param {
    lr_mult: 2
  }
  convolution_param {
    num_output: 18
    pad: 0
    kernel_size: 1
    stride: 1
    weight_filler {
      type: "gaussian"
      std: 0.01
    }
    bias_filler {
      type: "constant"
      value: 0
    }
  }
}
layer {
  name: "rpn_bbox_pred/p4"
  type: "Convolution"
  bottom: "rpn_conv/357_output/p4"
  top: "rpn_bbox_pred/p4"
  param {
    lr_mult: 1
  }
  param {
    lr_mult: 2
  }
  convolution_param {
    num_output: 36
    pad: 0
    kernel_size: 1
    stride: 1
    weight_filler {
      type: "gaussian"
      std: 0.01
    }
    bias_filler {
      type: "constant"
      value: 0
    }
  }
}
layer {
  name: "rpn_cls_score_reshape/p4"
  type: "Reshape"
  bottom: "rpn_cls_score/p4"
  top: "rpn_cls_score_reshape/p4"
  reshape_param {
    shape {
      dim: 0
      dim: 2
      dim: -1
      dim: 0
    }
  }
}
layer {
  name: "rpn-data/p4"
  type: "Python"
  bottom: "rpn_cls_score/p4"
  bottom: "gt_boxes"
  bottom: "im_info"
  bottom: "data"
  top: "rpn_labels/p4"
  top: "rpn_bbox_targets/p4"
  top: "rpn_bbox_inside_weights/p4"
  top: "rpn_bbox_outside_weights/p4"
  python_param {
    module: "rpn.anchor_target_layer"
    layer: "AnchorTargetLayer"
    param_str: "{\'feat_stride\': 8, \'scales\':[1,2,4], \'ratios\': [0.5,1,2]}"
  }
}
layer {
  name: "rpn_loss_cls/p4"
  type: "SoftmaxWithLoss"
  bottom: "rpn_cls_score_reshape/p4"
  bottom: "rpn_labels/p4"
  top: "rpn_cls_loss/p4"
  loss_weight: 1
  propagate_down: true
  propagate_down: false
  loss_param {
    ignore_label: -1
    normalize: true
  }
}
layer {
  name: "rpn_loss_bbox/p4"
  type: "SmoothL1Loss"
  bottom: "rpn_bbox_pred/p4"
  bottom: "rpn_bbox_targets/p4"
  bottom: "rpn_bbox_inside_weights/p4"
  bottom: "rpn_bbox_outside_weights/p4"
  top: "rpn_loss_bbox/p4"
  loss_weight: 1
  smooth_l1_loss_param {
    sigma: 3
  }
}
layer {
  name: "rpn_cls_prob/p4"
  type: "Softmax"
  bottom: "rpn_cls_score_reshape/p4"
  top: "rpn_cls_prob/p4"
}
layer {
  name: "rpn_cls_prob_reshape/p4"
  type: "Reshape"
  bottom: "rpn_cls_prob/p4"
  top: "rpn_cls_prob_reshape/p4"
  reshape_param {
    shape {
      dim: 0
      dim: 18
      dim: -1
      dim: 0
    }
  }
}
layer {
  name: "proposal/p4"
  type: "Python"
  bottom: "rpn_cls_prob_reshape/p4"
  bottom: "rpn_bbox_pred/p4"
  bottom: "im_info"
  top: "rpn_rois/p4"
  python_param {
    module: "rpn.proposal_layer"
    layer: "ProposalLayer"
    param_str: "{\'feat_stride\': 8, \'scales\':[1,2,4], \'ratios\': [0.5,1,2]}"
  }
}
layer {
  name: "rpn_conv/3x3/p5"
  type: "Convolution"
  bottom: "conv5_256"
  top: "rpn_conv/3x3_output/p5"
  param {
    lr_mult: 1
  }
  param {
    lr_mult: 2
  }
  convolution_param {
    num_output: 256
    pad: 1
    kernel_size: 3
    stride: 1
    weight_filler {
      type: "gaussian"
      std: 0.01
    }
    bias_filler {
      type: "constant"
      value: 0
    }
  }
}
layer {
  name: "rpn_dimred/3x3/p5"
  type: "Convolution"
  bottom: "conv5_256"
  top: "rpn_dimred_output/p5"
  param {
    lr_mult: 1
  }
  param {
    lr_mult: 2
  }
  convolution_param {
    num_output: 128
    pad: 1
    kernel_size: 3
    stride: 1
    weight_filler {
      type: "gaussian"
      std: 0.01
    }
    bias_filler {
      type: "constant"
      value: 0
    }
  }
}
layer {
  name: "rpn_dimred_relu/p5"
  type: "ReLU"
  bottom: "rpn_dimred_output/p5"
  top: "rpn_dimred_output/p5"
}
layer {
  name: "rpn_conv/5x5/p5"
  type: "Convolution"
  bottom: "rpn_dimred_output/p5"
  top: "rpn_conv/5x5_output/p5"
  param {
    lr_mult: 1
  }
  param {
    lr_mult: 2
  }
  convolution_param {
    num_output: 128
    pad: 1
    kernel_size: 3
    stride: 1
    weight_filler {
      type: "gaussian"
      std: 0.01
    }
    bias_filler {
      type: "constant"
      value: 0
    }
  }
}
layer {
  name: "rpn_conv/7x7-1/p5"
  type: "Convolution"
  bottom: "rpn_dimred_output/p5"
  top: "rpn_conv/7x7-1_out/p5"
  param {
    lr_mult: 1
  }
  param {
    lr_mult: 2
  }
  convolution_param {
    num_output: 128
    pad: 1
    kernel_size: 3
    stride: 1
    weight_filler {
      type: "gaussian"
      std: 0.01
    }
    bias_filler {
      type: "constant"
      value: 0
    }
  }
}
layer {
  name: "rpn_relu/7x7-1/p5"
  type: "ReLU"
  bottom: "rpn_conv/7x7-1_out/p5"
  top: "rpn_conv/7x7-1_out/p5"
}
layer {
  name: "rpn_conv/7x7/p5"
  type: "Convolution"
  bottom: "rpn_conv/7x7-1_out/p5"
  top: "rpn_conv/7x7_output/p5"
  param {
    lr_mult: 1
  }
  param {
    lr_mult: 2
  }
  convolution_param {
    num_output: 128
    pad: 1
    kernel_size: 3
    stride: 1
    weight_filler {
      type: "gaussian"
      std: 0.01
    }
    bias_filler {
      type: "constant"
      value: 0
    }
  }
}
layer {
  name: "rpn_conv/357/p5"
  type: "Concat"
  bottom: "rpn_conv/3x3_output/p5"
  bottom: "rpn_conv/5x5_output/p5"
  bottom: "rpn_conv/7x7_output/p5"
  top: "rpn_conv/357_output/p5"
  concat_param {
    axis: 1
  }
}
layer {
  name: "rpn_relu/357/p5"
  type: "ReLU"
  bottom: "rpn_conv/357_output/p5"
  top: "rpn_conv/357_output/p5"
}
layer {
  name: "rpn_cls_score/p5"
  type: "Convolution"
  bottom: "rpn_conv/357_output/p5"
  top: "rpn_cls_score/p5"
  param {
    lr_mult: 1
  }
  param {
    lr_mult: 2
  }
  convolution_param {
    num_output: 18
    pad: 0
    kernel_size: 1
    stride: 1
    weight_filler {
      type: "gaussian"
      std: 0.01
    }
    bias_filler {
      type: "constant"
      value: 0
    }
  }
}
layer {
  name: "rpn_bbox_pred/p5"
  type: "Convolution"
  bottom: "rpn_conv/357_output/p5"
  top: "rpn_bbox_pred/p5"
  param {
    lr_mult: 1
  }
  param {
    lr_mult: 2
  }
  convolution_param {
    num_output: 36
    pad: 0
    kernel_size: 1
    stride: 1
    weight_filler {
      type: "gaussian"
      std: 0.01
    }
    bias_filler {
      type: "constant"
      value: 0
    }
  }
}
layer {
  name: "rpn_cls_score_reshape/p5"
  type: "Reshape"
  bottom: "rpn_cls_score/p5"
  top: "rpn_cls_score_reshape/p5"
  reshape_param {
    shape {
      dim: 0
      dim: 2
      dim: -1
      dim: 0
    }
  }
}
layer {
  name: "rpn-data/p5"
  type: "Python"
  bottom: "rpn_cls_score/p5"
  bottom: "gt_boxes"
  bottom: "im_info"
  bottom: "data"
  top: "rpn_labels/p5"
  top: "rpn_bbox_targets/p5"
  top: "rpn_bbox_inside_weights/p5"
  top: "rpn_bbox_outside_weights/p5"
  python_param {
    module: "rpn.anchor_target_layer"
    layer: "AnchorTargetLayer"
    param_str: "{\'feat_stride\': 16,\'scales\': [8,16,32], \'ratios\':[0.5,1,2]}"
  }
}
layer {
  name: "rpn_loss_cls/p5"
  type: "SoftmaxWithLoss"
  bottom: "rpn_cls_score_reshape/p5"
  bottom: "rpn_labels/p5"
  top: "rpn_cls_loss/p5"
  loss_weight: 1
  propagate_down: true
  propagate_down: false
  loss_param {
    ignore_label: -1
    normalize: true
  }
}
layer {
  name: "rpn_loss_bbox/p5"
  type: "SmoothL1Loss"
  bottom: "rpn_bbox_pred/p5"
  bottom: "rpn_bbox_targets/p5"
  bottom: "rpn_bbox_inside_weights/p5"
  bottom: "rpn_bbox_outside_weights/p5"
  top: "rpn_loss_bbox/p5"
  loss_weight: 1
  smooth_l1_loss_param {
    sigma: 3
  }
}
layer {
  name: "rpn_cls_prob/p5"
  type: "Softmax"
  bottom: "rpn_cls_score_reshape/p5"
  top: "rpn_cls_prob/p5"
}
layer {
  name: "rpn_cls_prob_reshape/p5"
  type: "Reshape"
  bottom: "rpn_cls_prob/p5"
  top: "rpn_cls_prob_reshape/p5"
  reshape_param {
    shape {
      dim: 0
      dim: 18
      dim: -1
      dim: 0
    }
  }
}
layer {
  name: "proposal/p5"
  type: "Python"
  bottom: "rpn_cls_prob_reshape/p5"
  bottom: "rpn_bbox_pred/p5"
  bottom: "im_info"
  top: "rpn_rois/p5"
  python_param {
    module: "rpn.proposal_layer"
    layer: "ProposalLayer"
    param_str: "{\'feat_stride\': 16,\'scales\': [8,16,32], \'ratios\':[0.5,1,2]}"
  }
}
layer {
  name: "roi-data"
  type: "Python"
  bottom: "rpn_rois/p4"
  bottom: "rpn_rois/p5"
  bottom: "gt_boxes"
  top: "rois/p4"
  top: "rois/p5"
  top: "labels"
  top: "bbox_targets"
  top: "bbox_inside_weights"
  top: "bbox_outside_weights"
  python_param {
    module: "rpn.proposal_target_layer"
    layer: "ProposalTargetLayer"
    param_str: "\'num_classes\': 4"
  }
}
layer {
  name: "roi_pool/p5"
  type: "ROIPooling"
  bottom: "conv5_256"
  bottom: "rois/p5"
  top: "roi_pool/p5"
  roi_pooling_param {
    pooled_h: 7
    pooled_w: 7
    spatial_scale: 0.0625
  }
}
layer {
  name: "roi_pool/p4"
  type: "ROIPooling"
  bottom: "conv4_fuse_final"
  bottom: "rois/p4"
  top: "roi_pool/p4"
  roi_pooling_param {
    pooled_h: 7
    pooled_w: 7
    spatial_scale: 0.125
  }
}
layer {
  name: "all_pool"
  type: "Concat"
  bottom: "roi_pool/p4"
  bottom: "roi_pool/p5"
  top: "rcnn_pool"
  concat_param {
    axis: 0
  }
}
layer {
  name: "rcnn_fc6"
  type: "InnerProduct"
  bottom: "rcnn_pool"
  top: "rcnn_fc6"
  param {
    lr_mult: 1
  }
  param {
    lr_mult: 2
  }
  inner_product_param {
    num_output: 4096
    weight_filler {
      type: "xavier"
    }
    bias_filler {
      type: "constant"
    }
  }
}
layer {
  name: "relu6"
  type: "ReLU"
  bottom: "rcnn_fc6"
  top: "rcnn_fc6"
}
layer {
  name: "drop6"
  type: "Dropout"
  bottom: "rcnn_fc6"
  top: "rcnn_fc6"
  dropout_param {
    dropout_ratio: 0.5
  }
}
layer {
  name: "fc7"
  type: "InnerProduct"
  bottom: "rcnn_fc6"
  top: "fc7"
  param {
    lr_mult: 1
  }
  param {
    lr_mult: 2
  }
  inner_product_param {
    num_output: 4096
    weight_filler {
      type: "xavier"
    }
    bias_filler {
      type: "constant"
    }
  }
}
layer {
  name: "relu7"
  type: "ReLU"
  bottom: "fc7"
  top: "fc7"
}
layer {
  name: "drop7"
  type: "Dropout"
  bottom: "fc7"
  top: "fc7"
  dropout_param {
    dropout_ratio: 0.5
  }
}
layer {
  name: "cls_score"
  type: "InnerProduct"
  bottom: "fc7"
  top: "cls_score"
  param {
    lr_mult: 1
  }
  param {
    lr_mult: 2
  }
  inner_product_param {
    num_output: 4
    weight_filler {
      type: "gaussian"
      std: 0.01
    }
    bias_filler {
      type: "constant"
      value: 0
    }
  }
}
layer {
  name: "bbox_pred"
  type: "InnerProduct"
  bottom: "fc7"
  top: "bbox_pred"
  param {
    lr_mult: 1
  }
  param {
    lr_mult: 2
  }
  inner_product_param {
    num_output: 16
    weight_filler {
      type: "gaussian"
      std: 0.001
    }
    bias_filler {
      type: "constant"
      value: 0
    }
  }
}
layer {
  name: "loss_cls"
  type: "SoftmaxWithLoss"
  bottom: "cls_score"
  bottom: "labels"
  top: "loss_cls"
  loss_weight: 1
  propagate_down: true
  propagate_down: false
}
layer {
  name: "loss_bbox"
  type: "SmoothL1Loss"
  bottom: "bbox_pred"
  bottom: "bbox_targets"
  bottom: "bbox_inside_weights"
  bottom: "bbox_outside_weights"
  top: "loss_bbox"
  loss_weight: 1
}
I1209 15:49:43.029909 27915 layer_factory.hpp:77] Creating layer input-data
I1209 15:49:45.419795 27915 net.cpp:106] Creating Layer input-data
I1209 15:49:45.419833 27915 net.cpp:411] input-data -> data
I1209 15:49:45.419853 27915 net.cpp:411] input-data -> im_info
I1209 15:49:45.419867 27915 net.cpp:411] input-data -> gt_boxes
RoiDataLayer: name_to_top: {'gt_boxes': 2, 'data': 0, 'im_info': 1}
I1209 15:49:53.271927 27915 net.cpp:150] Setting up input-data
I1209 15:49:53.271975 27915 net.cpp:157] Top shape: 1 3 600 1000 (1800000)
I1209 15:49:53.271986 27915 net.cpp:157] Top shape: 1 3 (3)
I1209 15:49:53.271993 27915 net.cpp:157] Top shape: 1 4 (4)
I1209 15:49:53.271998 27915 net.cpp:165] Memory required for data: 7200028
I1209 15:49:53.272011 27915 layer_factory.hpp:77] Creating layer data_input-data_0_split
I1209 15:49:53.272038 27915 net.cpp:106] Creating Layer data_input-data_0_split
I1209 15:49:53.272053 27915 net.cpp:454] data_input-data_0_split <- data
I1209 15:49:53.272078 27915 net.cpp:411] data_input-data_0_split -> data_input-data_0_split_0
I1209 15:49:53.272109 27915 net.cpp:411] data_input-data_0_split -> data_input-data_0_split_1
I1209 15:49:53.272132 27915 net.cpp:411] data_input-data_0_split -> data_input-data_0_split_2
I1209 15:49:53.272241 27915 net.cpp:150] Setting up data_input-data_0_split
I1209 15:49:53.272258 27915 net.cpp:157] Top shape: 1 3 600 1000 (1800000)
I1209 15:49:53.272266 27915 net.cpp:157] Top shape: 1 3 600 1000 (1800000)
I1209 15:49:53.272274 27915 net.cpp:157] Top shape: 1 3 600 1000 (1800000)
I1209 15:49:53.272279 27915 net.cpp:165] Memory required for data: 28800028
I1209 15:49:53.272285 27915 layer_factory.hpp:77] Creating layer im_info_input-data_1_split
I1209 15:49:53.272296 27915 net.cpp:106] Creating Layer im_info_input-data_1_split
I1209 15:49:53.272303 27915 net.cpp:454] im_info_input-data_1_split <- im_info
I1209 15:49:53.272316 27915 net.cpp:411] im_info_input-data_1_split -> im_info_input-data_1_split_0
I1209 15:49:53.272328 27915 net.cpp:411] im_info_input-data_1_split -> im_info_input-data_1_split_1
I1209 15:49:53.272339 27915 net.cpp:411] im_info_input-data_1_split -> im_info_input-data_1_split_2
I1209 15:49:53.272358 27915 net.cpp:411] im_info_input-data_1_split -> im_info_input-data_1_split_3
I1209 15:49:53.272475 27915 net.cpp:150] Setting up im_info_input-data_1_split
I1209 15:49:53.272487 27915 net.cpp:157] Top shape: 1 3 (3)
I1209 15:49:53.272495 27915 net.cpp:157] Top shape: 1 3 (3)
I1209 15:49:53.272501 27915 net.cpp:157] Top shape: 1 3 (3)
I1209 15:49:53.272508 27915 net.cpp:157] Top shape: 1 3 (3)
I1209 15:49:53.272512 27915 net.cpp:165] Memory required for data: 28800076
I1209 15:49:53.272518 27915 layer_factory.hpp:77] Creating layer gt_boxes_input-data_2_split
I1209 15:49:53.272527 27915 net.cpp:106] Creating Layer gt_boxes_input-data_2_split
I1209 15:49:53.272533 27915 net.cpp:454] gt_boxes_input-data_2_split <- gt_boxes
I1209 15:49:53.272547 27915 net.cpp:411] gt_boxes_input-data_2_split -> gt_boxes_input-data_2_split_0
I1209 15:49:53.272560 27915 net.cpp:411] gt_boxes_input-data_2_split -> gt_boxes_input-data_2_split_1
I1209 15:49:53.272572 27915 net.cpp:411] gt_boxes_input-data_2_split -> gt_boxes_input-data_2_split_2
I1209 15:49:53.272658 27915 net.cpp:150] Setting up gt_boxes_input-data_2_split
I1209 15:49:53.272671 27915 net.cpp:157] Top shape: 1 4 (4)
I1209 15:49:53.272678 27915 net.cpp:157] Top shape: 1 4 (4)
I1209 15:49:53.272684 27915 net.cpp:157] Top shape: 1 4 (4)
I1209 15:49:53.272689 27915 net.cpp:165] Memory required for data: 28800124
I1209 15:49:53.272694 27915 layer_factory.hpp:77] Creating layer conv1_1
I1209 15:49:53.272712 27915 net.cpp:106] Creating Layer conv1_1
I1209 15:49:53.272719 27915 net.cpp:454] conv1_1 <- data_input-data_0_split_0
I1209 15:49:53.272734 27915 net.cpp:411] conv1_1 -> conv1_1
I1209 15:49:56.838171 27915 net.cpp:150] Setting up conv1_1
I1209 15:49:56.838191 27915 net.cpp:157] Top shape: 1 64 600 1000 (38400000)
I1209 15:49:56.838194 27915 net.cpp:165] Memory required for data: 182400124
I1209 15:49:56.838219 27915 layer_factory.hpp:77] Creating layer relu1_1
I1209 15:49:56.853216 27915 net.cpp:106] Creating Layer relu1_1
I1209 15:49:56.853334 27915 net.cpp:454] relu1_1 <- conv1_1
I1209 15:49:56.853389 27915 net.cpp:397] relu1_1 -> conv1_1 (in-place)
I1209 15:49:56.867801 27915 net.cpp:150] Setting up relu1_1
I1209 15:49:56.867836 27915 net.cpp:157] Top shape: 1 64 600 1000 (38400000)
I1209 15:49:56.867841 27915 net.cpp:165] Memory required for data: 336000124
I1209 15:49:56.867847 27915 layer_factory.hpp:77] Creating layer conv1_2
I1209 15:49:56.867862 27915 net.cpp:106] Creating Layer conv1_2
I1209 15:49:56.867868 27915 net.cpp:454] conv1_2 <- conv1_1
I1209 15:49:56.867877 27915 net.cpp:411] conv1_2 -> conv1_2
I1209 15:49:56.874102 27915 net.cpp:150] Setting up conv1_2
I1209 15:49:56.874132 27915 net.cpp:157] Top shape: 1 64 600 1000 (38400000)
I1209 15:49:56.874136 27915 net.cpp:165] Memory required for data: 489600124
I1209 15:49:56.874150 27915 layer_factory.hpp:77] Creating layer relu1_2
I1209 15:49:56.874161 27915 net.cpp:106] Creating Layer relu1_2
I1209 15:49:56.874166 27915 net.cpp:454] relu1_2 <- conv1_2
I1209 15:49:56.874172 27915 net.cpp:397] relu1_2 -> conv1_2 (in-place)
I1209 15:49:56.874936 27915 net.cpp:150] Setting up relu1_2
I1209 15:49:56.874953 27915 net.cpp:157] Top shape: 1 64 600 1000 (38400000)
I1209 15:49:56.874955 27915 net.cpp:165] Memory required for data: 643200124
I1209 15:49:56.874959 27915 layer_factory.hpp:77] Creating layer pool1
I1209 15:49:56.874972 27915 net.cpp:106] Creating Layer pool1
I1209 15:49:56.874975 27915 net.cpp:454] pool1 <- conv1_2
I1209 15:49:56.874981 27915 net.cpp:411] pool1 -> pool1
I1209 15:49:56.875053 27915 net.cpp:150] Setting up pool1
I1209 15:49:56.875062 27915 net.cpp:157] Top shape: 1 64 300 500 (9600000)
I1209 15:49:56.875066 27915 net.cpp:165] Memory required for data: 681600124
I1209 15:49:56.875068 27915 layer_factory.hpp:77] Creating layer conv2_1
I1209 15:49:56.875077 27915 net.cpp:106] Creating Layer conv2_1
I1209 15:49:56.875080 27915 net.cpp:454] conv2_1 <- pool1
I1209 15:49:56.875085 27915 net.cpp:411] conv2_1 -> conv2_1
I1209 15:49:56.877728 27915 net.cpp:150] Setting up conv2_1
I1209 15:49:56.877745 27915 net.cpp:157] Top shape: 1 128 300 500 (19200000)
I1209 15:49:56.877748 27915 net.cpp:165] Memory required for data: 758400124
I1209 15:49:56.877760 27915 layer_factory.hpp:77] Creating layer relu2_1
I1209 15:49:56.877768 27915 net.cpp:106] Creating Layer relu2_1
I1209 15:49:56.877770 27915 net.cpp:454] relu2_1 <- conv2_1
I1209 15:49:56.877776 27915 net.cpp:397] relu2_1 -> conv2_1 (in-place)
I1209 15:49:56.877970 27915 net.cpp:150] Setting up relu2_1
I1209 15:49:56.877979 27915 net.cpp:157] Top shape: 1 128 300 500 (19200000)
I1209 15:49:56.877981 27915 net.cpp:165] Memory required for data: 835200124
I1209 15:49:56.877985 27915 layer_factory.hpp:77] Creating layer conv2_2
I1209 15:49:56.877992 27915 net.cpp:106] Creating Layer conv2_2
I1209 15:49:56.877995 27915 net.cpp:454] conv2_2 <- conv2_1
I1209 15:49:56.878000 27915 net.cpp:411] conv2_2 -> conv2_2
I1209 15:49:56.879763 27915 net.cpp:150] Setting up conv2_2
I1209 15:49:56.879778 27915 net.cpp:157] Top shape: 1 128 300 500 (19200000)
I1209 15:49:56.879781 27915 net.cpp:165] Memory required for data: 912000124
I1209 15:49:56.879789 27915 layer_factory.hpp:77] Creating layer relu2_2
I1209 15:49:56.879794 27915 net.cpp:106] Creating Layer relu2_2
I1209 15:49:56.879798 27915 net.cpp:454] relu2_2 <- conv2_2
I1209 15:49:56.879803 27915 net.cpp:397] relu2_2 -> conv2_2 (in-place)
I1209 15:49:56.880003 27915 net.cpp:150] Setting up relu2_2
I1209 15:49:56.880012 27915 net.cpp:157] Top shape: 1 128 300 500 (19200000)
I1209 15:49:56.880014 27915 net.cpp:165] Memory required for data: 988800124
I1209 15:49:56.880017 27915 layer_factory.hpp:77] Creating layer pool2
I1209 15:49:56.880026 27915 net.cpp:106] Creating Layer pool2
I1209 15:49:56.880030 27915 net.cpp:454] pool2 <- conv2_2
I1209 15:49:56.880035 27915 net.cpp:411] pool2 -> pool2
I1209 15:49:56.880082 27915 net.cpp:150] Setting up pool2
I1209 15:49:56.880089 27915 net.cpp:157] Top shape: 1 128 150 250 (4800000)
I1209 15:49:56.880091 27915 net.cpp:165] Memory required for data: 1008000124
I1209 15:49:56.880095 27915 layer_factory.hpp:77] Creating layer conv3_1
I1209 15:49:56.880110 27915 net.cpp:106] Creating Layer conv3_1
I1209 15:49:56.880115 27915 net.cpp:454] conv3_1 <- pool2
I1209 15:49:56.880120 27915 net.cpp:411] conv3_1 -> conv3_1
I1209 15:49:56.882751 27915 net.cpp:150] Setting up conv3_1
I1209 15:49:56.882767 27915 net.cpp:157] Top shape: 1 256 150 250 (9600000)
I1209 15:49:56.882772 27915 net.cpp:165] Memory required for data: 1046400124
I1209 15:49:56.882783 27915 layer_factory.hpp:77] Creating layer relu3_1
I1209 15:49:56.882789 27915 net.cpp:106] Creating Layer relu3_1
I1209 15:49:56.882793 27915 net.cpp:454] relu3_1 <- conv3_1
I1209 15:49:56.882798 27915 net.cpp:397] relu3_1 -> conv3_1 (in-place)
I1209 15:49:56.883014 27915 net.cpp:150] Setting up relu3_1
I1209 15:49:56.883024 27915 net.cpp:157] Top shape: 1 256 150 250 (9600000)
I1209 15:49:56.883028 27915 net.cpp:165] Memory required for data: 1084800124
I1209 15:49:56.883030 27915 layer_factory.hpp:77] Creating layer conv3_2
I1209 15:49:56.883044 27915 net.cpp:106] Creating Layer conv3_2
I1209 15:49:56.883049 27915 net.cpp:454] conv3_2 <- conv3_1
I1209 15:49:56.883054 27915 net.cpp:411] conv3_2 -> conv3_2
I1209 15:49:56.886238 27915 net.cpp:150] Setting up conv3_2
I1209 15:49:56.886276 27915 net.cpp:157] Top shape: 1 256 150 250 (9600000)
I1209 15:49:56.886278 27915 net.cpp:165] Memory required for data: 1123200124
I1209 15:49:56.886288 27915 layer_factory.hpp:77] Creating layer relu3_2
I1209 15:49:56.886299 27915 net.cpp:106] Creating Layer relu3_2
I1209 15:49:56.886303 27915 net.cpp:454] relu3_2 <- conv3_2
I1209 15:49:56.886309 27915 net.cpp:397] relu3_2 -> conv3_2 (in-place)
I1209 15:49:56.886526 27915 net.cpp:150] Setting up relu3_2
I1209 15:49:56.886536 27915 net.cpp:157] Top shape: 1 256 150 250 (9600000)
I1209 15:49:56.886538 27915 net.cpp:165] Memory required for data: 1161600124
I1209 15:49:56.886543 27915 layer_factory.hpp:77] Creating layer conv3_3
I1209 15:49:56.886551 27915 net.cpp:106] Creating Layer conv3_3
I1209 15:49:56.886554 27915 net.cpp:454] conv3_3 <- conv3_2
I1209 15:49:56.886561 27915 net.cpp:411] conv3_3 -> conv3_3
I1209 15:49:56.889688 27915 net.cpp:150] Setting up conv3_3
I1209 15:49:56.889709 27915 net.cpp:157] Top shape: 1 256 150 250 (9600000)
I1209 15:49:56.889713 27915 net.cpp:165] Memory required for data: 1200000124
I1209 15:49:56.889721 27915 layer_factory.hpp:77] Creating layer relu3_3
I1209 15:49:56.889729 27915 net.cpp:106] Creating Layer relu3_3
I1209 15:49:56.889734 27915 net.cpp:454] relu3_3 <- conv3_3
I1209 15:49:56.889740 27915 net.cpp:397] relu3_3 -> conv3_3 (in-place)
I1209 15:49:56.890341 27915 net.cpp:150] Setting up relu3_3
I1209 15:49:56.890355 27915 net.cpp:157] Top shape: 1 256 150 250 (9600000)
I1209 15:49:56.890358 27915 net.cpp:165] Memory required for data: 1238400124
I1209 15:49:56.890362 27915 layer_factory.hpp:77] Creating layer pool3
I1209 15:49:56.890369 27915 net.cpp:106] Creating Layer pool3
I1209 15:49:56.890373 27915 net.cpp:454] pool3 <- conv3_3
I1209 15:49:56.890378 27915 net.cpp:411] pool3 -> pool3
I1209 15:49:56.890434 27915 net.cpp:150] Setting up pool3
I1209 15:49:56.890441 27915 net.cpp:157] Top shape: 1 256 75 125 (2400000)
I1209 15:49:56.890444 27915 net.cpp:165] Memory required for data: 1248000124
I1209 15:49:56.890447 27915 layer_factory.hpp:77] Creating layer conv4_1
I1209 15:49:56.890456 27915 net.cpp:106] Creating Layer conv4_1
I1209 15:49:56.890460 27915 net.cpp:454] conv4_1 <- pool3
I1209 15:49:56.890465 27915 net.cpp:411] conv4_1 -> conv4_1
I1209 15:49:56.895834 27915 net.cpp:150] Setting up conv4_1
I1209 15:49:56.895858 27915 net.cpp:157] Top shape: 1 512 75 125 (4800000)
I1209 15:49:56.895860 27915 net.cpp:165] Memory required for data: 1267200124
I1209 15:49:56.895869 27915 layer_factory.hpp:77] Creating layer relu4_1
I1209 15:49:56.895879 27915 net.cpp:106] Creating Layer relu4_1
I1209 15:49:56.895882 27915 net.cpp:454] relu4_1 <- conv4_1
I1209 15:49:56.895887 27915 net.cpp:397] relu4_1 -> conv4_1 (in-place)
I1209 15:49:56.896435 27915 net.cpp:150] Setting up relu4_1
I1209 15:49:56.896446 27915 net.cpp:157] Top shape: 1 512 75 125 (4800000)
I1209 15:49:56.896448 27915 net.cpp:165] Memory required for data: 1286400124
I1209 15:49:56.896451 27915 layer_factory.hpp:77] Creating layer conv4_2
I1209 15:49:56.896461 27915 net.cpp:106] Creating Layer conv4_2
I1209 15:49:56.896463 27915 net.cpp:454] conv4_2 <- conv4_1
I1209 15:49:56.896469 27915 net.cpp:411] conv4_2 -> conv4_2
I1209 15:49:56.904546 27915 net.cpp:150] Setting up conv4_2
I1209 15:49:56.904572 27915 net.cpp:157] Top shape: 1 512 75 125 (4800000)
I1209 15:49:56.904577 27915 net.cpp:165] Memory required for data: 1305600124
I1209 15:49:56.904599 27915 layer_factory.hpp:77] Creating layer relu4_2
I1209 15:49:56.904611 27915 net.cpp:106] Creating Layer relu4_2
I1209 15:49:56.904636 27915 net.cpp:454] relu4_2 <- conv4_2
I1209 15:49:56.904659 27915 net.cpp:397] relu4_2 -> conv4_2 (in-place)
I1209 15:49:56.905055 27915 net.cpp:150] Setting up relu4_2
I1209 15:49:56.905123 27915 net.cpp:157] Top shape: 1 512 75 125 (4800000)
I1209 15:49:56.905128 27915 net.cpp:165] Memory required for data: 1324800124
I1209 15:49:56.905139 27915 layer_factory.hpp:77] Creating layer conv4_3
I1209 15:49:56.905185 27915 net.cpp:106] Creating Layer conv4_3
I1209 15:49:56.905208 27915 net.cpp:454] conv4_3 <- conv4_2
I1209 15:49:56.905228 27915 net.cpp:411] conv4_3 -> conv4_3
I1209 15:49:56.913761 27915 net.cpp:150] Setting up conv4_3
I1209 15:49:56.913786 27915 net.cpp:157] Top shape: 1 512 75 125 (4800000)
I1209 15:49:56.913789 27915 net.cpp:165] Memory required for data: 1344000124
I1209 15:49:56.913797 27915 layer_factory.hpp:77] Creating layer relu4_3
I1209 15:49:56.913805 27915 net.cpp:106] Creating Layer relu4_3
I1209 15:49:56.913810 27915 net.cpp:454] relu4_3 <- conv4_3
I1209 15:49:56.913820 27915 net.cpp:397] relu4_3 -> conv4_3 (in-place)
I1209 15:49:56.914046 27915 net.cpp:150] Setting up relu4_3
I1209 15:49:56.914055 27915 net.cpp:157] Top shape: 1 512 75 125 (4800000)
I1209 15:49:56.914058 27915 net.cpp:165] Memory required for data: 1363200124
I1209 15:49:56.914060 27915 layer_factory.hpp:77] Creating layer conv4_3_relu4_3_0_split
I1209 15:49:56.914067 27915 net.cpp:106] Creating Layer conv4_3_relu4_3_0_split
I1209 15:49:56.914069 27915 net.cpp:454] conv4_3_relu4_3_0_split <- conv4_3
I1209 15:49:56.914074 27915 net.cpp:411] conv4_3_relu4_3_0_split -> conv4_3_relu4_3_0_split_0
I1209 15:49:56.914082 27915 net.cpp:411] conv4_3_relu4_3_0_split -> conv4_3_relu4_3_0_split_1
I1209 15:49:56.914131 27915 net.cpp:150] Setting up conv4_3_relu4_3_0_split
I1209 15:49:56.914142 27915 net.cpp:157] Top shape: 1 512 75 125 (4800000)
I1209 15:49:56.914147 27915 net.cpp:157] Top shape: 1 512 75 125 (4800000)
I1209 15:49:56.914149 27915 net.cpp:165] Memory required for data: 1401600124
I1209 15:49:56.914152 27915 layer_factory.hpp:77] Creating layer pool4
I1209 15:49:56.914157 27915 net.cpp:106] Creating Layer pool4
I1209 15:49:56.914160 27915 net.cpp:454] pool4 <- conv4_3_relu4_3_0_split_0
I1209 15:49:56.914165 27915 net.cpp:411] pool4 -> pool4
I1209 15:49:56.914212 27915 net.cpp:150] Setting up pool4
I1209 15:49:56.914221 27915 net.cpp:157] Top shape: 1 512 38 63 (1225728)
I1209 15:49:56.914222 27915 net.cpp:165] Memory required for data: 1406503036
I1209 15:49:56.914224 27915 layer_factory.hpp:77] Creating layer conv5_1
I1209 15:49:56.914232 27915 net.cpp:106] Creating Layer conv5_1
I1209 15:49:56.914235 27915 net.cpp:454] conv5_1 <- pool4
I1209 15:49:56.914242 27915 net.cpp:411] conv5_1 -> conv5_1
I1209 15:49:56.921169 27915 net.cpp:150] Setting up conv5_1
I1209 15:49:56.921200 27915 net.cpp:157] Top shape: 1 512 38 63 (1225728)
I1209 15:49:56.921203 27915 net.cpp:165] Memory required for data: 1411405948
I1209 15:49:56.921213 27915 layer_factory.hpp:77] Creating layer relu5_1
I1209 15:49:56.921226 27915 net.cpp:106] Creating Layer relu5_1
I1209 15:49:56.921231 27915 net.cpp:454] relu5_1 <- conv5_1
I1209 15:49:56.921241 27915 net.cpp:397] relu5_1 -> conv5_1 (in-place)
I1209 15:49:56.921489 27915 net.cpp:150] Setting up relu5_1
I1209 15:49:56.921501 27915 net.cpp:157] Top shape: 1 512 38 63 (1225728)
I1209 15:49:56.921506 27915 net.cpp:165] Memory required for data: 1416308860
I1209 15:49:56.921510 27915 layer_factory.hpp:77] Creating layer conv5_2
I1209 15:49:56.921521 27915 net.cpp:106] Creating Layer conv5_2
I1209 15:49:56.921527 27915 net.cpp:454] conv5_2 <- conv5_1
I1209 15:49:56.921537 27915 net.cpp:411] conv5_2 -> conv5_2
I1209 15:49:56.927570 27915 net.cpp:150] Setting up conv5_2
I1209 15:49:56.927597 27915 net.cpp:157] Top shape: 1 512 38 63 (1225728)
I1209 15:49:56.927600 27915 net.cpp:165] Memory required for data: 1421211772
I1209 15:49:56.927610 27915 layer_factory.hpp:77] Creating layer relu5_2
I1209 15:49:56.927631 27915 net.cpp:106] Creating Layer relu5_2
I1209 15:49:56.927639 27915 net.cpp:454] relu5_2 <- conv5_2
I1209 15:49:56.927649 27915 net.cpp:397] relu5_2 -> conv5_2 (in-place)
I1209 15:49:56.927891 27915 net.cpp:150] Setting up relu5_2
I1209 15:49:56.927902 27915 net.cpp:157] Top shape: 1 512 38 63 (1225728)
I1209 15:49:56.927906 27915 net.cpp:165] Memory required for data: 1426114684
I1209 15:49:56.927908 27915 layer_factory.hpp:77] Creating layer conv5_3
I1209 15:49:56.927917 27915 net.cpp:106] Creating Layer conv5_3
I1209 15:49:56.927919 27915 net.cpp:454] conv5_3 <- conv5_2
I1209 15:49:56.927927 27915 net.cpp:411] conv5_3 -> conv5_3
I1209 15:49:56.934767 27915 net.cpp:150] Setting up conv5_3
I1209 15:49:56.934795 27915 net.cpp:157] Top shape: 1 512 38 63 (1225728)
I1209 15:49:56.934799 27915 net.cpp:165] Memory required for data: 1431017596
I1209 15:49:56.934808 27915 layer_factory.hpp:77] Creating layer relu5_3
I1209 15:49:56.934818 27915 net.cpp:106] Creating Layer relu5_3
I1209 15:49:56.934823 27915 net.cpp:454] relu5_3 <- conv5_3
I1209 15:49:56.934829 27915 net.cpp:397] relu5_3 -> conv5_3 (in-place)
I1209 15:49:56.935570 27915 net.cpp:150] Setting up relu5_3
I1209 15:49:56.935585 27915 net.cpp:157] Top shape: 1 512 38 63 (1225728)
I1209 15:49:56.935590 27915 net.cpp:165] Memory required for data: 1435920508
I1209 15:49:56.935595 27915 layer_factory.hpp:77] Creating layer conv5_256
I1209 15:49:56.935611 27915 net.cpp:106] Creating Layer conv5_256
I1209 15:49:56.935619 27915 net.cpp:454] conv5_256 <- conv5_3
I1209 15:49:56.935631 27915 net.cpp:411] conv5_256 -> conv5_256
I1209 15:49:56.945562 27915 net.cpp:150] Setting up conv5_256
I1209 15:49:56.945590 27915 net.cpp:157] Top shape: 1 256 38 63 (612864)
I1209 15:49:56.945592 27915 net.cpp:165] Memory required for data: 1438371964
I1209 15:49:56.945600 27915 layer_factory.hpp:77] Creating layer conv5_256_relu
I1209 15:49:56.945607 27915 net.cpp:106] Creating Layer conv5_256_relu
I1209 15:49:56.945611 27915 net.cpp:454] conv5_256_relu <- conv5_256
I1209 15:49:56.945616 27915 net.cpp:397] conv5_256_relu -> conv5_256 (in-place)
I1209 15:49:56.946324 27915 net.cpp:150] Setting up conv5_256_relu
I1209 15:49:56.946336 27915 net.cpp:157] Top shape: 1 256 38 63 (612864)
I1209 15:49:56.946338 27915 net.cpp:165] Memory required for data: 1440823420
I1209 15:49:56.946341 27915 layer_factory.hpp:77] Creating layer conv5_256_conv5_256_relu_0_split
I1209 15:49:56.946348 27915 net.cpp:106] Creating Layer conv5_256_conv5_256_relu_0_split
I1209 15:49:56.946352 27915 net.cpp:454] conv5_256_conv5_256_relu_0_split <- conv5_256
I1209 15:49:56.946357 27915 net.cpp:411] conv5_256_conv5_256_relu_0_split -> conv5_256_conv5_256_relu_0_split_0
I1209 15:49:56.946363 27915 net.cpp:411] conv5_256_conv5_256_relu_0_split -> conv5_256_conv5_256_relu_0_split_1
I1209 15:49:56.946372 27915 net.cpp:411] conv5_256_conv5_256_relu_0_split -> conv5_256_conv5_256_relu_0_split_2
I1209 15:49:56.946377 27915 net.cpp:411] conv5_256_conv5_256_relu_0_split -> conv5_256_conv5_256_relu_0_split_3
I1209 15:49:56.946456 27915 net.cpp:150] Setting up conv5_256_conv5_256_relu_0_split
I1209 15:49:56.946463 27915 net.cpp:157] Top shape: 1 256 38 63 (612864)
I1209 15:49:56.946466 27915 net.cpp:157] Top shape: 1 256 38 63 (612864)
I1209 15:49:56.946470 27915 net.cpp:157] Top shape: 1 256 38 63 (612864)
I1209 15:49:56.946472 27915 net.cpp:157] Top shape: 1 256 38 63 (612864)
I1209 15:49:56.946475 27915 net.cpp:165] Memory required for data: 1450629244
I1209 15:49:56.946476 27915 layer_factory.hpp:77] Creating layer conv5_256_up
I1209 15:49:56.946485 27915 net.cpp:106] Creating Layer conv5_256_up
I1209 15:49:56.946487 27915 net.cpp:454] conv5_256_up <- conv5_256_conv5_256_relu_0_split_0
I1209 15:49:56.946493 27915 net.cpp:411] conv5_256_up -> conv5_256_up
I1209 15:49:56.946843 27915 net.cpp:150] Setting up conv5_256_up
I1209 15:49:56.946851 27915 net.cpp:157] Top shape: 1 256 76 126 (2451456)
I1209 15:49:56.946854 27915 net.cpp:165] Memory required for data: 1460435068
I1209 15:49:56.946858 27915 layer_factory.hpp:77] Creating layer conv4_256
I1209 15:49:56.946866 27915 net.cpp:106] Creating Layer conv4_256
I1209 15:49:56.946869 27915 net.cpp:454] conv4_256 <- conv4_3_relu4_3_0_split_1
I1209 15:49:56.946874 27915 net.cpp:411] conv4_256 -> conv4_256
I1209 15:49:56.950803 27915 net.cpp:150] Setting up conv4_256
I1209 15:49:56.950824 27915 net.cpp:157] Top shape: 1 256 75 125 (2400000)
I1209 15:49:56.950826 27915 net.cpp:165] Memory required for data: 1470035068
I1209 15:49:56.950834 27915 layer_factory.hpp:77] Creating layer conv4_256_relu
I1209 15:49:56.950844 27915 net.cpp:106] Creating Layer conv4_256_relu
I1209 15:49:56.950846 27915 net.cpp:454] conv4_256_relu <- conv4_256
I1209 15:49:56.950852 27915 net.cpp:397] conv4_256_relu -> conv4_256 (in-place)
I1209 15:49:56.951046 27915 net.cpp:150] Setting up conv4_256_relu
I1209 15:49:56.951067 27915 net.cpp:157] Top shape: 1 256 75 125 (2400000)
I1209 15:49:56.951071 27915 net.cpp:165] Memory required for data: 1479635068
I1209 15:49:56.951072 27915 layer_factory.hpp:77] Creating layer conv4_256_conv4_256_relu_0_split
I1209 15:49:56.951078 27915 net.cpp:106] Creating Layer conv4_256_conv4_256_relu_0_split
I1209 15:49:56.951081 27915 net.cpp:454] conv4_256_conv4_256_relu_0_split <- conv4_256
I1209 15:49:56.951086 27915 net.cpp:411] conv4_256_conv4_256_relu_0_split -> conv4_256_conv4_256_relu_0_split_0
I1209 15:49:56.951092 27915 net.cpp:411] conv4_256_conv4_256_relu_0_split -> conv4_256_conv4_256_relu_0_split_1
I1209 15:49:56.951145 27915 net.cpp:150] Setting up conv4_256_conv4_256_relu_0_split
I1209 15:49:56.951153 27915 net.cpp:157] Top shape: 1 256 75 125 (2400000)
I1209 15:49:56.951155 27915 net.cpp:157] Top shape: 1 256 75 125 (2400000)
I1209 15:49:56.951158 27915 net.cpp:165] Memory required for data: 1498835068
I1209 15:49:56.951159 27915 layer_factory.hpp:77] Creating layer conv5_256_crop
I1209 15:49:56.951167 27915 net.cpp:106] Creating Layer conv5_256_crop
I1209 15:49:56.951170 27915 net.cpp:454] conv5_256_crop <- conv5_256_up
I1209 15:49:56.951174 27915 net.cpp:454] conv5_256_crop <- conv4_256_conv4_256_relu_0_split_0
I1209 15:49:56.951179 27915 net.cpp:411] conv5_256_crop -> conv5_256_crop
I1209 15:49:56.951282 27915 net.cpp:150] Setting up conv5_256_crop
I1209 15:49:56.951289 27915 net.cpp:157] Top shape: 1 256 75 125 (2400000)
I1209 15:49:56.951292 27915 net.cpp:165] Memory required for data: 1508435068
I1209 15:49:56.951293 27915 layer_factory.hpp:77] Creating layer conv4_fuse
I1209 15:49:56.956627 27915 net.cpp:106] Creating Layer conv4_fuse
I1209 15:49:56.956647 27915 net.cpp:454] conv4_fuse <- conv5_256_crop
I1209 15:49:56.956665 27915 net.cpp:454] conv4_fuse <- conv4_256_conv4_256_relu_0_split_1
I1209 15:49:56.956673 27915 net.cpp:411] conv4_fuse -> conv4_fuse
I1209 15:49:56.956755 27915 net.cpp:150] Setting up conv4_fuse
I1209 15:49:56.956766 27915 net.cpp:157] Top shape: 1 256 75 125 (2400000)
I1209 15:49:56.956768 27915 net.cpp:165] Memory required for data: 1518035068
I1209 15:49:56.956771 27915 layer_factory.hpp:77] Creating layer conv4_fuse_final
I1209 15:49:56.956784 27915 net.cpp:106] Creating Layer conv4_fuse_final
I1209 15:49:56.956786 27915 net.cpp:454] conv4_fuse_final <- conv4_fuse
I1209 15:49:56.956792 27915 net.cpp:411] conv4_fuse_final -> conv4_fuse_final
I1209 15:49:56.964934 27915 net.cpp:150] Setting up conv4_fuse_final
I1209 15:49:56.964956 27915 net.cpp:157] Top shape: 1 256 75 125 (2400000)
I1209 15:49:56.964959 27915 net.cpp:165] Memory required for data: 1527635068
I1209 15:49:56.964973 27915 layer_factory.hpp:77] Creating layer conv4_fuse_final_relu
I1209 15:49:56.964983 27915 net.cpp:106] Creating Layer conv4_fuse_final_relu
I1209 15:49:56.964987 27915 net.cpp:454] conv4_fuse_final_relu <- conv4_fuse_final
I1209 15:49:56.964993 27915 net.cpp:397] conv4_fuse_final_relu -> conv4_fuse_final (in-place)
I1209 15:49:56.965181 27915 net.cpp:150] Setting up conv4_fuse_final_relu
I1209 15:49:56.965190 27915 net.cpp:157] Top shape: 1 256 75 125 (2400000)
I1209 15:49:56.965193 27915 net.cpp:165] Memory required for data: 1537235068
I1209 15:49:56.965195 27915 layer_factory.hpp:77] Creating layer conv4_fuse_final_conv4_fuse_final_relu_0_split
I1209 15:49:56.965200 27915 net.cpp:106] Creating Layer conv4_fuse_final_conv4_fuse_final_relu_0_split
I1209 15:49:56.965204 27915 net.cpp:454] conv4_fuse_final_conv4_fuse_final_relu_0_split <- conv4_fuse_final
I1209 15:49:56.965209 27915 net.cpp:411] conv4_fuse_final_conv4_fuse_final_relu_0_split -> conv4_fuse_final_conv4_fuse_final_relu_0_split_0
I1209 15:49:56.965215 27915 net.cpp:411] conv4_fuse_final_conv4_fuse_final_relu_0_split -> conv4_fuse_final_conv4_fuse_final_relu_0_split_1
I1209 15:49:56.965220 27915 net.cpp:411] conv4_fuse_final_conv4_fuse_final_relu_0_split -> conv4_fuse_final_conv4_fuse_final_relu_0_split_2
I1209 15:49:56.965283 27915 net.cpp:150] Setting up conv4_fuse_final_conv4_fuse_final_relu_0_split
I1209 15:49:56.965289 27915 net.cpp:157] Top shape: 1 256 75 125 (2400000)
I1209 15:49:56.965292 27915 net.cpp:157] Top shape: 1 256 75 125 (2400000)
I1209 15:49:56.965296 27915 net.cpp:157] Top shape: 1 256 75 125 (2400000)
I1209 15:49:56.965297 27915 net.cpp:165] Memory required for data: 1566035068
I1209 15:49:56.965299 27915 layer_factory.hpp:77] Creating layer rpn_conv/3x3/p4
I1209 15:49:56.965308 27915 net.cpp:106] Creating Layer rpn_conv/3x3/p4
I1209 15:49:56.965312 27915 net.cpp:454] rpn_conv/3x3/p4 <- conv4_fuse_final_conv4_fuse_final_relu_0_split_0
I1209 15:49:56.965318 27915 net.cpp:411] rpn_conv/3x3/p4 -> rpn_conv/3x3_output/p4
I1209 15:49:56.973879 27915 net.cpp:150] Setting up rpn_conv/3x3/p4
I1209 15:49:56.973945 27915 net.cpp:157] Top shape: 1 256 75 125 (2400000)
I1209 15:49:56.973949 27915 net.cpp:165] Memory required for data: 1575635068
I1209 15:49:56.973961 27915 layer_factory.hpp:77] Creating layer rpn_dimred/3x3/p4
I1209 15:49:56.974066 27915 net.cpp:106] Creating Layer rpn_dimred/3x3/p4
I1209 15:49:56.974097 27915 net.cpp:454] rpn_dimred/3x3/p4 <- conv4_fuse_final_conv4_fuse_final_relu_0_split_1
I1209 15:49:56.974144 27915 net.cpp:411] rpn_dimred/3x3/p4 -> rpn_dimred_output/p4
I1209 15:49:56.979953 27915 net.cpp:150] Setting up rpn_dimred/3x3/p4
I1209 15:49:56.979984 27915 net.cpp:157] Top shape: 1 128 75 125 (1200000)
I1209 15:49:56.979987 27915 net.cpp:165] Memory required for data: 1580435068
I1209 15:49:56.979995 27915 layer_factory.hpp:77] Creating layer rpn_dimred_relu/p4
I1209 15:49:56.980002 27915 net.cpp:106] Creating Layer rpn_dimred_relu/p4
I1209 15:49:56.980006 27915 net.cpp:454] rpn_dimred_relu/p4 <- rpn_dimred_output/p4
I1209 15:49:56.980011 27915 net.cpp:397] rpn_dimred_relu/p4 -> rpn_dimred_output/p4 (in-place)
I1209 15:49:56.980274 27915 net.cpp:150] Setting up rpn_dimred_relu/p4
I1209 15:49:56.980283 27915 net.cpp:157] Top shape: 1 128 75 125 (1200000)
I1209 15:49:56.980285 27915 net.cpp:165] Memory required for data: 1585235068
I1209 15:49:56.980288 27915 layer_factory.hpp:77] Creating layer rpn_dimred_output/p4_rpn_dimred_relu/p4_0_split
I1209 15:49:56.980293 27915 net.cpp:106] Creating Layer rpn_dimred_output/p4_rpn_dimred_relu/p4_0_split
I1209 15:49:56.980295 27915 net.cpp:454] rpn_dimred_output/p4_rpn_dimred_relu/p4_0_split <- rpn_dimred_output/p4
I1209 15:49:56.980300 27915 net.cpp:411] rpn_dimred_output/p4_rpn_dimred_relu/p4_0_split -> rpn_dimred_output/p4_rpn_dimred_relu/p4_0_split_0
I1209 15:49:56.980306 27915 net.cpp:411] rpn_dimred_output/p4_rpn_dimred_relu/p4_0_split -> rpn_dimred_output/p4_rpn_dimred_relu/p4_0_split_1
I1209 15:49:56.980353 27915 net.cpp:150] Setting up rpn_dimred_output/p4_rpn_dimred_relu/p4_0_split
I1209 15:49:56.980360 27915 net.cpp:157] Top shape: 1 128 75 125 (1200000)
I1209 15:49:56.980363 27915 net.cpp:157] Top shape: 1 128 75 125 (1200000)
I1209 15:49:56.980365 27915 net.cpp:165] Memory required for data: 1594835068
I1209 15:49:56.980367 27915 layer_factory.hpp:77] Creating layer rpn_conv/5x5/p4
I1209 15:49:56.980377 27915 net.cpp:106] Creating Layer rpn_conv/5x5/p4
I1209 15:49:56.980381 27915 net.cpp:454] rpn_conv/5x5/p4 <- rpn_dimred_output/p4_rpn_dimred_relu/p4_0_split_0
I1209 15:49:56.980386 27915 net.cpp:411] rpn_conv/5x5/p4 -> rpn_conv/5x5_output/p4
I1209 15:49:56.984021 27915 net.cpp:150] Setting up rpn_conv/5x5/p4
I1209 15:49:56.984037 27915 net.cpp:157] Top shape: 1 128 75 125 (1200000)
I1209 15:49:56.984040 27915 net.cpp:165] Memory required for data: 1599635068
I1209 15:49:56.984046 27915 layer_factory.hpp:77] Creating layer rpn_conv/7x7-1/p4
I1209 15:49:56.984058 27915 net.cpp:106] Creating Layer rpn_conv/7x7-1/p4
I1209 15:49:56.984062 27915 net.cpp:454] rpn_conv/7x7-1/p4 <- rpn_dimred_output/p4_rpn_dimred_relu/p4_0_split_1
I1209 15:49:56.984068 27915 net.cpp:411] rpn_conv/7x7-1/p4 -> rpn_conv/7x7-1_out/p4
I1209 15:49:56.987089 27915 net.cpp:150] Setting up rpn_conv/7x7-1/p4
I1209 15:49:56.987113 27915 net.cpp:157] Top shape: 1 128 75 125 (1200000)
I1209 15:49:56.987118 27915 net.cpp:165] Memory required for data: 1604435068
I1209 15:49:56.987124 27915 layer_factory.hpp:77] Creating layer rpn_relu/7x7-1/p4
I1209 15:49:56.987133 27915 net.cpp:106] Creating Layer rpn_relu/7x7-1/p4
I1209 15:49:56.987138 27915 net.cpp:454] rpn_relu/7x7-1/p4 <- rpn_conv/7x7-1_out/p4
I1209 15:49:56.987143 27915 net.cpp:397] rpn_relu/7x7-1/p4 -> rpn_conv/7x7-1_out/p4 (in-place)
I1209 15:49:56.987347 27915 net.cpp:150] Setting up rpn_relu/7x7-1/p4
I1209 15:49:56.987356 27915 net.cpp:157] Top shape: 1 128 75 125 (1200000)
I1209 15:49:56.987359 27915 net.cpp:165] Memory required for data: 1609235068
I1209 15:49:56.987361 27915 layer_factory.hpp:77] Creating layer rpn_conv/7x7/p4
I1209 15:49:56.987370 27915 net.cpp:106] Creating Layer rpn_conv/7x7/p4
I1209 15:49:56.987373 27915 net.cpp:454] rpn_conv/7x7/p4 <- rpn_conv/7x7-1_out/p4
I1209 15:49:56.987378 27915 net.cpp:411] rpn_conv/7x7/p4 -> rpn_conv/7x7_output/p4
I1209 15:49:56.990327 27915 net.cpp:150] Setting up rpn_conv/7x7/p4
I1209 15:49:56.990341 27915 net.cpp:157] Top shape: 1 128 75 125 (1200000)
I1209 15:49:56.990345 27915 net.cpp:165] Memory required for data: 1614035068
I1209 15:49:56.990352 27915 layer_factory.hpp:77] Creating layer rpn_conv/357/p4
I1209 15:49:56.990367 27915 net.cpp:106] Creating Layer rpn_conv/357/p4
I1209 15:49:56.990371 27915 net.cpp:454] rpn_conv/357/p4 <- rpn_conv/3x3_output/p4
I1209 15:49:56.990375 27915 net.cpp:454] rpn_conv/357/p4 <- rpn_conv/5x5_output/p4
I1209 15:49:56.990378 27915 net.cpp:454] rpn_conv/357/p4 <- rpn_conv/7x7_output/p4
I1209 15:49:56.990384 27915 net.cpp:411] rpn_conv/357/p4 -> rpn_conv/357_output/p4
I1209 15:49:56.990420 27915 net.cpp:150] Setting up rpn_conv/357/p4
I1209 15:49:56.990425 27915 net.cpp:157] Top shape: 1 512 75 125 (4800000)
I1209 15:49:56.990427 27915 net.cpp:165] Memory required for data: 1633235068
I1209 15:49:56.990429 27915 layer_factory.hpp:77] Creating layer rpn_relu/357/p4
I1209 15:49:56.990437 27915 net.cpp:106] Creating Layer rpn_relu/357/p4
I1209 15:49:56.990442 27915 net.cpp:454] rpn_relu/357/p4 <- rpn_conv/357_output/p4
I1209 15:49:56.990447 27915 net.cpp:397] rpn_relu/357/p4 -> rpn_conv/357_output/p4 (in-place)
I1209 15:49:56.990620 27915 net.cpp:150] Setting up rpn_relu/357/p4
I1209 15:49:56.990628 27915 net.cpp:157] Top shape: 1 512 75 125 (4800000)
I1209 15:49:56.990630 27915 net.cpp:165] Memory required for data: 1652435068
I1209 15:49:56.990633 27915 layer_factory.hpp:77] Creating layer rpn_conv/357_output/p4_rpn_relu/357/p4_0_split
I1209 15:49:56.990638 27915 net.cpp:106] Creating Layer rpn_conv/357_output/p4_rpn_relu/357/p4_0_split
I1209 15:49:56.990640 27915 net.cpp:454] rpn_conv/357_output/p4_rpn_relu/357/p4_0_split <- rpn_conv/357_output/p4
I1209 15:49:56.990645 27915 net.cpp:411] rpn_conv/357_output/p4_rpn_relu/357/p4_0_split -> rpn_conv/357_output/p4_rpn_relu/357/p4_0_split_0
I1209 15:49:56.990650 27915 net.cpp:411] rpn_conv/357_output/p4_rpn_relu/357/p4_0_split -> rpn_conv/357_output/p4_rpn_relu/357/p4_0_split_1
I1209 15:49:56.990696 27915 net.cpp:150] Setting up rpn_conv/357_output/p4_rpn_relu/357/p4_0_split
I1209 15:49:56.990702 27915 net.cpp:157] Top shape: 1 512 75 125 (4800000)
I1209 15:49:56.990705 27915 net.cpp:157] Top shape: 1 512 75 125 (4800000)
I1209 15:49:56.990706 27915 net.cpp:165] Memory required for data: 1690835068
I1209 15:49:56.990710 27915 layer_factory.hpp:77] Creating layer rpn_cls_score/p4
I1209 15:49:56.990717 27915 net.cpp:106] Creating Layer rpn_cls_score/p4
I1209 15:49:56.990720 27915 net.cpp:454] rpn_cls_score/p4 <- rpn_conv/357_output/p4_rpn_relu/357/p4_0_split_0
I1209 15:49:56.990726 27915 net.cpp:411] rpn_cls_score/p4 -> rpn_cls_score/p4
I1209 15:49:56.991947 27915 net.cpp:150] Setting up rpn_cls_score/p4
I1209 15:49:56.991958 27915 net.cpp:157] Top shape: 1 18 75 125 (168750)
I1209 15:49:56.991961 27915 net.cpp:165] Memory required for data: 1691510068
I1209 15:49:56.991966 27915 layer_factory.hpp:77] Creating layer rpn_cls_score/p4_rpn_cls_score/p4_0_split
I1209 15:49:56.991971 27915 net.cpp:106] Creating Layer rpn_cls_score/p4_rpn_cls_score/p4_0_split
I1209 15:49:56.991974 27915 net.cpp:454] rpn_cls_score/p4_rpn_cls_score/p4_0_split <- rpn_cls_score/p4
I1209 15:49:56.991978 27915 net.cpp:411] rpn_cls_score/p4_rpn_cls_score/p4_0_split -> rpn_cls_score/p4_rpn_cls_score/p4_0_split_0
I1209 15:49:56.991986 27915 net.cpp:411] rpn_cls_score/p4_rpn_cls_score/p4_0_split -> rpn_cls_score/p4_rpn_cls_score/p4_0_split_1
I1209 15:49:56.992028 27915 net.cpp:150] Setting up rpn_cls_score/p4_rpn_cls_score/p4_0_split
I1209 15:49:56.992035 27915 net.cpp:157] Top shape: 1 18 75 125 (168750)
I1209 15:49:56.992038 27915 net.cpp:157] Top shape: 1 18 75 125 (168750)
I1209 15:49:56.992040 27915 net.cpp:165] Memory required for data: 1692860068
I1209 15:49:56.992043 27915 layer_factory.hpp:77] Creating layer rpn_bbox_pred/p4
I1209 15:49:56.992050 27915 net.cpp:106] Creating Layer rpn_bbox_pred/p4
I1209 15:49:56.992053 27915 net.cpp:454] rpn_bbox_pred/p4 <- rpn_conv/357_output/p4_rpn_relu/357/p4_0_split_1
I1209 15:49:56.992058 27915 net.cpp:411] rpn_bbox_pred/p4 -> rpn_bbox_pred/p4
I1209 15:49:56.993351 27915 net.cpp:150] Setting up rpn_bbox_pred/p4
I1209 15:49:56.993362 27915 net.cpp:157] Top shape: 1 36 75 125 (337500)
I1209 15:49:56.993366 27915 net.cpp:165] Memory required for data: 1694210068
I1209 15:49:56.993372 27915 layer_factory.hpp:77] Creating layer rpn_bbox_pred/p4_rpn_bbox_pred/p4_0_split
I1209 15:49:56.993379 27915 net.cpp:106] Creating Layer rpn_bbox_pred/p4_rpn_bbox_pred/p4_0_split
I1209 15:49:56.993383 27915 net.cpp:454] rpn_bbox_pred/p4_rpn_bbox_pred/p4_0_split <- rpn_bbox_pred/p4
I1209 15:49:56.993391 27915 net.cpp:411] rpn_bbox_pred/p4_rpn_bbox_pred/p4_0_split -> rpn_bbox_pred/p4_rpn_bbox_pred/p4_0_split_0
I1209 15:49:56.993398 27915 net.cpp:411] rpn_bbox_pred/p4_rpn_bbox_pred/p4_0_split -> rpn_bbox_pred/p4_rpn_bbox_pred/p4_0_split_1
I1209 15:49:56.993443 27915 net.cpp:150] Setting up rpn_bbox_pred/p4_rpn_bbox_pred/p4_0_split
I1209 15:49:56.993449 27915 net.cpp:157] Top shape: 1 36 75 125 (337500)
I1209 15:49:56.993453 27915 net.cpp:157] Top shape: 1 36 75 125 (337500)
I1209 15:49:56.993454 27915 net.cpp:165] Memory required for data: 1696910068
I1209 15:49:56.993458 27915 layer_factory.hpp:77] Creating layer rpn_cls_score_reshape/p4
I1209 15:49:56.993463 27915 net.cpp:106] Creating Layer rpn_cls_score_reshape/p4
I1209 15:49:56.993465 27915 net.cpp:454] rpn_cls_score_reshape/p4 <- rpn_cls_score/p4_rpn_cls_score/p4_0_split_0
I1209 15:49:56.993472 27915 net.cpp:411] rpn_cls_score_reshape/p4 -> rpn_cls_score_reshape/p4
I1209 15:49:56.994124 27915 net.cpp:150] Setting up rpn_cls_score_reshape/p4
I1209 15:49:56.994153 27915 net.cpp:157] Top shape: 1 2 675 125 (168750)
I1209 15:49:56.994161 27915 net.cpp:165] Memory required for data: 1697585068
I1209 15:49:56.994182 27915 layer_factory.hpp:77] Creating layer rpn_cls_score_reshape/p4_rpn_cls_score_reshape/p4_0_split
I1209 15:49:56.994187 27915 net.cpp:106] Creating Layer rpn_cls_score_reshape/p4_rpn_cls_score_reshape/p4_0_split
I1209 15:49:56.994190 27915 net.cpp:454] rpn_cls_score_reshape/p4_rpn_cls_score_reshape/p4_0_split <- rpn_cls_score_reshape/p4
I1209 15:49:56.994195 27915 net.cpp:411] rpn_cls_score_reshape/p4_rpn_cls_score_reshape/p4_0_split -> rpn_cls_score_reshape/p4_rpn_cls_score_reshape/p4_0_split_0
I1209 15:49:56.994210 27915 net.cpp:411] rpn_cls_score_reshape/p4_rpn_cls_score_reshape/p4_0_split -> rpn_cls_score_reshape/p4_rpn_cls_score_reshape/p4_0_split_1
I1209 15:49:56.994261 27915 net.cpp:150] Setting up rpn_cls_score_reshape/p4_rpn_cls_score_reshape/p4_0_split
I1209 15:49:56.994266 27915 net.cpp:157] Top shape: 1 2 675 125 (168750)
I1209 15:49:56.994269 27915 net.cpp:157] Top shape: 1 2 675 125 (168750)
I1209 15:49:56.994271 27915 net.cpp:165] Memory required for data: 1698935068
I1209 15:49:56.994273 27915 layer_factory.hpp:77] Creating layer rpn-data/p4
I1209 15:49:57.294282 27915 net.cpp:106] Creating Layer rpn-data/p4
I1209 15:49:57.294322 27915 net.cpp:454] rpn-data/p4 <- rpn_cls_score/p4_rpn_cls_score/p4_0_split_1
I1209 15:49:57.294335 27915 net.cpp:454] rpn-data/p4 <- gt_boxes_input-data_2_split_0
I1209 15:49:57.294343 27915 net.cpp:454] rpn-data/p4 <- im_info_input-data_1_split_0
I1209 15:49:57.294350 27915 net.cpp:454] rpn-data/p4 <- data_input-data_0_split_1
I1209 15:49:57.294363 27915 net.cpp:411] rpn-data/p4 -> rpn_labels/p4
I1209 15:49:57.294394 27915 net.cpp:411] rpn-data/p4 -> rpn_bbox_targets/p4
I1209 15:49:57.294416 27915 net.cpp:411] rpn-data/p4 -> rpn_bbox_inside_weights/p4
I1209 15:49:57.294440 27915 net.cpp:411] rpn-data/p4 -> rpn_bbox_outside_weights/p4
I1209 15:49:57.299144 27915 net.cpp:150] Setting up rpn-data/p4
I1209 15:49:57.299181 27915 net.cpp:157] Top shape: 1 1 675 125 (84375)
I1209 15:49:57.299190 27915 net.cpp:157] Top shape: 1 36 75 125 (337500)
I1209 15:49:57.299196 27915 net.cpp:157] Top shape: 1 36 75 125 (337500)
I1209 15:49:57.299203 27915 net.cpp:157] Top shape: 1 36 75 125 (337500)
I1209 15:49:57.299208 27915 net.cpp:165] Memory required for data: 1703322568
I1209 15:49:57.299221 27915 layer_factory.hpp:77] Creating layer rpn_loss_cls/p4
I1209 15:49:57.299244 27915 net.cpp:106] Creating Layer rpn_loss_cls/p4
I1209 15:49:57.299253 27915 net.cpp:454] rpn_loss_cls/p4 <- rpn_cls_score_reshape/p4_rpn_cls_score_reshape/p4_0_split_0
I1209 15:49:57.299264 27915 net.cpp:454] rpn_loss_cls/p4 <- rpn_labels/p4
…
I1209 15:49:57.306424 27915 net.cpp:160]     with loss weight 1
I1209 15:49:57.306438 27915 net.cpp:165] Memory required for data: 1703322576
I1209 15:49:57.306447 27915 layer_factory.hpp:77] Creating layer rpn_cls_prob/p4
I1209 15:49:57.306465 27915 net.cpp:106] Creating Layer rpn_cls_prob/p4
I1209 15:49:57.306478 27915 net.cpp:454] rpn_cls_prob/p4 <- rpn_cls_score_reshape/p4_rpn_cls_score_reshape/p4_0_split_1
I1209 15:49:57.306498 27915 net.cpp:411] rpn_cls_prob/p4 -> rpn_cls_prob/p4
I1209 15:49:57.308246 27915 net.cpp:150] Setting up rpn_cls_prob/p4
I1209 15:49:57.308284 27915 net.cpp:157] Top shape: 1 2 675 125 (168750)
I1209 15:49:57.308290 27915 net.cpp:165] Memory required for data: 1703997576
I1209 15:49:57.308298 27915 layer_factory.hpp:77] Creating layer rpn_cls_prob_reshape/p4
I1209 15:49:57.308313 27915 net.cpp:106] Creating Layer rpn_cls_prob_reshape/p4
I1209 15:49:57.308322 27915 net.cpp:454] rpn_cls_prob_reshape/p4 <- rpn_cls_prob/p4
I1209 15:49:57.308338 27915 net.cpp:411] rpn_cls_prob_reshape/p4 -> rpn_cls_prob_reshape/p4
I1209 15:49:57.308416 27915 net.cpp:150] Setting up rpn_cls_prob_reshape/p4
I1209 15:49:57.308435 27915 net.cpp:157] Top shape: 1 18 75 125 (168750)
I1209 15:49:57.308440 27915 net.cpp:165] Memory required for data: 1704672576
I1209 15:49:57.308445 27915 layer_factory.hpp:77] Creating layer proposal/p4
I1209 15:49:57.485113 27915 net.cpp:106] Creating Layer proposal/p4
I1209 15:49:57.485136 27915 net.cpp:454] proposal/p4 <- rpn_cls_prob_reshape/p4
I1209 15:49:57.485141 27915 net.cpp:454] proposal/p4 <- rpn_bbox_pred/p4_rpn_bbox_pred/p4_0_split_1
I1209 15:49:57.485146 27915 net.cpp:454] proposal/p4 <- im_info_input-data_1_split_1
I1209 15:49:57.485152 27915 net.cpp:411] proposal/p4 -> rpn_rois/p4
I1209 15:49:57.509331 27915 net.cpp:150] Setting up proposal/p4
I1209 15:49:57.509354 27915 net.cpp:157] Top shape: 1 5 (5)
I1209 15:49:57.509357 27915 net.cpp:165] Memory required for data: 1704672596
I1209 15:49:57.509362 27915 layer_factory.hpp:77] Creating layer rpn_conv/3x3/p5
I1209 15:49:57.509377 27915 net.cpp:106] Creating Layer rpn_conv/3x3/p5
I1209 15:49:57.509382 27915 net.cpp:454] rpn_conv/3x3/p5 <- conv5_256_conv5_256_relu_0_split_1
I1209 15:49:57.509390 27915 net.cpp:411] rpn_conv/3x3/p5 -> rpn_conv/3x3_output/p5
I1209 15:49:57.520018 27915 net.cpp:150] Setting up rpn_conv/3x3/p5
I1209 15:49:57.520154 27915 net.cpp:157] Top shape: 1 256 38 63 (612864)
I1209 15:49:57.520164 27915 net.cpp:165] Memory required for data: 1707124052
I1209 15:49:57.520205 27915 layer_factory.hpp:77] Creating layer rpn_dimred/3x3/p5
I1209 15:49:57.520304 27915 net.cpp:106] Creating Layer rpn_dimred/3x3/p5
I1209 15:49:57.520328 27915 net.cpp:454] rpn_dimred/3x3/p5 <- conv5_256_conv5_256_relu_0_split_2
I1209 15:49:57.520381 27915 net.cpp:411] rpn_dimred/3x3/p5 -> rpn_dimred_output/p5
I1209 15:49:57.526141 27915 net.cpp:150] Setting up rpn_dimred/3x3/p5
I1209 15:49:57.526162 27915 net.cpp:157] Top shape: 1 128 38 63 (306432)
I1209 15:49:57.526165 27915 net.cpp:165] Memory required for data: 1708349780
I1209 15:49:57.526172 27915 layer_factory.hpp:77] Creating layer rpn_dimred_relu/p5
I1209 15:49:57.526181 27915 net.cpp:106] Creating Layer rpn_dimred_relu/p5
I1209 15:49:57.526186 27915 net.cpp:454] rpn_dimred_relu/p5 <- rpn_dimred_output/p5
I1209 15:49:57.526193 27915 net.cpp:397] rpn_dimred_relu/p5 -> rpn_dimred_output/p5 (in-place)
I1209 15:49:57.526785 27915 net.cpp:150] Setting up rpn_dimred_relu/p5
I1209 15:49:57.526799 27915 net.cpp:157] Top shape: 1 128 38 63 (306432)
I1209 15:49:57.526803 27915 net.cpp:165] Memory required for data: 1709575508
I1209 15:49:57.526805 27915 layer_factory.hpp:77] Creating layer rpn_dimred_output/p5_rpn_dimred_relu/p5_0_split
I1209 15:49:57.526810 27915 net.cpp:106] Creating Layer rpn_dimred_output/p5_rpn_dimred_relu/p5_0_split
I1209 15:49:57.526813 27915 net.cpp:454] rpn_dimred_output/p5_rpn_dimred_relu/p5_0_split <- rpn_dimred_output/p5
I1209 15:49:57.526819 27915 net.cpp:411] rpn_dimred_output/p5_rpn_dimred_relu/p5_0_split -> rpn_dimred_output/p5_rpn_dimred_relu/p5_0_split_0
I1209 15:49:57.526826 27915 net.cpp:411] rpn_dimred_output/p5_rpn_dimred_relu/p5_0_split -> rpn_dimred_output/p5_rpn_dimred_relu/p5_0_split_1
I1209 15:49:57.526880 27915 net.cpp:150] Setting up rpn_dimred_output/p5_rpn_dimred_relu/p5_0_split
I1209 15:49:57.526887 27915 net.cpp:157] Top shape: 1 128 38 63 (306432)
I1209 15:49:57.526892 27915 net.cpp:157] Top shape: 1 128 38 63 (306432)
I1209 15:49:57.526895 27915 net.cpp:165] Memory required for data: 1712026964
I1209 15:49:57.526899 27915 layer_factory.hpp:77] Creating layer rpn_conv/5x5/p5
I1209 15:49:57.526913 27915 net.cpp:106] Creating Layer rpn_conv/5x5/p5
I1209 15:49:57.526917 27915 net.cpp:454] rpn_conv/5x5/p5 <- rpn_dimred_output/p5_rpn_dimred_relu/p5_0_split_0
I1209 15:49:57.526924 27915 net.cpp:411] rpn_conv/5x5/p5 -> rpn_conv/5x5_output/p5
I1209 15:49:57.529891 27915 net.cpp:150] Setting up rpn_conv/5x5/p5
I1209 15:49:57.529902 27915 net.cpp:157] Top shape: 1 128 38 63 (306432)
I1209 15:49:57.529906 27915 net.cpp:165] Memory required for data: 1713252692
I1209 15:49:57.529911 27915 layer_factory.hpp:77] Creating layer rpn_conv/7x7-1/p5
I1209 15:49:57.529920 27915 net.cpp:106] Creating Layer rpn_conv/7x7-1/p5
I1209 15:49:57.529924 27915 net.cpp:454] rpn_conv/7x7-1/p5 <- rpn_dimred_output/p5_rpn_dimred_relu/p5_0_split_1
I1209 15:49:57.529930 27915 net.cpp:411] rpn_conv/7x7-1/p5 -> rpn_conv/7x7-1_out/p5
I1209 15:49:57.532946 27915 net.cpp:150] Setting up rpn_conv/7x7-1/p5
I1209 15:49:57.532958 27915 net.cpp:157] Top shape: 1 128 38 63 (306432)
I1209 15:49:57.532963 27915 net.cpp:165] Memory required for data: 1714478420
I1209 15:49:57.532968 27915 layer_factory.hpp:77] Creating layer rpn_relu/7x7-1/p5
I1209 15:49:57.532977 27915 net.cpp:106] Creating Layer rpn_relu/7x7-1/p5
I1209 15:49:57.532981 27915 net.cpp:454] rpn_relu/7x7-1/p5 <- rpn_conv/7x7-1_out/p5
I1209 15:49:57.532986 27915 net.cpp:397] rpn_relu/7x7-1/p5 -> rpn_conv/7x7-1_out/p5 (in-place)
I1209 15:49:57.533190 27915 net.cpp:150] Setting up rpn_relu/7x7-1/p5
I1209 15:49:57.533200 27915 net.cpp:157] Top shape: 1 128 38 63 (306432)
I1209 15:49:57.533205 27915 net.cpp:165] Memory required for data: 1715704148
I1209 15:49:57.533208 27915 layer_factory.hpp:77] Creating layer rpn_conv/7x7/p5
I1209 15:49:57.533223 27915 net.cpp:106] Creating Layer rpn_conv/7x7/p5
I1209 15:49:57.533229 27915 net.cpp:454] rpn_conv/7x7/p5 <- rpn_conv/7x7-1_out/p5
I1209 15:49:57.533241 27915 net.cpp:411] rpn_conv/7x7/p5 -> rpn_conv/7x7_output/p5
I1209 15:49:57.536530 27915 net.cpp:150] Setting up rpn_conv/7x7/p5
I1209 15:49:57.536552 27915 net.cpp:157] Top shape: 1 128 38 63 (306432)
I1209 15:49:57.536556 27915 net.cpp:165] Memory required for data: 1716929876
I1209 15:49:57.536566 27915 layer_factory.hpp:77] Creating layer rpn_conv/357/p5
I1209 15:49:57.536581 27915 net.cpp:106] Creating Layer rpn_conv/357/p5
I1209 15:49:57.536589 27915 net.cpp:454] rpn_conv/357/p5 <- rpn_conv/3x3_output/p5
I1209 15:49:57.536598 27915 net.cpp:454] rpn_conv/357/p5 <- rpn_conv/5x5_output/p5
I1209 15:49:57.536604 27915 net.cpp:454] rpn_conv/357/p5 <- rpn_conv/7x7_output/p5
I1209 15:49:57.536613 27915 net.cpp:411] rpn_conv/357/p5 -> rpn_conv/357_output/p5
I1209 15:49:57.536664 27915 net.cpp:150] Setting up rpn_conv/357/p5
I1209 15:49:57.536671 27915 net.cpp:157] Top shape: 1 512 38 63 (1225728)
I1209 15:49:57.536675 27915 net.cpp:165] Memory required for data: 1721832788
I1209 15:49:57.536679 27915 layer_factory.hpp:77] Creating layer rpn_relu/357/p5
I1209 15:49:57.536687 27915 net.cpp:106] Creating Layer rpn_relu/357/p5
I1209 15:49:57.536692 27915 net.cpp:454] rpn_relu/357/p5 <- rpn_conv/357_output/p5
I1209 15:49:57.536701 27915 net.cpp:397] rpn_relu/357/p5 -> rpn_conv/357_output/p5 (in-place)
I1209 15:49:57.536929 27915 net.cpp:150] Setting up rpn_relu/357/p5
I1209 15:49:57.536939 27915 net.cpp:157] Top shape: 1 512 38 63 (1225728)
I1209 15:49:57.536943 27915 net.cpp:165] Memory required for data: 1726735700
I1209 15:49:57.536947 27915 layer_factory.hpp:77] Creating layer rpn_conv/357_output/p5_rpn_relu/357/p5_0_split
I1209 15:49:57.536959 27915 net.cpp:106] Creating Layer rpn_conv/357_output/p5_rpn_relu/357/p5_0_split
I1209 15:49:57.536964 27915 net.cpp:454] rpn_conv/357_output/p5_rpn_relu/357/p5_0_split <- rpn_conv/357_output/p5
I1209 15:49:57.536972 27915 net.cpp:411] rpn_conv/357_output/p5_rpn_relu/357/p5_0_split -> rpn_conv/357_output/p5_rpn_relu/357/p5_0_split_0
I1209 15:49:57.536980 27915 net.cpp:411] rpn_conv/357_output/p5_rpn_relu/357/p5_0_split -> rpn_conv/357_output/p5_rpn_relu/357/p5_0_split_1
I1209 15:49:57.537039 27915 net.cpp:150] Setting up rpn_conv/357_output/p5_rpn_relu/357/p5_0_split
I1209 15:49:57.537046 27915 net.cpp:157] Top shape: 1 512 38 63 (1225728)
I1209 15:49:57.537051 27915 net.cpp:157] Top shape: 1 512 38 63 (1225728)
I1209 15:49:57.537055 27915 net.cpp:165] Memory required for data: 1736541524
I1209 15:49:57.537060 27915 layer_factory.hpp:77] Creating layer rpn_cls_score/p5
I1209 15:49:57.537073 27915 net.cpp:106] Creating Layer rpn_cls_score/p5
I1209 15:49:57.537080 27915 net.cpp:454] rpn_cls_score/p5 <- rpn_conv/357_output/p5_rpn_relu/357/p5_0_split_0
I1209 15:49:57.537089 27915 net.cpp:411] rpn_cls_score/p5 -> rpn_cls_score/p5
I1209 15:49:57.538581 27915 net.cpp:150] Setting up rpn_cls_score/p5
I1209 15:49:57.538594 27915 net.cpp:157] Top shape: 1 18 38 63 (43092)
I1209 15:49:57.538599 27915 net.cpp:165] Memory required for data: 1736713892
I1209 15:49:57.538606 27915 layer_factory.hpp:77] Creating layer rpn_cls_score/p5_rpn_cls_score/p5_0_split
I1209 15:49:57.538614 27915 net.cpp:106] Creating Layer rpn_cls_score/p5_rpn_cls_score/p5_0_split
I1209 15:49:57.538621 27915 net.cpp:454] rpn_cls_score/p5_rpn_cls_score/p5_0_split <- rpn_cls_score/p5
I1209 15:49:57.538630 27915 net.cpp:411] rpn_cls_score/p5_rpn_cls_score/p5_0_split -> rpn_cls_score/p5_rpn_cls_score/p5_0_split_0
I1209 15:49:57.538642 27915 net.cpp:411] rpn_cls_score/p5_rpn_cls_score/p5_0_split -> rpn_cls_score/p5_rpn_cls_score/p5_0_split_1
I1209 15:49:57.538696 27915 net.cpp:150] Setting up rpn_cls_score/p5_rpn_cls_score/p5_0_split
I1209 15:49:57.538703 27915 net.cpp:157] Top shape: 1 18 38 63 (43092)
I1209 15:49:57.538708 27915 net.cpp:157] Top shape: 1 18 38 63 (43092)
I1209 15:49:57.538712 27915 net.cpp:165] Memory required for data: 1737058628
I1209 15:49:57.538717 27915 layer_factory.hpp:77] Creating layer rpn_bbox_pred/p5
I1209 15:49:57.538730 27915 net.cpp:106] Creating Layer rpn_bbox_pred/p5
I1209 15:49:57.538735 27915 net.cpp:454] rpn_bbox_pred/p5 <- rpn_conv/357_output/p5_rpn_relu/357/p5_0_split_1
I1209 15:49:57.538746 27915 net.cpp:411] rpn_bbox_pred/p5 -> rpn_bbox_pred/p5
I1209 15:49:57.540127 27915 net.cpp:150] Setting up rpn_bbox_pred/p5
I1209 15:49:57.540139 27915 net.cpp:157] Top shape: 1 36 38 63 (86184)
I1209 15:49:57.540143 27915 net.cpp:165] Memory required for data: 1737403364
I1209 15:49:57.540151 27915 layer_factory.hpp:77] Creating layer rpn_bbox_pred/p5_rpn_bbox_pred/p5_0_split
I1209 15:49:57.540163 27915 net.cpp:106] Creating Layer rpn_bbox_pred/p5_rpn_bbox_pred/p5_0_split
I1209 15:49:57.540169 27915 net.cpp:454] rpn_bbox_pred/p5_rpn_bbox_pred/p5_0_split <- rpn_bbox_pred/p5
I1209 15:49:57.540176 27915 net.cpp:411] rpn_bbox_pred/p5_rpn_bbox_pred/p5_0_split -> rpn_bbox_pred/p5_rpn_bbox_pred/p5_0_split_0
I1209 15:49:57.540189 27915 net.cpp:411] rpn_bbox_pred/p5_rpn_bbox_pred/p5_0_split -> rpn_bbox_pred/p5_rpn_bbox_pred/p5_0_split_1
I1209 15:49:57.540235 27915 net.cpp:150] Setting up rpn_bbox_pred/p5_rpn_bbox_pred/p5_0_split
I1209 15:49:57.540243 27915 net.cpp:157] Top shape: 1 36 38 63 (86184)
I1209 15:49:57.540248 27915 net.cpp:157] Top shape: 1 36 38 63 (86184)
I1209 15:49:57.540252 27915 net.cpp:165] Memory required for data: 1738092836
I1209 15:49:57.540256 27915 layer_factory.hpp:77] Creating layer rpn_cls_score_reshape/p5
I1209 15:49:57.540266 27915 net.cpp:106] Creating Layer rpn_cls_score_reshape/p5
I1209 15:49:57.540271 27915 net.cpp:454] rpn_cls_score_reshape/p5 <- rpn_cls_score/p5_rpn_cls_score/p5_0_split_0
I1209 15:49:57.540280 27915 net.cpp:411] rpn_cls_score_reshape/p5 -> rpn_cls_score_reshape/p5
I1209 15:49:57.540311 27915 net.cpp:150] Setting up rpn_cls_score_reshape/p5
I1209 15:49:57.540318 27915 net.cpp:157] Top shape: 1 2 342 63 (43092)
I1209 15:49:57.540323 27915 net.cpp:165] Memory required for data: 1738265204
I1209 15:49:57.540325 27915 layer_factory.hpp:77] Creating layer rpn_cls_score_reshape/p5_rpn_cls_score_reshape/p5_0_split
I1209 15:49:57.540333 27915 net.cpp:106] Creating Layer rpn_cls_score_reshape/p5_rpn_cls_score_reshape/p5_0_split
I1209 15:49:57.540338 27915 net.cpp:454] rpn_cls_score_reshape/p5_rpn_cls_score_reshape/p5_0_split <- rpn_cls_score_reshape/p5
I1209 15:49:57.540344 27915 net.cpp:411] rpn_cls_score_reshape/p5_rpn_cls_score_reshape/p5_0_split -> rpn_cls_score_reshape/p5_rpn_cls_score_reshape/p5_0_split_0
I1209 15:49:57.540355 27915 net.cpp:411] rpn_cls_score_reshape/p5_rpn_cls_score_reshape/p5_0_split -> rpn_cls_score_reshape/p5_rpn_cls_score_reshape/p5_0_split_1
I1209 15:49:57.540397 27915 net.cpp:150] Setting up rpn_cls_score_reshape/p5_rpn_cls_score_reshape/p5_0_split
I1209 15:49:57.540406 27915 net.cpp:157] Top shape: 1 2 342 63 (43092)
I1209 15:49:57.540413 27915 net.cpp:157] Top shape: 1 2 342 63 (43092)
I1209 15:49:57.540416 27915 net.cpp:165] Memory required for data: 1738609940
I1209 15:49:57.540421 27915 layer_factory.hpp:77] Creating layer rpn-data/p5
I1209 15:49:57.540469 27915 net.cpp:106] Creating Layer rpn-data/p5
I1209 15:49:57.540475 27915 net.cpp:454] rpn-data/p5 <- rpn_cls_score/p5_rpn_cls_score/p5_0_split_1
I1209 15:49:57.540482 27915 net.cpp:454] rpn-data/p5 <- gt_boxes_input-data_2_split_1
I1209 15:49:57.540488 27915 net.cpp:454] rpn-data/p5 <- im_info_input-data_1_split_2
I1209 15:49:57.540493 27915 net.cpp:454] rpn-data/p5 <- data_input-data_0_split_2
I1209 15:49:57.540500 27915 net.cpp:411] rpn-data/p5 -> rpn_labels/p5
I1209 15:49:57.540511 27915 net.cpp:411] rpn-data/p5 -> rpn_bbox_targets/p5
I1209 15:49:57.540522 27915 net.cpp:411] rpn-data/p5 -> rpn_bbox_inside_weights/p5
I1209 15:49:57.540534 27915 net.cpp:411] rpn-data/p5 -> rpn_bbox_outside_weights/p5
I1209 15:49:57.541841 27915 net.cpp:150] Setting up rpn-data/p5
I1209 15:49:57.541854 27915 net.cpp:157] Top shape: 1 1 342 63 (21546)
I1209 15:49:57.541860 27915 net.cpp:157] Top shape: 1 36 38 63 (86184)
I1209 15:49:57.541865 27915 net.cpp:157] Top shape: 1 36 38 63 (86184)
I1209 15:49:57.541870 27915 net.cpp:157] Top shape: 1 36 38 63 (86184)
I1209 15:49:57.541873 27915 net.cpp:165] Memory required for data: 1739730332
I1209 15:49:57.541878 27915 layer_factory.hpp:77] Creating layer rpn_loss_cls/p5
I1209 15:49:57.541887 27915 net.cpp:106] Creating Layer rpn_loss_cls/p5
I1209 15:49:57.541893 27915 net.cpp:454] rpn_loss_cls/p5 <- rpn_cls_score_reshape/p5_rpn_cls_score_reshape/p5_0_split_0
I1209 15:49:57.541899 27915 net.cpp:454] rpn_loss_cls/p5 <- rpn_labels/p5
…
I1209 15:49:57.542889 27915 net.cpp:160]     with loss weight 1
I1209 15:49:57.542894 27915 net.cpp:165] Memory required for data: 1739730340
I1209 15:49:57.542898 27915 layer_factory.hpp:77] Creating layer rpn_cls_prob/p5
I1209 15:49:57.542906 27915 net.cpp:106] Creating Layer rpn_cls_prob/p5
I1209 15:49:57.542913 27915 net.cpp:454] rpn_cls_prob/p5 <- rpn_cls_score_reshape/p5_rpn_cls_score_reshape/p5_0_split_1
I1209 15:49:57.542920 27915 net.cpp:411] rpn_cls_prob/p5 -> rpn_cls_prob/p5
I1209 15:49:57.543174 27915 net.cpp:150] Setting up rpn_cls_prob/p5
I1209 15:49:57.543184 27915 net.cpp:157] Top shape: 1 2 342 63 (43092)
I1209 15:49:57.543187 27915 net.cpp:165] Memory required for data: 1739902708
I1209 15:49:57.543192 27915 layer_factory.hpp:77] Creating layer rpn_cls_prob_reshape/p5
I1209 15:49:57.543201 27915 net.cpp:106] Creating Layer rpn_cls_prob_reshape/p5
I1209 15:49:57.543207 27915 net.cpp:454] rpn_cls_prob_reshape/p5 <- rpn_cls_prob/p5
I1209 15:49:57.543215 27915 net.cpp:411] rpn_cls_prob_reshape/p5 -> rpn_cls_prob_reshape/p5
I1209 15:49:57.543247 27915 net.cpp:150] Setting up rpn_cls_prob_reshape/p5
I1209 15:49:57.543254 27915 net.cpp:157] Top shape: 1 18 38 63 (43092)
I1209 15:49:57.543257 27915 net.cpp:165] Memory required for data: 1740075076
I1209 15:49:57.543262 27915 layer_factory.hpp:77] Creating layer proposal/p5
I1209 15:49:57.543292 27915 net.cpp:106] Creating Layer proposal/p5
I1209 15:49:57.543298 27915 net.cpp:454] proposal/p5 <- rpn_cls_prob_reshape/p5
I1209 15:49:57.543303 27915 net.cpp:454] proposal/p5 <- rpn_bbox_pred/p5_rpn_bbox_pred/p5_0_split_1
I1209 15:49:57.543309 27915 net.cpp:454] proposal/p5 <- im_info_input-data_1_split_3
I1209 15:49:57.543316 27915 net.cpp:411] proposal/p5 -> rpn_rois/p5
I1209 15:49:57.544445 27915 net.cpp:150] Setting up proposal/p5
I1209 15:49:57.544457 27915 net.cpp:157] Top shape: 1 5 (5)
I1209 15:49:57.544461 27915 net.cpp:165] Memory required for data: 1740075096
I1209 15:49:57.544466 27915 layer_factory.hpp:77] Creating layer roi-data
I1209 15:49:57.560389 27915 net.cpp:106] Creating Layer roi-data
I1209 15:49:57.560410 27915 net.cpp:454] roi-data <- rpn_rois/p4
I1209 15:49:57.560417 27915 net.cpp:454] roi-data <- rpn_rois/p5
I1209 15:49:57.560425 27915 net.cpp:454] roi-data <- gt_boxes_input-data_2_split_2
I1209 15:49:57.560433 27915 net.cpp:411] roi-data -> rois/p4
I1209 15:49:57.560444 27915 net.cpp:411] roi-data -> rois/p5
I1209 15:49:57.560456 27915 net.cpp:411] roi-data -> labels
I1209 15:49:57.560467 27915 net.cpp:411] roi-data -> bbox_targets
I1209 15:49:57.560477 27915 net.cpp:411] roi-data -> bbox_inside_weights
I1209 15:49:57.560487 27915 net.cpp:411] roi-data -> bbox_outside_weights
I1209 15:49:57.561064 27915 net.cpp:150] Setting up roi-data
I1209 15:49:57.561077 27915 net.cpp:157] Top shape: 1 5 (5)
I1209 15:49:57.561084 27915 net.cpp:157] Top shape: 1 5 (5)
I1209 15:49:57.561089 27915 net.cpp:157] Top shape: 1 1 (1)
I1209 15:49:57.561094 27915 net.cpp:157] Top shape: 1 16 (16)
I1209 15:49:57.561100 27915 net.cpp:157] Top shape: 1 16 (16)
I1209 15:49:57.561105 27915 net.cpp:157] Top shape: 1 16 (16)
I1209 15:49:57.561108 27915 net.cpp:165] Memory required for data: 1740075332
I1209 15:49:57.561115 27915 layer_factory.hpp:77] Creating layer roi_pool/p5
I1209 15:49:57.561125 27915 net.cpp:106] Creating Layer roi_pool/p5
I1209 15:49:57.561131 27915 net.cpp:454] roi_pool/p5 <- conv5_256_conv5_256_relu_0_split_3
I1209 15:49:57.561138 27915 net.cpp:454] roi_pool/p5 <- rois/p5
I1209 15:49:57.561146 27915 net.cpp:411] roi_pool/p5 -> roi_pool/p5
I1209 15:49:57.561157 27915 roi_pooling_layer.cpp:30] Spatial scale: 0.0625
I1209 15:49:57.561213 27915 net.cpp:150] Setting up roi_pool/p5
I1209 15:49:57.561223 27915 net.cpp:157] Top shape: 1 256 7 7 (12544)
I1209 15:49:57.561226 27915 net.cpp:165] Memory required for data: 1740125508
I1209 15:49:57.561230 27915 layer_factory.hpp:77] Creating layer roi_pool/p4
I1209 15:49:57.561236 27915 net.cpp:106] Creating Layer roi_pool/p4
I1209 15:49:57.561242 27915 net.cpp:454] roi_pool/p4 <- conv4_fuse_final_conv4_fuse_final_relu_0_split_2
I1209 15:49:57.561249 27915 net.cpp:454] roi_pool/p4 <- rois/p4
I1209 15:49:57.561257 27915 net.cpp:411] roi_pool/p4 -> roi_pool/p4
I1209 15:49:57.561266 27915 roi_pooling_layer.cpp:30] Spatial scale: 0.125
I1209 15:49:57.561314 27915 net.cpp:150] Setting up roi_pool/p4
I1209 15:49:57.561322 27915 net.cpp:157] Top shape: 1 256 7 7 (12544)
I1209 15:49:57.561326 27915 net.cpp:165] Memory required for data: 1740175684
I1209 15:49:57.561331 27915 layer_factory.hpp:77] Creating layer all_pool
I1209 15:49:57.561337 27915 net.cpp:106] Creating Layer all_pool
I1209 15:49:57.561342 27915 net.cpp:454] all_pool <- roi_pool/p4
I1209 15:49:57.561347 27915 net.cpp:454] all_pool <- roi_pool/p5
I1209 15:49:57.561355 27915 net.cpp:411] all_pool -> rcnn_pool
I1209 15:49:57.561388 27915 net.cpp:150] Setting up all_pool
I1209 15:49:57.561396 27915 net.cpp:157] Top shape: 2 256 7 7 (25088)
I1209 15:49:57.561400 27915 net.cpp:165] Memory required for data: 1740276036
I1209 15:49:57.561404 27915 layer_factory.hpp:77] Creating layer rcnn_fc6
I1209 15:49:57.561414 27915 net.cpp:106] Creating Layer rcnn_fc6
I1209 15:49:57.561419 27915 net.cpp:454] rcnn_fc6 <- rcnn_pool
I1209 15:49:57.561426 27915 net.cpp:411] rcnn_fc6 -> rcnn_fc6
I1209 15:49:57.875499 27915 net.cpp:150] Setting up rcnn_fc6
I1209 15:49:57.875524 27915 net.cpp:157] Top shape: 2 4096 (8192)
I1209 15:49:57.875527 27915 net.cpp:165] Memory required for data: 1740308804
I1209 15:49:57.875538 27915 layer_factory.hpp:77] Creating layer relu6
I1209 15:49:57.875562 27915 net.cpp:106] Creating Layer relu6
I1209 15:49:57.875567 27915 net.cpp:454] relu6 <- rcnn_fc6
I1209 15:49:57.875576 27915 net.cpp:397] relu6 -> rcnn_fc6 (in-place)
I1209 15:49:57.876482 27915 net.cpp:150] Setting up relu6
I1209 15:49:57.876492 27915 net.cpp:157] Top shape: 2 4096 (8192)
I1209 15:49:57.876494 27915 net.cpp:165] Memory required for data: 1740341572
I1209 15:49:57.876498 27915 layer_factory.hpp:77] Creating layer drop6
I1209 15:49:57.876510 27915 net.cpp:106] Creating Layer drop6
I1209 15:49:57.876515 27915 net.cpp:454] drop6 <- rcnn_fc6
I1209 15:49:57.876521 27915 net.cpp:397] drop6 -> rcnn_fc6 (in-place)
I1209 15:49:57.876556 27915 net.cpp:150] Setting up drop6
I1209 15:49:57.876561 27915 net.cpp:157] Top shape: 2 4096 (8192)
I1209 15:49:57.876564 27915 net.cpp:165] Memory required for data: 1740374340
I1209 15:49:57.876566 27915 layer_factory.hpp:77] Creating layer fc7
I1209 15:49:57.876579 27915 net.cpp:106] Creating Layer fc7
I1209 15:49:57.876582 27915 net.cpp:454] fc7 <- rcnn_fc6
I1209 15:49:57.876590 27915 net.cpp:411] fc7 -> fc7
I1209 15:49:57.982409 27915 net.cpp:150] Setting up fc7
I1209 15:49:57.982435 27915 net.cpp:157] Top shape: 2 4096 (8192)
I1209 15:49:57.982439 27915 net.cpp:165] Memory required for data: 1740407108
I1209 15:49:57.982460 27915 layer_factory.hpp:77] Creating layer relu7
I1209 15:49:57.982471 27915 net.cpp:106] Creating Layer relu7
I1209 15:49:57.982476 27915 net.cpp:454] relu7 <- fc7
I1209 15:49:57.982482 27915 net.cpp:397] relu7 -> fc7 (in-place)
I1209 15:49:57.982794 27915 net.cpp:150] Setting up relu7
I1209 15:49:57.982800 27915 net.cpp:157] Top shape: 2 4096 (8192)
I1209 15:49:57.982803 27915 net.cpp:165] Memory required for data: 1740439876
I1209 15:49:57.982806 27915 layer_factory.hpp:77] Creating layer drop7
I1209 15:49:57.982812 27915 net.cpp:106] Creating Layer drop7
I1209 15:49:57.982817 27915 net.cpp:454] drop7 <- fc7
I1209 15:49:57.982823 27915 net.cpp:397] drop7 -> fc7 (in-place)
I1209 15:49:57.982856 27915 net.cpp:150] Setting up drop7
I1209 15:49:57.982880 27915 net.cpp:157] Top shape: 2 4096 (8192)
I1209 15:49:57.982882 27915 net.cpp:165] Memory required for data: 1740472644
I1209 15:49:57.982885 27915 layer_factory.hpp:77] Creating layer fc7_drop7_0_split
I1209 15:49:57.982908 27915 net.cpp:106] Creating Layer fc7_drop7_0_split
I1209 15:49:57.982931 27915 net.cpp:454] fc7_drop7_0_split <- fc7
I1209 15:49:57.982939 27915 net.cpp:411] fc7_drop7_0_split -> fc7_drop7_0_split_0
I1209 15:49:57.982995 27915 net.cpp:411] fc7_drop7_0_split -> fc7_drop7_0_split_1
I1209 15:49:57.983132 27915 net.cpp:150] Setting up fc7_drop7_0_split
I1209 15:49:57.983137 27915 net.cpp:157] Top shape: 2 4096 (8192)
I1209 15:49:57.983158 27915 net.cpp:157] Top shape: 2 4096 (8192)
I1209 15:49:57.983160 27915 net.cpp:165] Memory required for data: 1740538180
I1209 15:49:57.983161 27915 layer_factory.hpp:77] Creating layer cls_score
I1209 15:49:57.983167 27915 net.cpp:106] Creating Layer cls_score
I1209 15:49:57.983186 27915 net.cpp:454] cls_score <- fc7_drop7_0_split_0
I1209 15:49:57.983192 27915 net.cpp:411] cls_score -> cls_score
I1209 15:49:57.983428 27915 net.cpp:150] Setting up cls_score
I1209 15:49:57.983433 27915 net.cpp:157] Top shape: 2 4 (8)
I1209 15:49:57.983435 27915 net.cpp:165] Memory required for data: 1740538212
I1209 15:49:57.983441 27915 layer_factory.hpp:77] Creating layer bbox_pred
I1209 15:49:57.983448 27915 net.cpp:106] Creating Layer bbox_pred
I1209 15:49:57.983450 27915 net.cpp:454] bbox_pred <- fc7_drop7_0_split_1
I1209 15:49:57.983455 27915 net.cpp:411] bbox_pred -> bbox_pred
I1209 15:49:57.984040 27915 net.cpp:150] Setting up bbox_pred
I1209 15:49:57.984045 27915 net.cpp:157] Top shape: 2 16 (32)
I1209 15:49:57.984047 27915 net.cpp:165] Memory required for data: 1740538340
I1209 15:49:57.984050 27915 layer_factory.hpp:77] Creating layer loss_cls
I1209 15:49:57.984055 27915 net.cpp:106] Creating Layer loss_cls
I1209 15:49:57.984056 27915 net.cpp:454] loss_cls <- cls_score
I1209 15:49:57.984060 27915 net.cpp:454] loss_cls <- labels
I1209 15:49:57.984062 27915 net.cpp:411] loss_cls -> loss_cls
…
           'RPN_POST_NMS_TOP_N': 2000,
           'RPN_PRE_NMS_TOP_N': 12000,
           'SCALES': [600],
           'SNAPSHOT_INFIX': '',
           'SNAPSHOT_ITERS': 10000,
           'USE_FLIPPED': True,
           'USE_PREFETCH': False},
 'USE_GPU_NMS': True}
WARNING: Logging before InitGoogleLogging() is written to STDERR
I1210 12:36:11.272451  8287 net.cpp:49] Initializing net from parameters: 
name: "VGG_ILSVRC_16_layers"
input: "data"
input: "im_info"
state {
  phase: TEST
}
input_shape {
  dim: 1
  dim: 3
  dim: 224
  dim: 224
}
input_shape {
  dim: 1
  dim: 3
}
layer {
  name: "conv1_1"
  type: "Convolution"
  bottom: "data"
  top: "conv1_1"
  param {
    lr_mult: 0
    decay_mult: 0
  }
  param {
    lr_mult: 0
    decay_mult: 0
  }
  convolution_param {
    num_output: 64
    pad: 1
    kernel_size: 3
  }
}
layer {
  name: "relu1_1"
  type: "ReLU"
  bottom: "conv1_1"
  top: "conv1_1"
}
layer {
  name: "conv1_2"
  type: "Convolution"
  bottom: "conv1_1"
  top: "conv1_2"
  param {
    lr_mult: 0
    decay_mult: 0
  }
  param {
    lr_mult: 0
    decay_mult: 0
  }
  convolution_param {
    num_output: 64
    pad: 1
    kernel_size: 3
  }
}
layer {
  name: "relu1_2"
  type: "ReLU"
  bottom: "conv1_2"
  top: "conv1_2"
}
layer {
  name: "pool1"
  type: "Pooling"
  bottom: "conv1_2"
  top: "pool1"
  pooling_param {
    pool: MAX
    kernel_size: 2
    stride: 2
  }
}
layer {
  name: "conv2_1"
  type: "Convolution"
  bottom: "pool1"
  top: "conv2_1"
  param {
    lr_mult: 0
    decay_mult: 0
  }
  param {
    lr_mult: 0
    decay_mult: 0
  }
  convolution_param {
    num_output: 128
    pad: 1
    kernel_size: 3
  }
}
layer {
  name: "relu2_1"
  type: "ReLU"
  bottom: "conv2_1"
  top: "conv2_1"
}
layer {
  name: "conv2_2"
  type: "Convolution"
  bottom: "conv2_1"
  top: "conv2_2"
  param {
    lr_mult: 0
    decay_mult: 0
  }
  param {
    lr_mult: 0
    decay_mult: 0
  }
  convolution_param {
    num_output: 128
    pad: 1
    kernel_size: 3
  }
}
layer {
  name: "relu2_2"
  type: "ReLU"
  bottom: "conv2_2"
  top: "conv2_2"
}
layer {
  name: "pool2"
  type: "Pooling"
  bottom: "conv2_2"
  top: "pool2"
  pooling_param {
    pool: MAX
    kernel_size: 2
    stride: 2
  }
}
layer {
  name: "conv3_1"
  type: "Convolution"
  bottom: "pool2"
  top: "conv3_1"
  param {
    lr_mult: 1
  }
  param {
    lr_mult: 2
  }
  convolution_param {
    num_output: 256
    pad: 1
    kernel_size: 3
  }
}
layer {
  name: "relu3_1"
  type: "ReLU"
  bottom: "conv3_1"
  top: "conv3_1"
}
layer {
  name: "conv3_2"
  type: "Convolution"
  bottom: "conv3_1"
  top: "conv3_2"
  param {
    lr_mult: 1
  }
  param {
    lr_mult: 2
  }
  convolution_param {
    num_output: 256
    pad: 1
    kernel_size: 3
  }
}
layer {
  name: "relu3_2"
  type: "ReLU"
  bottom: "conv3_2"
  top: "conv3_2"
}
layer {
  name: "conv3_3"
  type: "Convolution"
  bottom: "conv3_2"
  top: "conv3_3"
  param {
    lr_mult: 1
  }
  param {
    lr_mult: 2
  }
  convolution_param {
    num_output: 256
    pad: 1
    kernel_size: 3
  }
}
layer {
  name: "relu3_3"
  type: "ReLU"
  bottom: "conv3_3"
  top: "conv3_3"
}
layer {
  name: "pool3"
  type: "Pooling"
  bottom: "conv3_3"
  top: "pool3"
  pooling_param {
    pool: MAX
    kernel_size: 2
    stride: 2
  }
}
layer {
  name: "conv4_1"
  type: "Convolution"
  bottom: "pool3"
  top: "conv4_1"
  param {
    lr_mult: 1
  }
  param {
    lr_mult: 2
  }
  convolution_param {
    num_output: 512
    pad: 1
    kernel_size: 3
  }
}
layer {
  name: "relu4_1"
  type: "ReLU"
  bottom: "conv4_1"
  top: "conv4_1"
}
layer {
  name: "conv4_2"
  type: "Convolution"
  bottom: "conv4_1"
  top: "conv4_2"
  param {
    lr_mult: 1
  }
  param {
    lr_mult: 2
  }
  convolution_param {
    num_output: 512
    pad: 1
    kernel_size: 3
  }
}
layer {
  name: "relu4_2"
  type: "ReLU"
  bottom: "conv4_2"
  top: "conv4_2"
}
layer {
  name: "conv4_3"
  type: "Convolution"
  bottom: "conv4_2"
  top: "conv4_3"
  param {
    lr_mult: 1
  }
  param {
    lr_mult: 2
  }
  convolution_param {
    num_output: 512
    pad: 1
    kernel_size: 3
  }
}
layer {
  name: "relu4_3"
  type: "ReLU"
  bottom: "conv4_3"
  top: "conv4_3"
}
layer {
  name: "pool4"
  type: "Pooling"
  bottom: "conv4_3"
  top: "pool4"
  pooling_param {
    pool: MAX
    kernel_size: 2
    stride: 2
  }
}
layer {
  name: "conv5_1"
  type: "Convolution"
  bottom: "pool4"
  top: "conv5_1"
  param {
    lr_mult: 1
  }
  param {
    lr_mult: 2
  }
  convolution_param {
    num_output: 512
    pad: 1
    kernel_size: 3
  }
}
layer {
  name: "relu5_1"
  type: "ReLU"
  bottom: "conv5_1"
  top: "conv5_1"
}
layer {
  name: "conv5_2"
  type: "Convolution"
  bottom: "conv5_1"
  top: "conv5_2"
  param {
    lr_mult: 1
  }
  param {
    lr_mult: 2
  }
  convolution_param {
    num_output: 512
    pad: 1
    kernel_size: 3
  }
}
layer {
  name: "relu5_2"
  type: "ReLU"
  bottom: "conv5_2"
  top: "conv5_2"
}
layer {
  name: "conv5_3"
  type: "Convolution"
  bottom: "conv5_2"
  top: "conv5_3"
  param {
    lr_mult: 1
  }
  param {
    lr_mult: 2
  }
  convolution_param {
    num_output: 512
    pad: 1
    kernel_size: 3
  }
}
layer {
  name: "relu5_3"
  type: "ReLU"
  bottom: "conv5_3"
  top: "conv5_3"
}
layer {
  name: "conv5_256"
  type: "Convolution"
  bottom: "conv5_3"
  top: "conv5_256"
  param {
    lr_mult: 1
  }
  param {
    lr_mult: 2
  }
  convolution_param {
    num_output: 256
    pad: 0
    kernel_size: 1
    weight_filler {
      type: "gaussian"
      std: 0.01
    }
    bias_filler {
      type: "constant"
      value: 0
    }
  }
}
layer {
  name: "conv5_256_relu"
  type: "ReLU"
  bottom: "conv5_256"
  top: "conv5_256"
}
layer {
  name: "conv5_256_up"
  type: "Deconvolution"
  bottom: "conv5_256"
  top: "conv5_256_up"
  param {
    lr_mult: 0
    decay_mult: 0
  }
  convolution_param {
    num_output: 256
    bias_term: false
    pad: 1
    kernel_size: 4
    group: 256
    stride: 2
    weight_filler {
      type: "bilinear"
    }
  }
}
layer {
  name: "conv4_256"
  type: "Convolution"
  bottom: "conv4_3"
  top: "conv4_256"
  param {
    lr_mult: 1
  }
  param {
    lr_mult: 2
  }
  convolution_param {
    num_output: 256
    pad: 0
    kernel_size: 1
    weight_filler {
      type: "gaussian"
      std: 0.01
    }
    bias_filler {
      type: "constant"
      value: 0
    }
  }
}
layer {
  name: "conv4_256_relu"
  type: "ReLU"
  bottom: "conv4_256"
  top: "conv4_256"
}
layer {
  name: "conv5_256_crop"
  type: "Crop"
  bottom: "conv5_256_up"
  bottom: "conv4_256"
  top: "conv5_256_crop"
  crop_param {
    axis: 2
    offset: 0
  }
}
layer {
  name: "conv4_fuse"
  type: "Eltwise"
  bottom: "conv5_256_crop"
  bottom: "conv4_256"
  top: "conv4_fuse"
  eltwise_param {
    operation: SUM
  }
}
layer {
  name: "conv4_fuse_final"
  type: "Convolution"
  bottom: "conv4_fuse"
  top: "conv4_fuse_final"
  param {
    lr_mult: 1
  }
  param {
    lr_mult: 2
  }
  convolution_param {
    num_output: 256
    pad: 1
    kernel_size: 3
    weight_filler {
      type: "gaussian"
      std: 0.01
    }
    bias_filler {
      type: "constant"
      value: 0
    }
  }
}
layer {
  name: "conv4_fuse_final_relu"
  type: "ReLU"
  bottom: "conv4_fuse_final"
  top: "conv4_fuse_final"
}
layer {
  name: "rpn_conv/3x3/p4"
  type: "Convolution"
  bottom: "conv4_fuse_final"
  top: "rpn_conv/3x3_output/p4"
  param {
    lr_mult: 1
  }
  param {
    lr_mult: 2
  }
  convolution_param {
    num_output: 256
    pad: 1
    kernel_size: 3
    stride: 1
    weight_filler {
      type: "gaussian"
      std: 0.01
    }
    bias_filler {
      type: "constant"
      value: 0
    }
  }
}
layer {
  name: "rpn_dimred/3x3/p4"
  type: "Convolution"
  bottom: "conv4_fuse_final"
  top: "rpn_dimred_output/p4"
  param {
    lr_mult: 1
  }
  param {
    lr_mult: 2
  }
  convolution_param {
    num_output: 128
    pad: 1
    kernel_size: 3
    stride: 1
    weight_filler {
      type: "gaussian"
      std: 0.01
    }
    bias_filler {
      type: "constant"
      value: 0
    }
  }
}
layer {
  name: "rpn_dimred_relu/p4"
  type: "ReLU"
  bottom: "rpn_dimred_output/p4"
  top: "rpn_dimred_output/p4"
}
layer {
  name: "rpn_conv/5x5/p4"
  type: "Convolution"
  bottom: "rpn_dimred_output/p4"
  top: "rpn_conv/5x5_output/p4"
  param {
    lr_mult: 1
  }
  param {
    lr_mult: 2
  }
  convolution_param {
    num_output: 128
    pad: 1
    kernel_size: 3
    stride: 1
    weight_filler {
      type: "gaussian"
      std: 0.01
    }
    bias_filler {
      type: "constant"
      value: 0
    }
  }
}
layer {
  name: "rpn_conv/7x7-1/p4"
  type: "Convolution"
  bottom: "rpn_dimred_output/p4"
  top: "rpn_conv/7x7-1_out/p4"
  param {
    lr_mult: 1
  }
  param {
    lr_mult: 2
  }
  convolution_param {
    num_output: 128
    pad: 1
    kernel_size: 3
    stride: 1
    weight_filler {
      type: "gaussian"
      std: 0.01
    }
    bias_filler {
      type: "constant"
      value: 0
    }
  }
}
layer {
  name: "rpn_relu/7x7-1/p4"
  type: "ReLU"
  bottom: "rpn_conv/7x7-1_out/p4"
  top: "rpn_conv/7x7-1_out/p4"
}
layer {
  name: "rpn_conv/7x7/p4"
  type: "Convolution"
  bottom: "rpn_conv/7x7-1_out/p4"
  top: "rpn_conv/7x7_output/p4"
  param {
    lr_mult: 1
  }
  param {
    lr_mult: 2
  }
  convolution_param {
    num_output: 128
    pad: 1
    kernel_size: 3
    stride: 1
    weight_filler {
      type: "gaussian"
      std: 0.01
    }
    bias_filler {
      type: "constant"
      value: 0
    }
  }
}
layer {
  name: "rpn_conv/357/p4"
  type: "Concat"
  bottom: "rpn_conv/3x3_output/p4"
  bottom: "rpn_conv/5x5_output/p4"
  bottom: "rpn_conv/7x7_output/p4"
  top: "rpn_conv/357_output/p4"
  concat_param {
    axis: 1
  }
}
layer {
  name: "rpn_relu/357/p4"
  type: "ReLU"
  bottom: "rpn_conv/357_output/p4"
  top: "rpn_conv/357_output/p4"
}
layer {
  name: "rpn_cls_score/p4"
  type: "Convolution"
  bottom: "rpn_conv/357_output/p4"
  top: "rpn_cls_score/p4"
  param {
    lr_mult: 1
  }
  param {
    lr_mult: 2
  }
  convolution_param {
    num_output: 18
    pad: 0
    kernel_size: 1
    stride: 1
    weight_filler {
      type: "gaussian"
      std: 0.01
    }
    bias_filler {
      type: "constant"
      value: 0
    }
  }
}
layer {
  name: "rpn_bbox_pred/p4"
  type: "Convolution"
  bottom: "rpn_conv/357_output/p4"
  top: "rpn_bbox_pred/p4"
  param {
    lr_mult: 1
  }
  param {
    lr_mult: 2
  }
  convolution_param {
    num_output: 36
    pad: 0
    kernel_size: 1
    stride: 1
    weight_filler {
      type: "gaussian"
      std: 0.01
    }
    bias_filler {
      type: "constant"
      value: 0
    }
  }
}
layer {
  name: "rpn_cls_score_reshape/p4"
  type: "Reshape"
  bottom: "rpn_cls_score/p4"
  top: "rpn_cls_score_reshape/p4"
  reshape_param {
    shape {
      dim: 0
      dim: 2
      dim: -1
      dim: 0
    }
  }
}
layer {
  name: "rpn_cls_prob/p4"
  type: "Softmax"
  bottom: "rpn_cls_score_reshape/p4"
  top: "rpn_cls_prob/p4"
}
layer {
  name: "rpn_cls_prob_reshape/p4"
  type: "Reshape"
  bottom: "rpn_cls_prob/p4"
  top: "rpn_cls_prob_reshape/p4"
  reshape_param {
    shape {
      dim: 0
      dim: 18
      dim: -1
      dim: 0
    }
  }
}
layer {
  name: "proposal/p4"
  type: "Python"
  bottom: "rpn_cls_prob_reshape/p4"
  bottom: "rpn_bbox_pred/p4"
  bottom: "im_info"
  top: "rois/p4"
  python_param {
    module: "rpn.proposal_layer"
    layer: "ProposalLayer"
    param_str: "{\'feat_stride\': 8, \'scales\':[1,2,4], \'ratios\': [0.5,1,2]}"
  }
}
layer {
  name: "rpn_conv/3x3/p5"
  type: "Convolution"
  bottom: "conv5_256"
  top: "rpn_conv/3x3_output/p5"
  param {
    lr_mult: 1
  }
  param {
    lr_mult: 2
  }
  convolution_param {
    num_output: 256
    pad: 1
    kernel_size: 3
    stride: 1
    weight_filler {
      type: "gaussian"
      std: 0.01
    }
    bias_filler {
      type: "constant"
      value: 0
    }
  }
}
layer {
  name: "rpn_dimred/3x3/p5"
  type: "Convolution"
  bottom: "conv5_256"
  top: "rpn_dimred_output/p5"
  param {
    lr_mult: 1
  }
  param {
    lr_mult: 2
  }
  convolution_param {
    num_output: 128
    pad: 1
    kernel_size: 3
    stride: 1
    weight_filler {
      type: "gaussian"
      std: 0.01
    }
    bias_filler {
      type: "constant"
      value: 0
    }
  }
}
layer {
  name: "rpn_dimred_relu/p5"
  type: "ReLU"
  bottom: "rpn_dimred_output/p5"
  top: "rpn_dimred_output/p5"
}
layer {
  name: "rpn_conv/5x5/p5"
  type: "Convolution"
  bottom: "rpn_dimred_output/p5"
  top: "rpn_conv/5x5_output/p5"
  param {
    lr_mult: 1
  }
  param {
    lr_mult: 2
  }
  convolution_param {
    num_output: 128
    pad: 1
    kernel_size: 3
    stride: 1
    weight_filler {
      type: "gaussian"
      std: 0.01
    }
    bias_filler {
      type: "constant"
      value: 0
    }
  }
}
layer {
  name: "rpn_conv/7x7-1/p5"
  type: "Convolution"
  bottom: "rpn_dimred_output/p5"
  top: "rpn_conv/7x7-1_out/p5"
  param {
    lr_mult: 1
  }
  param {
    lr_mult: 2
  }
  convolution_param {
    num_output: 128
    pad: 1
    kernel_size: 3
    stride: 1
    weight_filler {
      type: "gaussian"
      std: 0.01
    }
    bias_filler {
      type: "constant"
      value: 0
    }
  }
}
layer {
  name: "rpn_relu/7x7-1/p5"
  type: "ReLU"
  bottom: "rpn_conv/7x7-1_out/p5"
  top: "rpn_conv/7x7-1_out/p5"
}
layer {
  name: "rpn_conv/7x7/p5"
  type: "Convolution"
  bottom: "rpn_conv/7x7-1_out/p5"
  top: "rpn_conv/7x7_output/p5"
  param {
    lr_mult: 1
  }
  param {
    lr_mult: 2
  }
  convolution_param {
    num_output: 128
    pad: 1
    kernel_size: 3
    stride: 1
    weight_filler {
      type: "gaussian"
      std: 0.01
    }
    bias_filler {
      type: "constant"
      value: 0
    }
  }
}
layer {
  name: "rpn_conv/357/p5"
  type: "Concat"
  bottom: "rpn_conv/3x3_output/p5"
  bottom: "rpn_conv/5x5_output/p5"
  bottom: "rpn_conv/7x7_output/p5"
  top: "rpn_conv/357_output/p5"
  concat_param {
    axis: 1
  }
}
layer {
  name: "rpn_relu/357/p5"
  type: "ReLU"
  bottom: "rpn_conv/357_output/p5"
  top: "rpn_conv/357_output/p5"
}
layer {
  name: "rpn_cls_score/p5"
  type: "Convolution"
  bottom: "rpn_conv/357_output/p5"
  top: "rpn_cls_score/p5"
  param {
    lr_mult: 1
  }
  param {
    lr_mult: 2
  }
  convolution_param {
    num_output: 18
    pad: 0
    kernel_size: 1
    stride: 1
    weight_filler {
      type: "gaussian"
      std: 0.01
    }
    bias_filler {
      type: "constant"
      value: 0
    }
  }
}
layer {
  name: "rpn_bbox_pred/p5"
  type: "Convolution"
  bottom: "rpn_conv/357_output/p5"
  top: "rpn_bbox_pred/p5"
  param {
    lr_mult: 1
  }
  param {
    lr_mult: 2
  }
  convolution_param {
    num_output: 36
    pad: 0
    kernel_size: 1
    stride: 1
    weight_filler {
      type: "gaussian"
      std: 0.01
    }
    bias_filler {
      type: "constant"
      value: 0
    }
  }
}
layer {
  name: "rpn_cls_score_reshape/p5"
  type: "Reshape"
  bottom: "rpn_cls_score/p5"
  top: "rpn_cls_score_reshape/p5"
  reshape_param {
    shape {
      dim: 0
      dim: 2
      dim: -1
      dim: 0
    }
  }
}
layer {
  name: "rpn_cls_prob/p5"
  type: "Softmax"
  bottom: "rpn_cls_score_reshape/p5"
  top: "rpn_cls_prob/p5"
}
layer {
  name: "rpn_cls_prob_reshape/p5"
  type: "Reshape"
  bottom: "rpn_cls_prob/p5"
  top: "rpn_cls_prob_reshape/p5"
  reshape_param {
    shape {
      dim: 0
      dim: 18
      dim: -1
      dim: 0
    }
  }
}
layer {
  name: "proposal/p5"
  type: "Python"
  bottom: "rpn_cls_prob_reshape/p5"
  bottom: "rpn_bbox_pred/p5"
  bottom: "im_info"
  top: "rois/p5"
  python_param {
    module: "rpn.proposal_layer"
    layer: "ProposalLayer"
    param_str: "{\'feat_stride\': 16,\'scales\': [8,16,32], \'ratios\':[0.5,1,2]}"
  }
}
layer {
  name: "roi_pool/p5"
  type: "ROIPooling"
  bottom: "conv5_256"
  bottom: "rois/p5"
  top: "roi_pool/p5"
  roi_pooling_param {
    pooled_h: 7
    pooled_w: 7
    spatial_scale: 0.0625
  }
}
layer {
  name: "roi_pool/p4"
  type: "ROIPooling"
  bottom: "conv4_fuse_final"
  bottom: "rois/p4"
  top: "roi_pool/p4"
  roi_pooling_param {
    pooled_h: 7
    pooled_w: 7
    spatial_scale: 0.125
  }
}
layer {
  name: "all_pool"
  type: "Concat"
  bottom: "roi_pool/p4"
  bottom: "roi_pool/p5"
  top: "rcnn_pool"
  concat_param {
    axis: 0
  }
}
layer {
  name: "rcnn_fc6"
  type: "InnerProduct"
  bottom: "rcnn_pool"
  top: "rcnn_fc6"
  param {
    lr_mult: 1
  }
  param {
    lr_mult: 2
  }
  inner_product_param {
    num_output: 4096
    weight_filler {
      type: "xavier"
    }
    bias_filler {
      type: "constant"
    }
  }
}
layer {
  name: "relu6"
  type: "ReLU"
  bottom: "rcnn_fc6"
  top: "rcnn_fc6"
}
layer {
  name: "drop6"
  type: "Dropout"
  bottom: "rcnn_fc6"
  top: "rcnn_fc6"
  dropout_param {
    dropout_ratio: 0.5
  }
}
layer {
  name: "fc7"
  type: "InnerProduct"
  bottom: "rcnn_fc6"
  top: "fc7"
  param {
    lr_mult: 1
  }
  param {
    lr_mult: 2
  }
  inner_product_param {
    num_output: 4096
    weight_filler {
      type: "xavier"
    }
    bias_filler {
      type: "constant"
    }
  }
}
layer {
  name: "relu7"
  type: "ReLU"
  bottom: "fc7"
  top: "fc7"
}
layer {
  name: "drop7"
  type: "Dropout"
  bottom: "fc7"
  top: "fc7"
  dropout_param {
    dropout_ratio: 0.5
  }
}
layer {
  name: "cls_score"
  type: "InnerProduct"
  bottom: "fc7"
  top: "cls_score"
  param {
    lr_mult: 1
  }
  param {
    lr_mult: 2
  }
  inner_product_param {
    num_output: 4
    weight_filler {
      type: "gaussian"
      std: 0.01
    }
    bias_filler {
      type: "constant"
      value: 0
    }
  }
}
layer {
  name: "bbox_pred"
  type: "InnerProduct"
  bottom: "fc7"
  top: "bbox_pred"
  param {
    lr_mult: 1
  }
  param {
    lr_mult: 2
  }
  inner_product_param {
    num_output: 16
    weight_filler {
      type: "gaussian"
      std: 0.001
    }
    bias_filler {
      type: "constant"
      value: 0
    }
  }
}
layer {
  name: "cls_prob"
  type: "Softmax"
  bottom: "cls_score"
  top: "cls_prob"
}
I1210 12:36:11.291142  8287 net.cpp:413] Input 0 -> data
I1210 12:36:19.003126  8287 net.cpp:413] Input 1 -> im_info
I1210 12:36:19.003211  8287 layer_factory.hpp:77] Creating layer im_info_input_1_split
I1210 12:36:19.003240  8287 net.cpp:106] Creating Layer im_info_input_1_split
I1210 12:36:19.003249  8287 net.cpp:454] im_info_input_1_split <- im_info
I1210 12:36:19.003258  8287 net.cpp:411] im_info_input_1_split -> im_info_input_1_split_0
I1210 12:36:19.003270  8287 net.cpp:411] im_info_input_1_split -> im_info_input_1_split_1
I1210 12:36:19.003321  8287 net.cpp:150] Setting up im_info_input_1_split
I1210 12:36:19.051911  8287 net.cpp:157] Top shape: 1 3 (3)
I1210 12:36:19.051947  8287 net.cpp:157] Top shape: 1 3 (3)
I1210 12:36:19.051952  8287 net.cpp:165] Memory required for data: 24
I1210 12:36:19.051961  8287 layer_factory.hpp:77] Creating layer conv1_1
I1210 12:36:19.051983  8287 net.cpp:106] Creating Layer conv1_1
I1210 12:36:19.051990  8287 net.cpp:454] conv1_1 <- data
I1210 12:36:19.051998  8287 net.cpp:411] conv1_1 -> conv1_1
I1210 12:36:21.345109  8287 net.cpp:150] Setting up conv1_1
I1210 12:36:21.345142  8287 net.cpp:157] Top shape: 1 64 224 224 (3211264)
I1210 12:36:21.345149  8287 net.cpp:165] Memory required for data: 12845080
I1210 12:36:21.345168  8287 layer_factory.hpp:77] Creating layer relu1_1
I1210 12:36:21.345196  8287 net.cpp:106] Creating Layer relu1_1
I1210 12:36:21.345201  8287 net.cpp:454] relu1_1 <- conv1_1
I1210 12:36:21.345208  8287 net.cpp:397] relu1_1 -> conv1_1 (in-place)
I1210 12:36:21.346072  8287 net.cpp:150] Setting up relu1_1
I1210 12:36:21.346091  8287 net.cpp:157] Top shape: 1 64 224 224 (3211264)
I1210 12:36:21.346096  8287 net.cpp:165] Memory required for data: 25690136
I1210 12:36:21.346101  8287 layer_factory.hpp:77] Creating layer conv1_2
I1210 12:36:21.346113  8287 net.cpp:106] Creating Layer conv1_2
I1210 12:36:21.346118  8287 net.cpp:454] conv1_2 <- conv1_1
I1210 12:36:21.346127  8287 net.cpp:411] conv1_2 -> conv1_2
I1210 12:36:21.356487  8287 net.cpp:150] Setting up conv1_2
I1210 12:36:21.356510  8287 net.cpp:157] Top shape: 1 64 224 224 (3211264)
I1210 12:36:21.356516  8287 net.cpp:165] Memory required for data: 38535192
I1210 12:36:21.356530  8287 layer_factory.hpp:77] Creating layer relu1_2
I1210 12:36:21.356542  8287 net.cpp:106] Creating Layer relu1_2
I1210 12:36:21.356547  8287 net.cpp:454] relu1_2 <- conv1_2
I1210 12:36:21.356554  8287 net.cpp:397] relu1_2 -> conv1_2 (in-place)
I1210 12:36:21.357487  8287 net.cpp:150] Setting up relu1_2
I1210 12:36:21.357512  8287 net.cpp:157] Top shape: 1 64 224 224 (3211264)
I1210 12:36:21.357520  8287 net.cpp:165] Memory required for data: 51380248
I1210 12:36:21.357528  8287 layer_factory.hpp:77] Creating layer pool1
I1210 12:36:21.357543  8287 net.cpp:106] Creating Layer pool1
I1210 12:36:21.357551  8287 net.cpp:454] pool1 <- conv1_2
I1210 12:36:21.357565  8287 net.cpp:411] pool1 -> pool1
I1210 12:36:21.357676  8287 net.cpp:150] Setting up pool1
I1210 12:36:21.357697  8287 net.cpp:157] Top shape: 1 64 112 112 (802816)
I1210 12:36:21.357704  8287 net.cpp:165] Memory required for data: 54591512
I1210 12:36:21.357712  8287 layer_factory.hpp:77] Creating layer conv2_1
I1210 12:36:21.357730  8287 net.cpp:106] Creating Layer conv2_1
I1210 12:36:21.357738  8287 net.cpp:454] conv2_1 <- pool1
I1210 12:36:21.357753  8287 net.cpp:411] conv2_1 -> conv2_1
I1210 12:36:21.362761  8287 net.cpp:150] Setting up conv2_1
I1210 12:36:21.362787  8287 net.cpp:157] Top shape: 1 128 112 112 (1605632)
I1210 12:36:21.362793  8287 net.cpp:165] Memory required for data: 61014040
I1210 12:36:21.362809  8287 layer_factory.hpp:77] Creating layer relu2_1
I1210 12:36:21.362823  8287 net.cpp:106] Creating Layer relu2_1
I1210 12:36:21.362828  8287 net.cpp:454] relu2_1 <- conv2_1
I1210 12:36:21.362836  8287 net.cpp:397] relu2_1 -> conv2_1 (in-place)
I1210 12:36:21.363160  8287 net.cpp:150] Setting up relu2_1
I1210 12:36:21.363174  8287 net.cpp:157] Top shape: 1 128 112 112 (1605632)
I1210 12:36:21.363178  8287 net.cpp:165] Memory required for data: 67436568
I1210 12:36:21.363183  8287 layer_factory.hpp:77] Creating layer conv2_2
I1210 12:36:21.363199  8287 net.cpp:106] Creating Layer conv2_2
I1210 12:36:21.363204  8287 net.cpp:454] conv2_2 <- conv2_1
I1210 12:36:21.363212  8287 net.cpp:411] conv2_2 -> conv2_2
I1210 12:36:21.413287  8287 net.cpp:150] Setting up conv2_2
I1210 12:36:21.413333  8287 net.cpp:157] Top shape: 1 128 112 112 (1605632)
I1210 12:36:21.413341  8287 net.cpp:165] Memory required for data: 73859096
I1210 12:36:21.413358  8287 layer_factory.hpp:77] Creating layer relu2_2
I1210 12:36:21.413383  8287 net.cpp:106] Creating Layer relu2_2
I1210 12:36:21.413391  8287 net.cpp:454] relu2_2 <- conv2_2
I1210 12:36:21.413403  8287 net.cpp:397] relu2_2 -> conv2_2 (in-place)
I1210 12:36:21.413926  8287 net.cpp:150] Setting up relu2_2
I1210 12:36:21.413954  8287 net.cpp:157] Top shape: 1 128 112 112 (1605632)
I1210 12:36:21.413959  8287 net.cpp:165] Memory required for data: 80281624
I1210 12:36:21.413965  8287 layer_factory.hpp:77] Creating layer pool2
I1210 12:36:21.413980  8287 net.cpp:106] Creating Layer pool2
I1210 12:36:21.413985  8287 net.cpp:454] pool2 <- conv2_2
I1210 12:36:21.413996  8287 net.cpp:411] pool2 -> pool2
I1210 12:36:21.414178  8287 net.cpp:150] Setting up pool2
I1210 12:36:21.414201  8287 net.cpp:157] Top shape: 1 128 56 56 (401408)
I1210 12:36:21.414206  8287 net.cpp:165] Memory required for data: 81887256
I1210 12:36:21.414211  8287 layer_factory.hpp:77] Creating layer conv3_1
I1210 12:36:21.414232  8287 net.cpp:106] Creating Layer conv3_1
I1210 12:36:21.414237  8287 net.cpp:454] conv3_1 <- pool2
I1210 12:36:21.414252  8287 net.cpp:411] conv3_1 -> conv3_1
I1210 12:36:21.417685  8287 net.cpp:150] Setting up conv3_1
I1210 12:36:21.417711  8287 net.cpp:157] Top shape: 1 256 56 56 (802816)
I1210 12:36:21.417717  8287 net.cpp:165] Memory required for data: 85098520
I1210 12:36:21.417739  8287 layer_factory.hpp:77] Creating layer relu3_1
I1210 12:36:21.417752  8287 net.cpp:106] Creating Layer relu3_1
I1210 12:36:21.417757  8287 net.cpp:454] relu3_1 <- conv3_1
I1210 12:36:21.417767  8287 net.cpp:397] relu3_1 -> conv3_1 (in-place)
I1210 12:36:21.418195  8287 net.cpp:150] Setting up relu3_1
I1210 12:36:21.418216  8287 net.cpp:157] Top shape: 1 256 56 56 (802816)
I1210 12:36:21.418222  8287 net.cpp:165] Memory required for data: 88309784
I1210 12:36:21.418227  8287 layer_factory.hpp:77] Creating layer conv3_2
I1210 12:36:21.418244  8287 net.cpp:106] Creating Layer conv3_2
I1210 12:36:21.418249  8287 net.cpp:454] conv3_2 <- conv3_1
I1210 12:36:21.418260  8287 net.cpp:411] conv3_2 -> conv3_2
I1210 12:36:21.423373  8287 net.cpp:150] Setting up conv3_2
I1210 12:36:21.423408  8287 net.cpp:157] Top shape: 1 256 56 56 (802816)
I1210 12:36:21.423414  8287 net.cpp:165] Memory required for data: 91521048
I1210 12:36:21.423427  8287 layer_factory.hpp:77] Creating layer relu3_2
I1210 12:36:21.423440  8287 net.cpp:106] Creating Layer relu3_2
I1210 12:36:21.423446  8287 net.cpp:454] relu3_2 <- conv3_2
I1210 12:36:21.423455  8287 net.cpp:397] relu3_2 -> conv3_2 (in-place)
I1210 12:36:21.423983  8287 net.cpp:150] Setting up relu3_2
I1210 12:36:21.424010  8287 net.cpp:157] Top shape: 1 256 56 56 (802816)
I1210 12:36:21.424017  8287 net.cpp:165] Memory required for data: 94732312
I1210 12:36:21.424026  8287 layer_factory.hpp:77] Creating layer conv3_3
I1210 12:36:21.424049  8287 net.cpp:106] Creating Layer conv3_3
I1210 12:36:21.424059  8287 net.cpp:454] conv3_3 <- conv3_2
I1210 12:36:21.424074  8287 net.cpp:411] conv3_3 -> conv3_3
I1210 12:36:21.429854  8287 net.cpp:150] Setting up conv3_3
I1210 12:36:21.429894  8287 net.cpp:157] Top shape: 1 256 56 56 (802816)
I1210 12:36:21.429901  8287 net.cpp:165] Memory required for data: 97943576
I1210 12:36:21.429915  8287 layer_factory.hpp:77] Creating layer relu3_3
I1210 12:36:21.429937  8287 net.cpp:106] Creating Layer relu3_3
I1210 12:36:21.429945  8287 net.cpp:454] relu3_3 <- conv3_3
I1210 12:36:21.429956  8287 net.cpp:397] relu3_3 -> conv3_3 (in-place)
I1210 12:36:21.431082  8287 net.cpp:150] Setting up relu3_3
I1210 12:36:21.431107  8287 net.cpp:157] Top shape: 1 256 56 56 (802816)
I1210 12:36:21.431113  8287 net.cpp:165] Memory required for data: 101154840
I1210 12:36:21.431119  8287 layer_factory.hpp:77] Creating layer pool3
I1210 12:36:21.431131  8287 net.cpp:106] Creating Layer pool3
I1210 12:36:21.431138  8287 net.cpp:454] pool3 <- conv3_3
I1210 12:36:21.431149  8287 net.cpp:411] pool3 -> pool3
I1210 12:36:21.431264  8287 net.cpp:150] Setting up pool3
I1210 12:36:21.431289  8287 net.cpp:157] Top shape: 1 256 28 28 (200704)
I1210 12:36:21.431295  8287 net.cpp:165] Memory required for data: 101957656
I1210 12:36:21.431300  8287 layer_factory.hpp:77] Creating layer conv4_1
I1210 12:36:21.431314  8287 net.cpp:106] Creating Layer conv4_1
I1210 12:36:21.431320  8287 net.cpp:454] conv4_1 <- pool3
I1210 12:36:21.431334  8287 net.cpp:411] conv4_1 -> conv4_1
I1210 12:36:21.438577  8287 net.cpp:150] Setting up conv4_1
I1210 12:36:21.438611  8287 net.cpp:157] Top shape: 1 512 28 28 (401408)
I1210 12:36:21.438616  8287 net.cpp:165] Memory required for data: 103563288
I1210 12:36:21.438629  8287 layer_factory.hpp:77] Creating layer relu4_1
I1210 12:36:21.438643  8287 net.cpp:106] Creating Layer relu4_1
I1210 12:36:21.438652  8287 net.cpp:454] relu4_1 <- conv4_1
I1210 12:36:21.438663  8287 net.cpp:397] relu4_1 -> conv4_1 (in-place)
I1210 12:36:21.440055  8287 net.cpp:150] Setting up relu4_1
I1210 12:36:21.440089  8287 net.cpp:157] Top shape: 1 512 28 28 (401408)
I1210 12:36:21.440099  8287 net.cpp:165] Memory required for data: 105168920
I1210 12:36:21.440107  8287 layer_factory.hpp:77] Creating layer conv4_2
I1210 12:36:21.440129  8287 net.cpp:106] Creating Layer conv4_2
I1210 12:36:21.440135  8287 net.cpp:454] conv4_2 <- conv4_1
I1210 12:36:21.440145  8287 net.cpp:411] conv4_2 -> conv4_2
I1210 12:36:21.448586  8287 net.cpp:150] Setting up conv4_2
I1210 12:36:21.448614  8287 net.cpp:157] Top shape: 1 512 28 28 (401408)
I1210 12:36:21.448618  8287 net.cpp:165] Memory required for data: 106774552
I1210 12:36:21.448634  8287 layer_factory.hpp:77] Creating layer relu4_2
I1210 12:36:21.448645  8287 net.cpp:106] Creating Layer relu4_2
I1210 12:36:21.448649  8287 net.cpp:454] relu4_2 <- conv4_2
I1210 12:36:21.448657  8287 net.cpp:397] relu4_2 -> conv4_2 (in-place)
I1210 12:36:21.448905  8287 net.cpp:150] Setting up relu4_2
I1210 12:36:21.448918  8287 net.cpp:157] Top shape: 1 512 28 28 (401408)
I1210 12:36:21.448921  8287 net.cpp:165] Memory required for data: 108380184
I1210 12:36:21.448925  8287 layer_factory.hpp:77] Creating layer conv4_3
I1210 12:36:21.448933  8287 net.cpp:106] Creating Layer conv4_3
I1210 12:36:21.448936  8287 net.cpp:454] conv4_3 <- conv4_2
I1210 12:36:21.448943  8287 net.cpp:411] conv4_3 -> conv4_3
I1210 12:36:21.454506  8287 net.cpp:150] Setting up conv4_3
I1210 12:36:21.454529  8287 net.cpp:157] Top shape: 1 512 28 28 (401408)
I1210 12:36:21.454531  8287 net.cpp:165] Memory required for data: 109985816
I1210 12:36:21.454540  8287 layer_factory.hpp:77] Creating layer relu4_3
I1210 12:36:21.454548  8287 net.cpp:106] Creating Layer relu4_3
I1210 12:36:21.454551  8287 net.cpp:454] relu4_3 <- conv4_3
I1210 12:36:21.454556  8287 net.cpp:397] relu4_3 -> conv4_3 (in-place)
I1210 12:36:21.454758  8287 net.cpp:150] Setting up relu4_3
I1210 12:36:21.454768  8287 net.cpp:157] Top shape: 1 512 28 28 (401408)
I1210 12:36:21.454771  8287 net.cpp:165] Memory required for data: 111591448
I1210 12:36:21.454773  8287 layer_factory.hpp:77] Creating layer conv4_3_relu4_3_0_split
I1210 12:36:21.454780  8287 net.cpp:106] Creating Layer conv4_3_relu4_3_0_split
I1210 12:36:21.454783  8287 net.cpp:454] conv4_3_relu4_3_0_split <- conv4_3
I1210 12:36:21.454787  8287 net.cpp:411] conv4_3_relu4_3_0_split -> conv4_3_relu4_3_0_split_0
I1210 12:36:21.454794  8287 net.cpp:411] conv4_3_relu4_3_0_split -> conv4_3_relu4_3_0_split_1
I1210 12:36:21.454836  8287 net.cpp:150] Setting up conv4_3_relu4_3_0_split
I1210 12:36:21.454843  8287 net.cpp:157] Top shape: 1 512 28 28 (401408)
I1210 12:36:21.454846  8287 net.cpp:157] Top shape: 1 512 28 28 (401408)
I1210 12:36:21.454849  8287 net.cpp:165] Memory required for data: 114802712
I1210 12:36:21.454852  8287 layer_factory.hpp:77] Creating layer pool4
I1210 12:36:21.454861  8287 net.cpp:106] Creating Layer pool4
I1210 12:36:21.454866  8287 net.cpp:454] pool4 <- conv4_3_relu4_3_0_split_0
I1210 12:36:21.454874  8287 net.cpp:411] pool4 -> pool4
I1210 12:36:21.454916  8287 net.cpp:150] Setting up pool4
I1210 12:36:21.454922  8287 net.cpp:157] Top shape: 1 512 14 14 (100352)
I1210 12:36:21.454926  8287 net.cpp:165] Memory required for data: 115204120
I1210 12:36:21.454927  8287 layer_factory.hpp:77] Creating layer conv5_1
I1210 12:36:21.454936  8287 net.cpp:106] Creating Layer conv5_1
I1210 12:36:21.454938  8287 net.cpp:454] conv5_1 <- pool4
I1210 12:36:21.454946  8287 net.cpp:411] conv5_1 -> conv5_1
I1210 12:36:21.460218  8287 net.cpp:150] Setting up conv5_1
I1210 12:36:21.460240  8287 net.cpp:157] Top shape: 1 512 14 14 (100352)
I1210 12:36:21.460242  8287 net.cpp:165] Memory required for data: 115605528
I1210 12:36:21.460250  8287 layer_factory.hpp:77] Creating layer relu5_1
I1210 12:36:21.460258  8287 net.cpp:106] Creating Layer relu5_1
I1210 12:36:21.460260  8287 net.cpp:454] relu5_1 <- conv5_1
I1210 12:36:21.460265  8287 net.cpp:397] relu5_1 -> conv5_1 (in-place)
I1210 12:36:21.460438  8287 net.cpp:150] Setting up relu5_1
I1210 12:36:21.460445  8287 net.cpp:157] Top shape: 1 512 14 14 (100352)
I1210 12:36:21.460448  8287 net.cpp:165] Memory required for data: 116006936
I1210 12:36:21.460449  8287 layer_factory.hpp:77] Creating layer conv5_2
I1210 12:36:21.460456  8287 net.cpp:106] Creating Layer conv5_2
I1210 12:36:21.460459  8287 net.cpp:454] conv5_2 <- conv5_1
I1210 12:36:21.460464  8287 net.cpp:411] conv5_2 -> conv5_2
I1210 12:36:21.464956  8287 net.cpp:150] Setting up conv5_2
I1210 12:36:21.464978  8287 net.cpp:157] Top shape: 1 512 14 14 (100352)
I1210 12:36:21.464982  8287 net.cpp:165] Memory required for data: 116408344
I1210 12:36:21.464987  8287 layer_factory.hpp:77] Creating layer relu5_2
I1210 12:36:21.464994  8287 net.cpp:106] Creating Layer relu5_2
I1210 12:36:21.464998  8287 net.cpp:454] relu5_2 <- conv5_2
I1210 12:36:21.465003  8287 net.cpp:397] relu5_2 -> conv5_2 (in-place)
I1210 12:36:21.465153  8287 net.cpp:150] Setting up relu5_2
I1210 12:36:21.465159  8287 net.cpp:157] Top shape: 1 512 14 14 (100352)
I1210 12:36:21.465162  8287 net.cpp:165] Memory required for data: 116809752
I1210 12:36:21.465163  8287 layer_factory.hpp:77] Creating layer conv5_3
I1210 12:36:21.465170  8287 net.cpp:106] Creating Layer conv5_3
I1210 12:36:21.465173  8287 net.cpp:454] conv5_3 <- conv5_2
I1210 12:36:21.465176  8287 net.cpp:411] conv5_3 -> conv5_3
I1210 12:36:21.469543  8287 net.cpp:150] Setting up conv5_3
I1210 12:36:21.469568  8287 net.cpp:157] Top shape: 1 512 14 14 (100352)
I1210 12:36:21.469570  8287 net.cpp:165] Memory required for data: 117211160
I1210 12:36:21.469576  8287 layer_factory.hpp:77] Creating layer relu5_3
I1210 12:36:21.469583  8287 net.cpp:106] Creating Layer relu5_3
I1210 12:36:21.469586  8287 net.cpp:454] relu5_3 <- conv5_3
I1210 12:36:21.469591  8287 net.cpp:397] relu5_3 -> conv5_3 (in-place)
I1210 12:36:21.470062  8287 net.cpp:150] Setting up relu5_3
I1210 12:36:21.470072  8287 net.cpp:157] Top shape: 1 512 14 14 (100352)
I1210 12:36:21.470073  8287 net.cpp:165] Memory required for data: 117612568
I1210 12:36:21.470077  8287 layer_factory.hpp:77] Creating layer conv5_256
I1210 12:36:21.470091  8287 net.cpp:106] Creating Layer conv5_256
I1210 12:36:21.470094  8287 net.cpp:454] conv5_256 <- conv5_3
I1210 12:36:21.470098  8287 net.cpp:411] conv5_256 -> conv5_256
I1210 12:36:21.472789  8287 net.cpp:150] Setting up conv5_256
I1210 12:36:21.472798  8287 net.cpp:157] Top shape: 1 256 14 14 (50176)
I1210 12:36:21.472800  8287 net.cpp:165] Memory required for data: 117813272
I1210 12:36:21.472805  8287 layer_factory.hpp:77] Creating layer conv5_256_relu
I1210 12:36:21.472810  8287 net.cpp:106] Creating Layer conv5_256_relu
I1210 12:36:21.472811  8287 net.cpp:454] conv5_256_relu <- conv5_256
I1210 12:36:21.472815  8287 net.cpp:397] conv5_256_relu -> conv5_256 (in-place)
I1210 12:36:21.473254  8287 net.cpp:150] Setting up conv5_256_relu
I1210 12:36:21.473263  8287 net.cpp:157] Top shape: 1 256 14 14 (50176)
I1210 12:36:21.473264  8287 net.cpp:165] Memory required for data: 118013976
I1210 12:36:21.473268  8287 layer_factory.hpp:77] Creating layer conv5_256_conv5_256_relu_0_split
I1210 12:36:21.473273  8287 net.cpp:106] Creating Layer conv5_256_conv5_256_relu_0_split
I1210 12:36:21.473274  8287 net.cpp:454] conv5_256_conv5_256_relu_0_split <- conv5_256
I1210 12:36:21.473278  8287 net.cpp:411] conv5_256_conv5_256_relu_0_split -> conv5_256_conv5_256_relu_0_split_0
I1210 12:36:21.473284  8287 net.cpp:411] conv5_256_conv5_256_relu_0_split -> conv5_256_conv5_256_relu_0_split_1
I1210 12:36:21.473289  8287 net.cpp:411] conv5_256_conv5_256_relu_0_split -> conv5_256_conv5_256_relu_0_split_2
I1210 12:36:21.473292  8287 net.cpp:411] conv5_256_conv5_256_relu_0_split -> conv5_256_conv5_256_relu_0_split_3
I1210 12:36:21.473348  8287 net.cpp:150] Setting up conv5_256_conv5_256_relu_0_split
I1210 12:36:21.473353  8287 net.cpp:157] Top shape: 1 256 14 14 (50176)
I1210 12:36:21.473356  8287 net.cpp:157] Top shape: 1 256 14 14 (50176)
I1210 12:36:21.473358  8287 net.cpp:157] Top shape: 1 256 14 14 (50176)
I1210 12:36:21.473361  8287 net.cpp:157] Top shape: 1 256 14 14 (50176)
I1210 12:36:21.473362  8287 net.cpp:165] Memory required for data: 118816792
I1210 12:36:21.473364  8287 layer_factory.hpp:77] Creating layer conv5_256_up
I1210 12:36:21.473369  8287 net.cpp:106] Creating Layer conv5_256_up
I1210 12:36:21.473372  8287 net.cpp:454] conv5_256_up <- conv5_256_conv5_256_relu_0_split_0
I1210 12:36:21.473376  8287 net.cpp:411] conv5_256_up -> conv5_256_up
I1210 12:36:21.473651  8287 net.cpp:150] Setting up conv5_256_up
I1210 12:36:21.473657  8287 net.cpp:157] Top shape: 1 256 28 28 (200704)
I1210 12:36:21.473659  8287 net.cpp:165] Memory required for data: 119619608
I1210 12:36:21.473661  8287 layer_factory.hpp:77] Creating layer conv4_256
I1210 12:36:21.473668  8287 net.cpp:106] Creating Layer conv4_256
I1210 12:36:21.473670  8287 net.cpp:454] conv4_256 <- conv4_3_relu4_3_0_split_1
I1210 12:36:21.473675  8287 net.cpp:411] conv4_256 -> conv4_256
I1210 12:36:21.475608  8287 net.cpp:150] Setting up conv4_256
I1210 12:36:21.475617  8287 net.cpp:157] Top shape: 1 256 28 28 (200704)
I1210 12:36:21.475620  8287 net.cpp:165] Memory required for data: 120422424
I1210 12:36:21.475623  8287 layer_factory.hpp:77] Creating layer conv4_256_relu
I1210 12:36:21.475627  8287 net.cpp:106] Creating Layer conv4_256_relu
I1210 12:36:21.475630  8287 net.cpp:454] conv4_256_relu <- conv4_256
I1210 12:36:21.475633  8287 net.cpp:397] conv4_256_relu -> conv4_256 (in-place)
I1210 12:36:21.475780  8287 net.cpp:150] Setting up conv4_256_relu
I1210 12:36:21.475785  8287 net.cpp:157] Top shape: 1 256 28 28 (200704)
I1210 12:36:21.475787  8287 net.cpp:165] Memory required for data: 121225240
I1210 12:36:21.475790  8287 layer_factory.hpp:77] Creating layer conv4_256_conv4_256_relu_0_split
I1210 12:36:21.475795  8287 net.cpp:106] Creating Layer conv4_256_conv4_256_relu_0_split
I1210 12:36:21.475796  8287 net.cpp:454] conv4_256_conv4_256_relu_0_split <- conv4_256
I1210 12:36:21.475800  8287 net.cpp:411] conv4_256_conv4_256_relu_0_split -> conv4_256_conv4_256_relu_0_split_0
I1210 12:36:21.475805  8287 net.cpp:411] conv4_256_conv4_256_relu_0_split -> conv4_256_conv4_256_relu_0_split_1
I1210 12:36:21.475836  8287 net.cpp:150] Setting up conv4_256_conv4_256_relu_0_split
I1210 12:36:21.475841  8287 net.cpp:157] Top shape: 1 256 28 28 (200704)
I1210 12:36:21.475842  8287 net.cpp:157] Top shape: 1 256 28 28 (200704)
I1210 12:36:21.475844  8287 net.cpp:165] Memory required for data: 122830872
I1210 12:36:21.475845  8287 layer_factory.hpp:77] Creating layer conv5_256_crop
I1210 12:36:21.475850  8287 net.cpp:106] Creating Layer conv5_256_crop
I1210 12:36:21.475854  8287 net.cpp:454] conv5_256_crop <- conv5_256_up
I1210 12:36:21.475857  8287 net.cpp:454] conv5_256_crop <- conv4_256_conv4_256_relu_0_split_0
I1210 12:36:21.475860  8287 net.cpp:411] conv5_256_crop -> conv5_256_crop
I1210 12:36:21.475944  8287 net.cpp:150] Setting up conv5_256_crop
I1210 12:36:21.475949  8287 net.cpp:157] Top shape: 1 256 28 28 (200704)
I1210 12:36:21.475950  8287 net.cpp:165] Memory required for data: 123633688
I1210 12:36:21.475951  8287 layer_factory.hpp:77] Creating layer conv4_fuse
I1210 12:36:21.475960  8287 net.cpp:106] Creating Layer conv4_fuse
I1210 12:36:21.475961  8287 net.cpp:454] conv4_fuse <- conv5_256_crop
I1210 12:36:21.475965  8287 net.cpp:454] conv4_fuse <- conv4_256_conv4_256_relu_0_split_1
I1210 12:36:21.475968  8287 net.cpp:411] conv4_fuse -> conv4_fuse
I1210 12:36:21.475985  8287 net.cpp:150] Setting up conv4_fuse
I1210 12:36:21.475989  8287 net.cpp:157] Top shape: 1 256 28 28 (200704)
I1210 12:36:21.475991  8287 net.cpp:165] Memory required for data: 124436504
I1210 12:36:21.475992  8287 layer_factory.hpp:77] Creating layer conv4_fuse_final
I1210 12:36:21.475999  8287 net.cpp:106] Creating Layer conv4_fuse_final
I1210 12:36:21.476001  8287 net.cpp:454] conv4_fuse_final <- conv4_fuse
I1210 12:36:21.476006  8287 net.cpp:411] conv4_fuse_final -> conv4_fuse_final
I1210 12:36:21.482926  8287 net.cpp:150] Setting up conv4_fuse_final
I1210 12:36:21.482944  8287 net.cpp:157] Top shape: 1 256 28 28 (200704)
I1210 12:36:21.482946  8287 net.cpp:165] Memory required for data: 125239320
I1210 12:36:21.482961  8287 layer_factory.hpp:77] Creating layer conv4_fuse_final_relu
I1210 12:36:21.482969  8287 net.cpp:106] Creating Layer conv4_fuse_final_relu
I1210 12:36:21.482972  8287 net.cpp:454] conv4_fuse_final_relu <- conv4_fuse_final
I1210 12:36:21.482977  8287 net.cpp:397] conv4_fuse_final_relu -> conv4_fuse_final (in-place)
I1210 12:36:21.483161  8287 net.cpp:150] Setting up conv4_fuse_final_relu
I1210 12:36:21.483168  8287 net.cpp:157] Top shape: 1 256 28 28 (200704)
I1210 12:36:21.483170  8287 net.cpp:165] Memory required for data: 126042136
I1210 12:36:21.483172  8287 layer_factory.hpp:77] Creating layer conv4_fuse_final_conv4_fuse_final_relu_0_split
I1210 12:36:21.483196  8287 net.cpp:106] Creating Layer conv4_fuse_final_conv4_fuse_final_relu_0_split
I1210 12:36:21.483199  8287 net.cpp:454] conv4_fuse_final_conv4_fuse_final_relu_0_split <- conv4_fuse_final
I1210 12:36:21.483204  8287 net.cpp:411] conv4_fuse_final_conv4_fuse_final_relu_0_split -> conv4_fuse_final_conv4_fuse_final_relu_0_split_0
I1210 12:36:21.483209  8287 net.cpp:411] conv4_fuse_final_conv4_fuse_final_relu_0_split -> conv4_fuse_final_conv4_fuse_final_relu_0_split_1
I1210 12:36:21.483214  8287 net.cpp:411] conv4_fuse_final_conv4_fuse_final_relu_0_split -> conv4_fuse_final_conv4_fuse_final_relu_0_split_2
I1210 12:36:21.483305  8287 net.cpp:150] Setting up conv4_fuse_final_conv4_fuse_final_relu_0_split
I1210 12:36:21.483309  8287 net.cpp:157] Top shape: 1 256 28 28 (200704)
I1210 12:36:21.483311  8287 net.cpp:157] Top shape: 1 256 28 28 (200704)
I1210 12:36:21.483314  8287 net.cpp:157] Top shape: 1 256 28 28 (200704)
I1210 12:36:21.483340  8287 net.cpp:165] Memory required for data: 128450584
I1210 12:36:21.483342  8287 layer_factory.hpp:77] Creating layer rpn_conv/3x3/p4
I1210 12:36:21.483350  8287 net.cpp:106] Creating Layer rpn_conv/3x3/p4
I1210 12:36:21.483353  8287 net.cpp:454] rpn_conv/3x3/p4 <- conv4_fuse_final_conv4_fuse_final_relu_0_split_0
I1210 12:36:21.483358  8287 net.cpp:411] rpn_conv/3x3/p4 -> rpn_conv/3x3_output/p4
I1210 12:36:21.489365  8287 net.cpp:150] Setting up rpn_conv/3x3/p4
I1210 12:36:21.489383  8287 net.cpp:157] Top shape: 1 256 28 28 (200704)
I1210 12:36:21.489385  8287 net.cpp:165] Memory required for data: 129253400
I1210 12:36:21.489392  8287 layer_factory.hpp:77] Creating layer rpn_dimred/3x3/p4
I1210 12:36:21.489401  8287 net.cpp:106] Creating Layer rpn_dimred/3x3/p4
I1210 12:36:21.489404  8287 net.cpp:454] rpn_dimred/3x3/p4 <- conv4_fuse_final_conv4_fuse_final_relu_0_split_1
I1210 12:36:21.489410  8287 net.cpp:411] rpn_dimred/3x3/p4 -> rpn_dimred_output/p4
I1210 12:36:21.493260  8287 net.cpp:150] Setting up rpn_dimred/3x3/p4
I1210 12:36:21.493271  8287 net.cpp:157] Top shape: 1 128 28 28 (100352)
I1210 12:36:21.493273  8287 net.cpp:165] Memory required for data: 129654808
I1210 12:36:21.493278  8287 layer_factory.hpp:77] Creating layer rpn_dimred_relu/p4
I1210 12:36:21.493283  8287 net.cpp:106] Creating Layer rpn_dimred_relu/p4
I1210 12:36:21.493286  8287 net.cpp:454] rpn_dimred_relu/p4 <- rpn_dimred_output/p4
I1210 12:36:21.493290  8287 net.cpp:397] rpn_dimred_relu/p4 -> rpn_dimred_output/p4 (in-place)
I1210 12:36:21.493443  8287 net.cpp:150] Setting up rpn_dimred_relu/p4
I1210 12:36:21.493450  8287 net.cpp:157] Top shape: 1 128 28 28 (100352)
I1210 12:36:21.493451  8287 net.cpp:165] Memory required for data: 130056216
I1210 12:36:21.493453  8287 layer_factory.hpp:77] Creating layer rpn_dimred_output/p4_rpn_dimred_relu/p4_0_split
I1210 12:36:21.493458  8287 net.cpp:106] Creating Layer rpn_dimred_output/p4_rpn_dimred_relu/p4_0_split
I1210 12:36:21.493459  8287 net.cpp:454] rpn_dimred_output/p4_rpn_dimred_relu/p4_0_split <- rpn_dimred_output/p4
I1210 12:36:21.493463  8287 net.cpp:411] rpn_dimred_output/p4_rpn_dimred_relu/p4_0_split -> rpn_dimred_output/p4_rpn_dimred_relu/p4_0_split_0
I1210 12:36:21.493468  8287 net.cpp:411] rpn_dimred_output/p4_rpn_dimred_relu/p4_0_split -> rpn_dimred_output/p4_rpn_dimred_relu/p4_0_split_1
I1210 12:36:21.493518  8287 net.cpp:150] Setting up rpn_dimred_output/p4_rpn_dimred_relu/p4_0_split
I1210 12:36:21.493523  8287 net.cpp:157] Top shape: 1 128 28 28 (100352)
I1210 12:36:21.493525  8287 net.cpp:157] Top shape: 1 128 28 28 (100352)
I1210 12:36:21.493526  8287 net.cpp:165] Memory required for data: 130859032
I1210 12:36:21.493528  8287 layer_factory.hpp:77] Creating layer rpn_conv/5x5/p4
I1210 12:36:21.493536  8287 net.cpp:106] Creating Layer rpn_conv/5x5/p4
I1210 12:36:21.493540  8287 net.cpp:454] rpn_conv/5x5/p4 <- rpn_dimred_output/p4_rpn_dimred_relu/p4_0_split_0
I1210 12:36:21.493546  8287 net.cpp:411] rpn_conv/5x5/p4 -> rpn_conv/5x5_output/p4
I1210 12:36:21.495766  8287 net.cpp:150] Setting up rpn_conv/5x5/p4
I1210 12:36:21.495777  8287 net.cpp:157] Top shape: 1 128 28 28 (100352)
I1210 12:36:21.495779  8287 net.cpp:165] Memory required for data: 131260440
I1210 12:36:21.495784  8287 layer_factory.hpp:77] Creating layer rpn_conv/7x7-1/p4
I1210 12:36:21.495792  8287 net.cpp:106] Creating Layer rpn_conv/7x7-1/p4
I1210 12:36:21.495795  8287 net.cpp:454] rpn_conv/7x7-1/p4 <- rpn_dimred_output/p4_rpn_dimred_relu/p4_0_split_1
I1210 12:36:21.495800  8287 net.cpp:411] rpn_conv/7x7-1/p4 -> rpn_conv/7x7-1_out/p4
I1210 12:36:21.497982  8287 net.cpp:150] Setting up rpn_conv/7x7-1/p4
I1210 12:36:21.497992  8287 net.cpp:157] Top shape: 1 128 28 28 (100352)
I1210 12:36:21.497993  8287 net.cpp:165] Memory required for data: 131661848
I1210 12:36:21.497997  8287 layer_factory.hpp:77] Creating layer rpn_relu/7x7-1/p4
I1210 12:36:21.498003  8287 net.cpp:106] Creating Layer rpn_relu/7x7-1/p4
I1210 12:36:21.498004  8287 net.cpp:454] rpn_relu/7x7-1/p4 <- rpn_conv/7x7-1_out/p4
I1210 12:36:21.498008  8287 net.cpp:397] rpn_relu/7x7-1/p4 -> rpn_conv/7x7-1_out/p4 (in-place)
I1210 12:36:21.498199  8287 net.cpp:150] Setting up rpn_relu/7x7-1/p4
I1210 12:36:21.498206  8287 net.cpp:157] Top shape: 1 128 28 28 (100352)
I1210 12:36:21.498208  8287 net.cpp:165] Memory required for data: 132063256
I1210 12:36:21.498210  8287 layer_factory.hpp:77] Creating layer rpn_conv/7x7/p4
I1210 12:36:21.498217  8287 net.cpp:106] Creating Layer rpn_conv/7x7/p4
I1210 12:36:21.498220  8287 net.cpp:454] rpn_conv/7x7/p4 <- rpn_conv/7x7-1_out/p4
I1210 12:36:21.498224  8287 net.cpp:411] rpn_conv/7x7/p4 -> rpn_conv/7x7_output/p4
I1210 12:36:21.500949  8287 net.cpp:150] Setting up rpn_conv/7x7/p4
I1210 12:36:21.500958  8287 net.cpp:157] Top shape: 1 128 28 28 (100352)
I1210 12:36:21.500962  8287 net.cpp:165] Memory required for data: 132464664
I1210 12:36:21.500965  8287 layer_factory.hpp:77] Creating layer rpn_conv/357/p4
I1210 12:36:21.500977  8287 net.cpp:106] Creating Layer rpn_conv/357/p4
I1210 12:36:21.500978  8287 net.cpp:454] rpn_conv/357/p4 <- rpn_conv/3x3_output/p4
I1210 12:36:21.500982  8287 net.cpp:454] rpn_conv/357/p4 <- rpn_conv/5x5_output/p4
I1210 12:36:21.500983  8287 net.cpp:454] rpn_conv/357/p4 <- rpn_conv/7x7_output/p4
I1210 12:36:21.500988  8287 net.cpp:411] rpn_conv/357/p4 -> rpn_conv/357_output/p4
I1210 12:36:21.501010  8287 net.cpp:150] Setting up rpn_conv/357/p4
I1210 12:36:21.501015  8287 net.cpp:157] Top shape: 1 512 28 28 (401408)
I1210 12:36:21.501016  8287 net.cpp:165] Memory required for data: 134070296
I1210 12:36:21.501019  8287 layer_factory.hpp:77] Creating layer rpn_relu/357/p4
I1210 12:36:21.501022  8287 net.cpp:106] Creating Layer rpn_relu/357/p4
I1210 12:36:21.501026  8287 net.cpp:454] rpn_relu/357/p4 <- rpn_conv/357_output/p4
I1210 12:36:21.501030  8287 net.cpp:397] rpn_relu/357/p4 -> rpn_conv/357_output/p4 (in-place)
I1210 12:36:21.501176  8287 net.cpp:150] Setting up rpn_relu/357/p4
I1210 12:36:21.501183  8287 net.cpp:157] Top shape: 1 512 28 28 (401408)
I1210 12:36:21.501184  8287 net.cpp:165] Memory required for data: 135675928
I1210 12:36:21.501186  8287 layer_factory.hpp:77] Creating layer rpn_conv/357_output/p4_rpn_relu/357/p4_0_split
I1210 12:36:21.501191  8287 net.cpp:106] Creating Layer rpn_conv/357_output/p4_rpn_relu/357/p4_0_split
I1210 12:36:21.501194  8287 net.cpp:454] rpn_conv/357_output/p4_rpn_relu/357/p4_0_split <- rpn_conv/357_output/p4
I1210 12:36:21.501196  8287 net.cpp:411] rpn_conv/357_output/p4_rpn_relu/357/p4_0_split -> rpn_conv/357_output/p4_rpn_relu/357/p4_0_split_0
I1210 12:36:21.501201  8287 net.cpp:411] rpn_conv/357_output/p4_rpn_relu/357/p4_0_split -> rpn_conv/357_output/p4_rpn_relu/357/p4_0_split_1
I1210 12:36:21.501235  8287 net.cpp:150] Setting up rpn_conv/357_output/p4_rpn_relu/357/p4_0_split
I1210 12:36:21.501238  8287 net.cpp:157] Top shape: 1 512 28 28 (401408)
I1210 12:36:21.501240  8287 net.cpp:157] Top shape: 1 512 28 28 (401408)
I1210 12:36:21.501242  8287 net.cpp:165] Memory required for data: 138887192
I1210 12:36:21.501243  8287 layer_factory.hpp:77] Creating layer rpn_cls_score/p4
I1210 12:36:21.501251  8287 net.cpp:106] Creating Layer rpn_cls_score/p4
I1210 12:36:21.501255  8287 net.cpp:454] rpn_cls_score/p4 <- rpn_conv/357_output/p4_rpn_relu/357/p4_0_split_0
I1210 12:36:21.501258  8287 net.cpp:411] rpn_cls_score/p4 -> rpn_cls_score/p4
I1210 12:36:21.502234  8287 net.cpp:150] Setting up rpn_cls_score/p4
I1210 12:36:21.502243  8287 net.cpp:157] Top shape: 1 18 28 28 (14112)
I1210 12:36:21.502245  8287 net.cpp:165] Memory required for data: 138943640
I1210 12:36:21.502249  8287 layer_factory.hpp:77] Creating layer rpn_bbox_pred/p4
I1210 12:36:21.502257  8287 net.cpp:106] Creating Layer rpn_bbox_pred/p4
I1210 12:36:21.502259  8287 net.cpp:454] rpn_bbox_pred/p4 <- rpn_conv/357_output/p4_rpn_relu/357/p4_0_split_1
I1210 12:36:21.502264  8287 net.cpp:411] rpn_bbox_pred/p4 -> rpn_bbox_pred/p4
I1210 12:36:21.503291  8287 net.cpp:150] Setting up rpn_bbox_pred/p4
I1210 12:36:21.503299  8287 net.cpp:157] Top shape: 1 36 28 28 (28224)
I1210 12:36:21.503301  8287 net.cpp:165] Memory required for data: 139056536
I1210 12:36:21.503305  8287 layer_factory.hpp:77] Creating layer rpn_cls_score_reshape/p4
I1210 12:36:21.503310  8287 net.cpp:106] Creating Layer rpn_cls_score_reshape/p4
I1210 12:36:21.503312  8287 net.cpp:454] rpn_cls_score_reshape/p4 <- rpn_cls_score/p4
I1210 12:36:21.503316  8287 net.cpp:411] rpn_cls_score_reshape/p4 -> rpn_cls_score_reshape/p4
I1210 12:36:21.503338  8287 net.cpp:150] Setting up rpn_cls_score_reshape/p4
I1210 12:36:21.503341  8287 net.cpp:157] Top shape: 1 2 252 28 (14112)
I1210 12:36:21.503343  8287 net.cpp:165] Memory required for data: 139112984
I1210 12:36:21.503345  8287 layer_factory.hpp:77] Creating layer rpn_cls_prob/p4
I1210 12:36:21.503348  8287 net.cpp:106] Creating Layer rpn_cls_prob/p4
I1210 12:36:21.503350  8287 net.cpp:454] rpn_cls_prob/p4 <- rpn_cls_score_reshape/p4
I1210 12:36:21.503355  8287 net.cpp:411] rpn_cls_prob/p4 -> rpn_cls_prob/p4
I1210 12:36:21.503547  8287 net.cpp:150] Setting up rpn_cls_prob/p4
I1210 12:36:21.503554  8287 net.cpp:157] Top shape: 1 2 252 28 (14112)
I1210 12:36:21.503556  8287 net.cpp:165] Memory required for data: 139169432
I1210 12:36:21.503558  8287 layer_factory.hpp:77] Creating layer rpn_cls_prob_reshape/p4
I1210 12:36:21.503564  8287 net.cpp:106] Creating Layer rpn_cls_prob_reshape/p4
I1210 12:36:21.503566  8287 net.cpp:454] rpn_cls_prob_reshape/p4 <- rpn_cls_prob/p4
I1210 12:36:21.503571  8287 net.cpp:411] rpn_cls_prob_reshape/p4 -> rpn_cls_prob_reshape/p4
I1210 12:36:21.503590  8287 net.cpp:150] Setting up rpn_cls_prob_reshape/p4
I1210 12:36:21.503594  8287 net.cpp:157] Top shape: 1 18 28 28 (14112)
I1210 12:36:21.503597  8287 net.cpp:165] Memory required for data: 139225880
I1210 12:36:21.503597  8287 layer_factory.hpp:77] Creating layer proposal/p4
I1210 12:36:21.579583  8287 net.cpp:106] Creating Layer proposal/p4
I1210 12:36:21.579617  8287 net.cpp:454] proposal/p4 <- rpn_cls_prob_reshape/p4
I1210 12:36:21.579628  8287 net.cpp:454] proposal/p4 <- rpn_bbox_pred/p4
I1210 12:36:21.579634  8287 net.cpp:454] proposal/p4 <- im_info_input_1_split_0
I1210 12:36:21.579644  8287 net.cpp:411] proposal/p4 -> rois/p4
I1210 12:36:21.582249  8287 net.cpp:150] Setting up proposal/p4
I1210 12:36:21.582275  8287 net.cpp:157] Top shape: 1 5 (5)
I1210 12:36:21.582280  8287 net.cpp:165] Memory required for data: 139225900
I1210 12:36:21.582288  8287 layer_factory.hpp:77] Creating layer rpn_conv/3x3/p5
I1210 12:36:21.582306  8287 net.cpp:106] Creating Layer rpn_conv/3x3/p5
I1210 12:36:21.582314  8287 net.cpp:454] rpn_conv/3x3/p5 <- conv5_256_conv5_256_relu_0_split_1
I1210 12:36:21.582325  8287 net.cpp:411] rpn_conv/3x3/p5 -> rpn_conv/3x3_output/p5
I1210 12:36:21.597388  8287 net.cpp:150] Setting up rpn_conv/3x3/p5
I1210 12:36:21.597420  8287 net.cpp:157] Top shape: 1 256 14 14 (50176)
I1210 12:36:21.597426  8287 net.cpp:165] Memory required for data: 139426604
I1210 12:36:21.597440  8287 layer_factory.hpp:77] Creating layer rpn_dimred/3x3/p5
I1210 12:36:21.597460  8287 net.cpp:106] Creating Layer rpn_dimred/3x3/p5
I1210 12:36:21.597468  8287 net.cpp:454] rpn_dimred/3x3/p5 <- conv5_256_conv5_256_relu_0_split_2
I1210 12:36:21.597486  8287 net.cpp:411] rpn_dimred/3x3/p5 -> rpn_dimred_output/p5
I1210 12:36:21.604993  8287 net.cpp:150] Setting up rpn_dimred/3x3/p5
I1210 12:36:21.605015  8287 net.cpp:157] Top shape: 1 128 14 14 (25088)
I1210 12:36:21.605020  8287 net.cpp:165] Memory required for data: 139526956
I1210 12:36:21.605029  8287 layer_factory.hpp:77] Creating layer rpn_dimred_relu/p5
I1210 12:36:21.605041  8287 net.cpp:106] Creating Layer rpn_dimred_relu/p5
I1210 12:36:21.605046  8287 net.cpp:454] rpn_dimred_relu/p5 <- rpn_dimred_output/p5
I1210 12:36:21.605057  8287 net.cpp:397] rpn_dimred_relu/p5 -> rpn_dimred_output/p5 (in-place)
I1210 12:36:21.605412  8287 net.cpp:150] Setting up rpn_dimred_relu/p5
I1210 12:36:21.605429  8287 net.cpp:157] Top shape: 1 128 14 14 (25088)
I1210 12:36:21.605433  8287 net.cpp:165] Memory required for data: 139627308
I1210 12:36:21.605437  8287 layer_factory.hpp:77] Creating layer rpn_dimred_output/p5_rpn_dimred_relu/p5_0_split
I1210 12:36:21.605463  8287 net.cpp:106] Creating Layer rpn_dimred_output/p5_rpn_dimred_relu/p5_0_split
I1210 12:36:21.605468  8287 net.cpp:454] rpn_dimred_output/p5_rpn_dimred_relu/p5_0_split <- rpn_dimred_output/p5
I1210 12:36:21.605476  8287 net.cpp:411] rpn_dimred_output/p5_rpn_dimred_relu/p5_0_split -> rpn_dimred_output/p5_rpn_dimred_relu/p5_0_split_0
I1210 12:36:21.605491  8287 net.cpp:411] rpn_dimred_output/p5_rpn_dimred_relu/p5_0_split -> rpn_dimred_output/p5_rpn_dimred_relu/p5_0_split_1
I1210 12:36:21.605600  8287 net.cpp:150] Setting up rpn_dimred_output/p5_rpn_dimred_relu/p5_0_split
I1210 12:36:21.605618  8287 net.cpp:157] Top shape: 1 128 14 14 (25088)
I1210 12:36:21.605626  8287 net.cpp:157] Top shape: 1 128 14 14 (25088)
I1210 12:36:21.605633  8287 net.cpp:165] Memory required for data: 139828012
I1210 12:36:21.605640  8287 layer_factory.hpp:77] Creating layer rpn_conv/5x5/p5
I1210 12:36:21.605666  8287 net.cpp:106] Creating Layer rpn_conv/5x5/p5
I1210 12:36:21.605674  8287 net.cpp:454] rpn_conv/5x5/p5 <- rpn_dimred_output/p5_rpn_dimred_relu/p5_0_split_0
I1210 12:36:21.605690  8287 net.cpp:411] rpn_conv/5x5/p5 -> rpn_conv/5x5_output/p5
I1210 12:36:21.611819  8287 net.cpp:150] Setting up rpn_conv/5x5/p5
I1210 12:36:21.611843  8287 net.cpp:157] Top shape: 1 128 14 14 (25088)
I1210 12:36:21.611847  8287 net.cpp:165] Memory required for data: 139928364
I1210 12:36:21.611856  8287 layer_factory.hpp:77] Creating layer rpn_conv/7x7-1/p5
I1210 12:36:21.611872  8287 net.cpp:106] Creating Layer rpn_conv/7x7-1/p5
I1210 12:36:21.611878  8287 net.cpp:454] rpn_conv/7x7-1/p5 <- rpn_dimred_output/p5_rpn_dimred_relu/p5_0_split_1
I1210 12:36:21.611891  8287 net.cpp:411] rpn_conv/7x7-1/p5 -> rpn_conv/7x7-1_out/p5
I1210 12:36:21.615453  8287 net.cpp:150] Setting up rpn_conv/7x7-1/p5
I1210 12:36:21.615466  8287 net.cpp:157] Top shape: 1 128 14 14 (25088)
I1210 12:36:21.615470  8287 net.cpp:165] Memory required for data: 140028716
I1210 12:36:21.615476  8287 layer_factory.hpp:77] Creating layer rpn_relu/7x7-1/p5
I1210 12:36:21.615483  8287 net.cpp:106] Creating Layer rpn_relu/7x7-1/p5
I1210 12:36:21.615486  8287 net.cpp:454] rpn_relu/7x7-1/p5 <- rpn_conv/7x7-1_out/p5
I1210 12:36:21.615492  8287 net.cpp:397] rpn_relu/7x7-1/p5 -> rpn_conv/7x7-1_out/p5 (in-place)
I1210 12:36:21.616123  8287 net.cpp:150] Setting up rpn_relu/7x7-1/p5
I1210 12:36:21.616137  8287 net.cpp:157] Top shape: 1 128 14 14 (25088)
I1210 12:36:21.616139  8287 net.cpp:165] Memory required for data: 140129068
I1210 12:36:21.616143  8287 layer_factory.hpp:77] Creating layer rpn_conv/7x7/p5
I1210 12:36:21.616153  8287 net.cpp:106] Creating Layer rpn_conv/7x7/p5
I1210 12:36:21.616156  8287 net.cpp:454] rpn_conv/7x7/p5 <- rpn_conv/7x7-1_out/p5
I1210 12:36:21.616163  8287 net.cpp:411] rpn_conv/7x7/p5 -> rpn_conv/7x7_output/p5
I1210 12:36:21.618958  8287 net.cpp:150] Setting up rpn_conv/7x7/p5
I1210 12:36:21.618969  8287 net.cpp:157] Top shape: 1 128 14 14 (25088)
I1210 12:36:21.618971  8287 net.cpp:165] Memory required for data: 140229420
I1210 12:36:21.618978  8287 layer_factory.hpp:77] Creating layer rpn_conv/357/p5
I1210 12:36:21.618983  8287 net.cpp:106] Creating Layer rpn_conv/357/p5
I1210 12:36:21.618988  8287 net.cpp:454] rpn_conv/357/p5 <- rpn_conv/3x3_output/p5
I1210 12:36:21.618990  8287 net.cpp:454] rpn_conv/357/p5 <- rpn_conv/5x5_output/p5
I1210 12:36:21.618993  8287 net.cpp:454] rpn_conv/357/p5 <- rpn_conv/7x7_output/p5
I1210 12:36:21.618999  8287 net.cpp:411] rpn_conv/357/p5 -> rpn_conv/357_output/p5
I1210 12:36:21.619030  8287 net.cpp:150] Setting up rpn_conv/357/p5
I1210 12:36:21.619036  8287 net.cpp:157] Top shape: 1 512 14 14 (100352)
I1210 12:36:21.619038  8287 net.cpp:165] Memory required for data: 140630828
I1210 12:36:21.619040  8287 layer_factory.hpp:77] Creating layer rpn_relu/357/p5
I1210 12:36:21.619046  8287 net.cpp:106] Creating Layer rpn_relu/357/p5
I1210 12:36:21.619050  8287 net.cpp:454] rpn_relu/357/p5 <- rpn_conv/357_output/p5
I1210 12:36:21.619056  8287 net.cpp:397] rpn_relu/357/p5 -> rpn_conv/357_output/p5 (in-place)
I1210 12:36:21.619604  8287 net.cpp:150] Setting up rpn_relu/357/p5
I1210 12:36:21.619614  8287 net.cpp:157] Top shape: 1 512 14 14 (100352)
I1210 12:36:21.619617  8287 net.cpp:165] Memory required for data: 141032236
I1210 12:36:21.619619  8287 layer_factory.hpp:77] Creating layer rpn_conv/357_output/p5_rpn_relu/357/p5_0_split
I1210 12:36:21.619626  8287 net.cpp:106] Creating Layer rpn_conv/357_output/p5_rpn_relu/357/p5_0_split
I1210 12:36:21.619628  8287 net.cpp:454] rpn_conv/357_output/p5_rpn_relu/357/p5_0_split <- rpn_conv/357_output/p5
I1210 12:36:21.619633  8287 net.cpp:411] rpn_conv/357_output/p5_rpn_relu/357/p5_0_split -> rpn_conv/357_output/p5_rpn_relu/357/p5_0_split_0
I1210 12:36:21.619640  8287 net.cpp:411] rpn_conv/357_output/p5_rpn_relu/357/p5_0_split -> rpn_conv/357_output/p5_rpn_relu/357/p5_0_split_1
I1210 12:36:21.619684  8287 net.cpp:150] Setting up rpn_conv/357_output/p5_rpn_relu/357/p5_0_split
I1210 12:36:21.619691  8287 net.cpp:157] Top shape: 1 512 14 14 (100352)
I1210 12:36:21.619694  8287 net.cpp:157] Top shape: 1 512 14 14 (100352)
I1210 12:36:21.619696  8287 net.cpp:165] Memory required for data: 141835052
I1210 12:36:21.619699  8287 layer_factory.hpp:77] Creating layer rpn_cls_score/p5
I1210 12:36:21.619712  8287 net.cpp:106] Creating Layer rpn_cls_score/p5
I1210 12:36:21.619717  8287 net.cpp:454] rpn_cls_score/p5 <- rpn_conv/357_output/p5_rpn_relu/357/p5_0_split_0
I1210 12:36:21.619726  8287 net.cpp:411] rpn_cls_score/p5 -> rpn_cls_score/p5
I1210 12:36:21.620999  8287 net.cpp:150] Setting up rpn_cls_score/p5
I1210 12:36:21.621011  8287 net.cpp:157] Top shape: 1 18 14 14 (3528)
I1210 12:36:21.621014  8287 net.cpp:165] Memory required for data: 141849164
I1210 12:36:21.621021  8287 layer_factory.hpp:77] Creating layer rpn_bbox_pred/p5
I1210 12:36:21.621031  8287 net.cpp:106] Creating Layer rpn_bbox_pred/p5
I1210 12:36:21.621034  8287 net.cpp:454] rpn_bbox_pred/p5 <- rpn_conv/357_output/p5_rpn_relu/357/p5_0_split_1
I1210 12:36:21.621039  8287 net.cpp:411] rpn_bbox_pred/p5 -> rpn_bbox_pred/p5
I1210 12:36:21.622040  8287 net.cpp:150] Setting up rpn_bbox_pred/p5
I1210 12:36:21.622050  8287 net.cpp:157] Top shape: 1 36 14 14 (7056)
I1210 12:36:21.622051  8287 net.cpp:165] Memory required for data: 141877388
I1210 12:36:21.622056  8287 layer_factory.hpp:77] Creating layer rpn_cls_score_reshape/p5
I1210 12:36:21.622063  8287 net.cpp:106] Creating Layer rpn_cls_score_reshape/p5
I1210 12:36:21.622066  8287 net.cpp:454] rpn_cls_score_reshape/p5 <- rpn_cls_score/p5
I1210 12:36:21.622071  8287 net.cpp:411] rpn_cls_score_reshape/p5 -> rpn_cls_score_reshape/p5
I1210 12:36:21.622104  8287 net.cpp:150] Setting up rpn_cls_score_reshape/p5
I1210 12:36:21.622114  8287 net.cpp:157] Top shape: 1 2 126 14 (3528)
I1210 12:36:21.622118  8287 net.cpp:165] Memory required for data: 141891500
I1210 12:36:21.622122  8287 layer_factory.hpp:77] Creating layer rpn_cls_prob/p5
I1210 12:36:21.622126  8287 net.cpp:106] Creating Layer rpn_cls_prob/p5
I1210 12:36:21.622128  8287 net.cpp:454] rpn_cls_prob/p5 <- rpn_cls_score_reshape/p5
I1210 12:36:21.622134  8287 net.cpp:411] rpn_cls_prob/p5 -> rpn_cls_prob/p5
I1210 12:36:21.622738  8287 net.cpp:150] Setting up rpn_cls_prob/p5
I1210 12:36:21.622750  8287 net.cpp:157] Top shape: 1 2 126 14 (3528)
I1210 12:36:21.622751  8287 net.cpp:165] Memory required for data: 141905612
I1210 12:36:21.622755  8287 layer_factory.hpp:77] Creating layer rpn_cls_prob_reshape/p5
I1210 12:36:21.622759  8287 net.cpp:106] Creating Layer rpn_cls_prob_reshape/p5
I1210 12:36:21.622762  8287 net.cpp:454] rpn_cls_prob_reshape/p5 <- rpn_cls_prob/p5
I1210 12:36:21.622768  8287 net.cpp:411] rpn_cls_prob_reshape/p5 -> rpn_cls_prob_reshape/p5
I1210 12:36:21.622795  8287 net.cpp:150] Setting up rpn_cls_prob_reshape/p5
I1210 12:36:21.622802  8287 net.cpp:157] Top shape: 1 18 14 14 (3528)
I1210 12:36:21.622803  8287 net.cpp:165] Memory required for data: 141919724
I1210 12:36:21.622805  8287 layer_factory.hpp:77] Creating layer proposal/p5
I1210 12:36:21.622860  8287 net.cpp:106] Creating Layer proposal/p5
I1210 12:36:21.622867  8287 net.cpp:454] proposal/p5 <- rpn_cls_prob_reshape/p5
I1210 12:36:21.622871  8287 net.cpp:454] proposal/p5 <- rpn_bbox_pred/p5
I1210 12:36:21.622874  8287 net.cpp:454] proposal/p5 <- im_info_input_1_split_1
I1210 12:36:21.622879  8287 net.cpp:411] proposal/p5 -> rois/p5
I1210 12:36:21.624022  8287 net.cpp:150] Setting up proposal/p5
I1210 12:36:21.624032  8287 net.cpp:157] Top shape: 1 5 (5)
I1210 12:36:21.624034  8287 net.cpp:165] Memory required for data: 141919744
I1210 12:36:21.624037  8287 layer_factory.hpp:77] Creating layer roi_pool/p5
I1210 12:36:21.624042  8287 net.cpp:106] Creating Layer roi_pool/p5
I1210 12:36:21.624044  8287 net.cpp:454] roi_pool/p5 <- conv5_256_conv5_256_relu_0_split_3
I1210 12:36:21.624048  8287 net.cpp:454] roi_pool/p5 <- rois/p5
I1210 12:36:21.624052  8287 net.cpp:411] roi_pool/p5 -> roi_pool/p5
I1210 12:36:21.624058  8287 roi_pooling_layer.cpp:30] Spatial scale: 0.0625
I1210 12:36:21.624099  8287 net.cpp:150] Setting up roi_pool/p5
I1210 12:36:21.624104  8287 net.cpp:157] Top shape: 1 256 7 7 (12544)
I1210 12:36:21.624105  8287 net.cpp:165] Memory required for data: 141969920
I1210 12:36:21.624107  8287 layer_factory.hpp:77] Creating layer roi_pool/p4
I1210 12:36:21.624111  8287 net.cpp:106] Creating Layer roi_pool/p4
I1210 12:36:21.624115  8287 net.cpp:454] roi_pool/p4 <- conv4_fuse_final_conv4_fuse_final_relu_0_split_2
I1210 12:36:21.624120  8287 net.cpp:454] roi_pool/p4 <- rois/p4
I1210 12:36:21.624125  8287 net.cpp:411] roi_pool/p4 -> roi_pool/p4
I1210 12:36:21.624132  8287 roi_pooling_layer.cpp:30] Spatial scale: 0.125
I1210 12:36:21.624168  8287 net.cpp:150] Setting up roi_pool/p4
I1210 12:36:21.624173  8287 net.cpp:157] Top shape: 1 256 7 7 (12544)
I1210 12:36:21.624176  8287 net.cpp:165] Memory required for data: 142020096
I1210 12:36:21.624177  8287 layer_factory.hpp:77] Creating layer all_pool
I1210 12:36:21.624181  8287 net.cpp:106] Creating Layer all_pool
I1210 12:36:21.624183  8287 net.cpp:454] all_pool <- roi_pool/p4
I1210 12:36:21.624186  8287 net.cpp:454] all_pool <- roi_pool/p5
I1210 12:36:21.624191  8287 net.cpp:411] all_pool -> rcnn_pool
I1210 12:36:21.624215  8287 net.cpp:150] Setting up all_pool
I1210 12:36:21.624220  8287 net.cpp:157] Top shape: 2 256 7 7 (25088)
I1210 12:36:21.624222  8287 net.cpp:165] Memory required for data: 142120448
I1210 12:36:21.624224  8287 layer_factory.hpp:77] Creating layer rcnn_fc6
I1210 12:36:21.624229  8287 net.cpp:106] Creating Layer rcnn_fc6
I1210 12:36:21.624231  8287 net.cpp:454] rcnn_fc6 <- rcnn_pool
I1210 12:36:21.624235  8287 net.cpp:411] rcnn_fc6 -> rcnn_fc6
I1210 12:36:21.871177  8287 net.cpp:150] Setting up rcnn_fc6
I1210 12:36:21.871218  8287 net.cpp:157] Top shape: 2 4096 (8192)
I1210 12:36:21.871222  8287 net.cpp:165] Memory required for data: 142153216
I1210 12:36:21.871230  8287 layer_factory.hpp:77] Creating layer relu6
I1210 12:36:21.871238  8287 net.cpp:106] Creating Layer relu6
I1210 12:36:21.871243  8287 net.cpp:454] relu6 <- rcnn_fc6
I1210 12:36:21.871265  8287 net.cpp:397] relu6 -> rcnn_fc6 (in-place)
I1210 12:36:21.871507  8287 net.cpp:150] Setting up relu6
I1210 12:36:21.871513  8287 net.cpp:157] Top shape: 2 4096 (8192)
I1210 12:36:21.871515  8287 net.cpp:165] Memory required for data: 142185984
I1210 12:36:21.871536  8287 layer_factory.hpp:77] Creating layer drop6
I1210 12:36:21.871541  8287 net.cpp:106] Creating Layer drop6
I1210 12:36:21.871542  8287 net.cpp:454] drop6 <- rcnn_fc6
I1210 12:36:21.871546  8287 net.cpp:397] drop6 -> rcnn_fc6 (in-place)
I1210 12:36:21.871598  8287 net.cpp:150] Setting up drop6
I1210 12:36:21.871615  8287 net.cpp:157] Top shape: 2 4096 (8192)
I1210 12:36:21.871618  8287 net.cpp:165] Memory required for data: 142218752
I1210 12:36:21.871618  8287 layer_factory.hpp:77] Creating layer fc7
I1210 12:36:21.871636  8287 net.cpp:106] Creating Layer fc7
I1210 12:36:21.871637  8287 net.cpp:454] fc7 <- rcnn_fc6
I1210 12:36:21.871642  8287 net.cpp:411] fc7 -> fc7
I1210 12:36:21.953124  8287 net.cpp:150] Setting up fc7
I1210 12:36:21.953145  8287 net.cpp:157] Top shape: 2 4096 (8192)
I1210 12:36:21.953147  8287 net.cpp:165] Memory required for data: 142251520
I1210 12:36:21.953162  8287 layer_factory.hpp:77] Creating layer relu7
I1210 12:36:21.953169  8287 net.cpp:106] Creating Layer relu7
I1210 12:36:21.953171  8287 net.cpp:454] relu7 <- fc7
I1210 12:36:21.953176  8287 net.cpp:397] relu7 -> fc7 (in-place)
I1210 12:36:21.953389  8287 net.cpp:150] Setting up relu7
I1210 12:36:21.953397  8287 net.cpp:157] Top shape: 2 4096 (8192)
I1210 12:36:21.953398  8287 net.cpp:165] Memory required for data: 142284288
I1210 12:36:21.953400  8287 layer_factory.hpp:77] Creating layer drop7
I1210 12:36:21.953404  8287 net.cpp:106] Creating Layer drop7
I1210 12:36:21.953407  8287 net.cpp:454] drop7 <- fc7
I1210 12:36:21.953410  8287 net.cpp:397] drop7 -> fc7 (in-place)
I1210 12:36:21.953433  8287 net.cpp:150] Setting up drop7
I1210 12:36:21.953438  8287 net.cpp:157] Top shape: 2 4096 (8192)
I1210 12:36:21.953439  8287 net.cpp:165] Memory required for data: 142317056
I1210 12:36:21.953440  8287 layer_factory.hpp:77] Creating layer fc7_drop7_0_split
I1210 12:36:21.953464  8287 net.cpp:106] Creating Layer fc7_drop7_0_split
I1210 12:36:21.953466  8287 net.cpp:454] fc7_drop7_0_split <- fc7
I1210 12:36:21.953470  8287 net.cpp:411] fc7_drop7_0_split -> fc7_drop7_0_split_0
I1210 12:36:21.953480  8287 net.cpp:411] fc7_drop7_0_split -> fc7_drop7_0_split_1
I1210 12:36:21.953536  8287 net.cpp:150] Setting up fc7_drop7_0_split
I1210 12:36:21.953541  8287 net.cpp:157] Top shape: 2 4096 (8192)
I1210 12:36:21.953543  8287 net.cpp:157] Top shape: 2 4096 (8192)
I1210 12:36:21.953544  8287 net.cpp:165] Memory required for data: 142382592
I1210 12:36:21.953547  8287 layer_factory.hpp:77] Creating layer cls_score
I1210 12:36:21.953552  8287 net.cpp:106] Creating Layer cls_score
I1210 12:36:21.953553  8287 net.cpp:454] cls_score <- fc7_drop7_0_split_0
I1210 12:36:21.953557  8287 net.cpp:411] cls_score -> cls_score
I1210 12:36:21.953797  8287 net.cpp:150] Setting up cls_score
I1210 12:36:21.953802  8287 net.cpp:157] Top shape: 2 4 (8)
I1210 12:36:21.953804  8287 net.cpp:165] Memory required for data: 142382624
I1210 12:36:21.953807  8287 layer_factory.hpp:77] Creating layer bbox_pred
I1210 12:36:21.953811  8287 net.cpp:106] Creating Layer bbox_pred
I1210 12:36:21.953814  8287 net.cpp:454] bbox_pred <- fc7_drop7_0_split_1
I1210 12:36:21.953816  8287 net.cpp:411] bbox_pred -> bbox_pred
I1210 12:36:21.954383  8287 net.cpp:150] Setting up bbox_pred
I1210 12:36:21.954388  8287 net.cpp:157] Top shape: 2 16 (32)
I1210 12:36:21.954391  8287 net.cpp:165] Memory required for data: 142382752
I1210 12:36:21.954393  8287 layer_factory.hpp:77] Creating layer cls_prob
I1210 12:36:21.954396  8287 net.cpp:106] Creating Layer cls_prob
I1210 12:36:21.954398  8287 net.cpp:454] cls_prob <- cls_score
I1210 12:36:21.954402  8287 net.cpp:411] cls_prob -> cls_prob
I1210 12:36:21.954999  8287 net.cpp:150] Setting up cls_prob
I1210 12:36:21.955006  8287 net.cpp:157] Top shape: 2 4 (8)
I1210 12:36:21.955008  8287 net.cpp:165] Memory required for data: 142382784
I1210 12:36:21.955011  8287 net.cpp:228] cls_prob does not need backward computation.
I1210 12:36:21.955013  8287 net.cpp:228] bbox_pred does not need backward computation.
I1210 12:36:21.955014  8287 net.cpp:228] cls_score does not need backward computation.
I1210 12:36:21.955016  8287 net.cpp:228] fc7_drop7_0_split does not need backward computation.
…
